trained_models/aamas22-main/best_model.pt (torch, 107951 bytes, 56 tensors)

encoder_input.0.weight f4 [32, 75]
000000 c6 b4 f5 3c be 86 4e be f2 29 2d bc bf 31 a5 3b
       0.029993426 -0.20168588 -0.010569083 0.0050413306
000010 8f 7e c3 3c a9 51 68 3e fe 92 96 3d 8f fe 1e 3e
       0.023864059 0.22687401 0.07352255 0.15526794
000020 a9 17 2a be b7 d3 27 3e b1 0f ac bb 3a a8 eb bc
       -0.16610588 0.16389357 -0.005250894 -0.02876674
000030 c7 0e 91 bd c5 49 ad bd 40 88 13 3d 56 8f f2 bb
       -0.07082897 -0.08461336 0.03601861 -0.007402341
000040 32 eb d9 bd fe 74 6c 3c 8c d7 f8 3d 29 e1 9b 3d
       -0.10640563 0.01443219 0.12150487 0.07611305
000050 02 5e 2c bc 13 0c bf 3b 5f 68 82 bd dc 52 21 bd
       -0.01052046 0.005830297 -0.063675635 -0.03938566
000060 d5 32 af bd 96 18 db bd dc 8e 53 3e 95 cb 8f bd
       -0.08554617 -0.10698049 0.20659965 -0.07021252
000070 b7 56 0a be 9f 23 96 bd 9d 2b dc 3b 4a b7 88 3c
       -0.13509642 -0.07331013 0.0067190663 0.016688962
000080 49 58 16 3e 1b df 83 bd 18 39 4b be 38 3c f2 3d
       0.14682116 -0.06439038 -0.19845998 0.11827892
000090 63 be 4f 3d ca aa ab 3d fa e5 d4 bd df a6 83 bd
       0.050718676 0.08382185 -0.10395427 -0.064283125
0000a0 8f e7 c8 3d 45 6f bc be 0f b9 99 3e 43 f1 e8 be
       0.09809791 -0.36803642 0.30024 -0.45496568
0000b0 fe 7c 6c be f2 7b 04 3e 73 6e 35 bd 16 3e 31 3e
       -0.23094556 0.12937906 -0.044294786 0.1730884
0000c0 da d0 2b 3e e9 6d b0 be 89 9a d7 be e2 32 0d be
       0.1677889 -0.34458855 -0.42110088 -0.13788942
0000d0 63 d9 e9 3c c3 39 a3 be f5 05 df bd 21 78 6a be
       0.02854604 -0.31880006 -0.10889808 -0.22897388
0000e0 36 85 05 3e 7d a2 c6 3e b0 93 d9 3d 96 3f 41 3f
       0.13039097 0.38795844 0.10623872 0.7548765
0000f0 bb 31 b7 be a4 81 83 3e 9c 3b 93 3e 86 ac 2a bd
       -0.3578013 0.25684845 0.28756416 -0.041668437
000100 da d9 b6 3d d4 98 14 be 57 92 be be 89 e6 93 be
       0.08928271 -0.14511424 -0.37221023 -0.28886822
000110 fa 6b bc be 33 f5 27 3e ca 27 ca 3c b0 fb cb 3d
       -0.3680113 0.1640213 0.024677176 0.09960115
000120 96 7f 3f be 48 80 34 bd 63 62 d0 3d f1 71 51 be
       -0.18701014 -0.04406765 0.10175016 -0.20453621
000130 80 e1 13 3c 14 ba 83 3a 9a 8f 4e 3c 5d 01 b5 bc
       0.009025931 0.0010049962 0.0126074795 -0.022095377
000140 06 a0 0b bd ad c2 20 be 2d d3 81 3e bc dc 65 3e
       -0.034088157 -0.15699263 0.25356427 0.22447485
000150 8f 67 1f bc a7 06 6c 3c e4 98 03 3c 0f af 4b 3e
       -0.00972928 0.014405883 0.008032057 0.19890998
000160 ce 04 d0 3d f8 4a 71 3d 07 6b 9c bd 43 3c 06 be
       0.101571664 0.058909386 -0.07637601 -0.13108926
000170 ba 5a 3e 3c dc dc 51 3d 23 aa 82 bd 4d 60 2f be
       0.011618311 0.05123602 -0.06380107 -0.1712658
000180 6f 3a e5 3d cc 34 29 3e 83 79 a6 3d b4 fe 55 3e
       0.11192786 0.16524047 0.08128645 0.20897943
000190 7a 01 43 bc a1 f8 97 3d ef fa ad 3d 8b 9b bf 3d
       -0.0119022075 0.07420469 0.084951274 0.09355839
0001a0 ef c0 26 3e 80 ee 50 bd 42 e0 49 be 79 82 63 bc
       0.16284536 -0.0510087 -0.19714454 -0.013886088
0001b0 0f f2 87 3e 99 4d 06 be f2 88 05 3e 7c ed ab 3c
       0.26551864 -0.13115539 0.13040522 0.020987265
0001c0 ae e7 a6 bd 3a 7b 12 3c db f2 14 3c 90 a4 d5 3c
       -0.08149658 0.008940512 0.009091104 0.026079446
0001d0 4c 8b 55 3d 57 a4 54 be 00 26 ff 3e 33 95 0d 3f
       0.052134797 -0.20765816 0.4983368 0.55305785
0001e0 dd 0f 17 3f 33 e8 30 3f d1 ce 6d 3e 36 f4 b6 be
       0.5900858 0.6910431 0.23223425 -0.35733193
0001f0 79 4c 02 bf 2f 11 dc 3e 57 c1 80 3d d9 5d b4 bd
       -0.5089794 0.4298186 0.06286877 -0.088069625
000200 d9 04 95 bd eb 2e a0 be 26 3f a9 3e ff 42 99 bd
       -0.07276315 -0.31285796 0.3305599 -0.074834816
000210 4b 42 9c 3e 57 70 6c be 17 95 b9 be e4 97 65 3e
       0.30519328 -0.23089729 -0.3624656 0.22421223
000220 4f 3f 8a be 78 69 b9 bd 03 ce 94 3e 67 54 f4 3e
       -0.27001426 -0.0905332 0.29063424 0.47720644
000230 36 8e 88 bd 88 4f 23 3f a0 aa 81 3e e6 40 a2 3e
       -0.066677496 0.6379323 0.2532549 0.3169014
000240 10 c5 8d bd 8d 19 fa 3b c6 1a d3 3d e7 3f ea 3d
       -0.06922352 0.0076324404 0.10307841 0.1143797
000250 59 20 73 3a c9 2a 0c be 12 14 5d be 02 a2 8e 3d
       0.00092745345 -0.13688196 -0.21589687 0.06964494
000260 d8 c7 7a 3b 33 1e 5b 3c 90 fd 1f bc 20 0f 2c 3e
       0.0038266089 0.013373899 -0.009765044 0.16802645
000270 b6 ac 3e be d8 9e 2d 3e 9c 00 ae 3d 2d 59 80 3d
       -0.18620571 0.16955125 0.0849621 0.06267009
000280 6d 42 fe 3c d6 d4 2f bd 84 08 39 3d 30 69 3f bd
       0.031037534 -0.042927586 0.045174137 -0.046731174
000290 63 6b c9 3d db 6f fe 3d de a6 d6 3b 75 65 4d 3d
       0.098349355 0.124236785 0.006550654 0.050145585
0002a0 6d 8b 8c 3d 6a 5c 83 bc 38 45 f7 3d 35 e9 18 bd
       0.06862531 -0.016035277 0.12073749 -0.03733178
0002b0 19 27 53 3d de 68 0b 3b 5a 5a 59 3d ef 73 b0 3c
       0.05155096 0.0021272223 0.05306468 0.021539656
0002c0 ae 87 5f bb 29 08 c4 bd f2 a9 9c bd 17 d0 67 3d
       -0.003410797 -0.09571869 -0.07649602 0.056594934
0002d0 7d ce 49 3d 65 97 49 bd f7 91 6c 3d 2e 10 74 3e
       0.04926919 -0.049216647 0.05775639 0.23834297
0002e0 a5 85 9b bd 75 30 c5 bc f7 78 d0 3d 92 fc 6c bc
       -0.0759385 -0.024070958 0.10179322 -0.014464514
0002f0 8a cc 35 3d 9e e2 ad bd a7 de 62 bd 50 22 41 be
       0.044384517 -0.084904894 -0.05538812 -0.18860745
000300 e5 db d8 3d a8 b0 82 3d 92 2b 9b 3d fd 6c b1 3e
       0.105888166 0.06381351 0.0757667 0.34653464
000310 8a 9a c7 3e fb c9 dd 3e e4 77 42 bd 35 5a ed be
       0.3898509 0.4331816 -0.047477618 -0.46357885
000320 b8 01 8b bd c0 96 31 be 58 14 1f be b5 bc d4 bd
       -0.06787437 -0.17342663 -0.15535104 -0.103875555
000330 80 ae a4 be ca 7b 56 3d 5a a1 78 3e 61 18 03 3f
       -0.32164383 0.05236415 0.242803 0.51209074
000340 8c d6 e8 bd e9 17 ba 3e 14 56 dd 3b aa 27 09 3e
       -0.113690466 0.36346367 0.006754646 0.13394037
000350 ea 38 e3 3d 69 88 fc 3d e3 f5 c4 3e 51 01 90 be
       0.1109484 0.12330706 0.38468847 -0.28126004
000360 32 67 8d 3e ac 8d be bd aa 3c ae bd 8c da 5a 3d
       0.27617794 -0.093043655 -0.085076645 0.05343108
000370 88 ab 26 bb d2 71 88 3e 08 bb b0 bd ef 6f 24 3e
       -0.002543183 0.26649338 -0.086294234 0.16058324
000380 2a d8 cf bd 63 5e 2d 3e 31 e9 2b 3e 4d 15 c1 bb
       -0.10148652 0.16930537 0.16788174 -0.005892432
000390 3d 38 50 3b 87 61 60 3c 17 a7 c6 bc 9e 05 61 3d
       0.0031771802 0.013695127 -0.024249597 0.054936998
0003a0 76 51 6f 3e 98 a7 fd bc 33 7e 26 3d fd 31 70 3d
       0.23370919 -0.030963704 0.040647697 0.058641423
0003b0 71 4f 24 3d 71 a0 51 be d5 c9 07 3d 84 be 91 3d
       0.040114824 -0.2047136 0.033151466 0.07116416
0003c0 26 bc ad bd b1 7a c4 3d bb f9 c2 ba 3b 52 42 bc
       -0.08483152 0.09593714 -0.0014875451 -0.011860426
0003d0 b0 bc 68 3d 85 a4 c4 bd 3e 48 a2 bd f9 2f 2d 3d
       0.05682057 -0.09601692 -0.07923935 0.04228208
0003e0 ef 78 3f 3d 64 81 af bd 4d 7d f9 bd e6 e3 cd bd
       0.04674619 -0.08569601 -0.12182102 -0.10053234
0003f0 08 df 76 bd 49 b1 2b 3e ec 4e 93 bd d2 07 7e 3d
       -0.060271293 0.16766848 -0.071927875 0.062019177

encoder_input.0.bias f4 [32]
000000 75 80 d7 3d 1e 68 69 bd 30 c3 96 bc 85 64 dd bc
       0.10522548 -0.05698406 -0.01840362 -0.02702547
000010 8f 06 ad bd b5 a3 bb bd a9 16 47 bd e3 d1 5d bc
       -0.084485166 -0.09162084 -0.048605595 -0.01353881
000020 79 e6 a0 bd d3 4b 67 3d d9 64 b9 3c 88 e4 65 bc
       -0.07856459 0.056468796 0.022631096 -0.014031537
000030 c1 4b 0c 3d cb 72 3f bd 2e ef ec 3d c6 60 d9 3d
       0.034251932 -0.046740334 0.115690574 0.10614161
000040 5b 47 9b 3d 6b b0 cc bd e0 d1 49 bc 70 b1 ac bc
       0.07581969 -0.099945866 -0.0123181045 -0.021080703
000050 cd 16 1e 3d 11 76 5a 3c f0 b5 9b 3d 10 bd ee 3d
       0.038595963 0.013333813 0.07603061 0.116571546
000060 d1 40 cf 3d 1f 24 dc 3c 0d 9e 9d bd 51 bd 8f bd
       0.101197846 0.026872693 -0.076961614 -0.07018531
000070 87 6f b2 bd 2d 5a 65 bd 15 3c e2 bd 8e 70 0b 3d
       -0.087126784 -0.0559942 -0.11046616 0.034042887

encoder_input.1.weight f4 [32]
000000 08 88 6f 3f 2e 1a 6a 3f bd 26 8f 3f 57 60 87 3f
       0.9356694 0.914462 1.1183697 1.0576276
000010 ba 3d 83 3f d3 b1 5f 3f c9 ca 84 3f e2 15 9e 3f
       1.0253212 0.87380713 1.0374385 1.2350428
000020 9b 3b b1 3f 06 79 70 3f ea b3 66 3f 81 49 35 3f
       1.3846315 0.9393467 0.9011828 0.70815283
000030 27 17 48 3f cd 0d 49 3f ac 77 8d 3f 9d a2 90 3f
       0.7816033 0.78536683 1.1052146 1.1299626
000040 d7 cd 84 3f c9 80 65 3f 9d 7f 79 3f 5b 1c a1 3f
       1.0375317 0.89649636 0.9746035 1.2586778
000050 1c 03 6f 3f df c8 73 3f e7 92 74 3f 77 ba 88 3f
       0.9336412 0.9522838 0.95536655 1.0681905
000060 c1 67 6a 3f 24 e6 7e 3f 92 0c 55 3f 55 17 7b 3f
       0.91564566 0.99569917 0.83222306 0.98082477
000070 cb e6 67 3f e4 e3 96 3f dc 3e 47 3f dc 6b 79 3f
       0.9058654 1.1788297 0.7783029 0.97430205

encoder_input.1.bias f4 [32]
000000 3d 8b 82 3c 17 17 e1 bd 3c 8b 23 3e ba f2 dc bd
       0.015935535 -0.10990732 0.15971082 -0.10788484
000010 9d 10 b6 bd 80 20 a5 bc a2 b2 bf 3d cb 39 01 3e
       -0.088898875 -0.020157099 0.093602434 0.12619703
000020 1c 08 53 3e 75 c5 a7 3d ff 4f 69 3d c9 da 33 3d
       0.20608562 0.08191959 0.056961056 0.04390982
000030 9c 21 e1 3d bf 69 93 bd 53 b7 85 3d d8 2a 9f bc
       0.109927386 -0.07197904 0.06529107 -0.01942961
000040 5c 7a 6e bc c1 a8 d4 3d f5 36 11 be aa 00 8d 3d
       -0.01455554 0.1038375 -0.1418112 0.06884892
000050 2e 74 f7 3d a1 22 0b 3c 50 8d 1d 3d 05 cc 02 bd
       0.120827064 0.008492143 0.038464844 -0.03193285
000060 fb 3a 31 3e f9 a5 a8 3c 9b 32 05 bd 4b d2 af bd
       0.17307656 0.020586954 -0.032518964 -0.08585032
000070 ba 91 fb 3d 74 1b 2c 3e a5 a8 27 bc 43 92 a4 3d
       0.122836545 0.16807348 -0.010233079 0.0803571

encoder_input.1.running_mean f4 [32]
000000 fc 4d bc 3d ec c1 e7 3c d9 57 97 3e d4 12 92 be
       0.09194562 0.028290711 0.2955921 -0.2852999
000010 61 5f 52 be bf 35 9b bd 9a 71 96 3e 9c 35 2a 3e
       -0.20544197 -0.07578611 0.29383546 0.16622013
000020 d4 f3 b3 3d 6f 31 8c be 60 7d 2e be ea 04 35 3e
       0.08786741 -0.27381465 -0.17040014 0.17677656
000030 18 9d 57 3c bf 8b 41 bd 0f 7b 92 3e 34 76 22 3e
       0.013160013 -0.047252413 0.2860951 0.15865403
000040 77 f3 1a 3e 36 1c 87 be cc fa 67 3e d1 2d 2b 3e
       0.15131937 -0.2638871 0.22654265 0.16716696
000050 83 99 44 be 64 4a 92 bd df dd 9e bd 6a ba a1 3e
       -0.19199185 -0.07143095 -0.07757162 0.31587535
000060 ae c3 04 be 1e 70 84 3e e9 5a b3 be 13 d8 f0 3d
       -0.12965271 0.2586679 -0.35030296 0.11759963
000070 4e e1 8d 3e 03 ab 9c bd 75 e7 bb be 2d 6a 31 bc
       0.27710956 -0.076498054 -0.36700025 -0.010828537

encoder_input.1.running_var f4 [32]
000000 61 94 8a 3c 85 67 7a 3c 4c 73 c0 3c dd 12 89 3c
       0.016916456 0.01528347 0.023492478 0.016732628
000010 3c 31 ab 3c 40 c9 c8 3c 63 46 a5 3c 32 b4 15 3b
       0.0208975 0.024510026 0.020175165 0.0022843
000020 7d 85 2e 3b 8a 46 a3 3b 19 82 98 3c 89 3b 31 3b
       0.0026629858 0.004982774 0.018616723 0.0027043542
000030 f2 46 3e 3c dc 43 bb 3b 21 47 86 3b 11 95 82 3b
       0.011613594 0.0057148766 0.0040978347 0.0039850553
000040 42 c2 9b 3c 16 c0 db 3c f8 e1 45 3c cc 89 41 3b
       0.019013528 0.026824992 0.012077801 0.0029531596
000050 6a 26 83 3c 20 2f af 3c d1 49 99 3c 82 25 ee 3c
       0.016009528 0.021384776 0.018711956 0.02907062
000060 05 80 09 3c bd 6e 23 3c e2 70 71 3c df ed 93 3c
       0.008392339 0.0099751325 0.014736386 0.018057762
000070 6c 70 c3 3c f6 29 b6 3c 44 0b e5 3b 09 93 88 3c
       0.023857318 0.022236805 0.0069898684 0.016671674

encoder_input.3.weight f4 [32, 32]
000000 c6 e7 36 3d 7e 7a 47 be 95 7b be bd aa c5 38 3e
       0.04465463 -0.19480321 -0.09300915 0.18044153
000010 07 f7 12 3e 9e 27 9d bc f4 91 94 bd 16 2f b1 be
       0.14352046 -0.01918393 -0.07254401 -0.34606236
000020 4f 4f c2 be 02 c3 50 bd f4 b5 0f 3d 84 5b be 3d
       -0.37951133 -0.050967224 0.035085633 0.09294799
000030 fd fc c4 bd 96 51 95 bd eb 32 73 be be 27 27 3e
       -0.09618566 -0.07290952 -0.23749892 0.16323754
000040 7b 3e 13 bd 3e 49 24 3d 90 8c 39 be 31 2b 7d be
       -0.035948258 0.04010891 -0.18120027 -0.24723507
000050 81 0f c7 bd cf 46 7a 3d dd b0 04 be cc 3b ea 3d
       -0.09719754 0.061102685 -0.12958093 0.114371866
000060 3b 8d 26 be 3d 89 17 bd 70 55 ba 3d cd de ce bd
       -0.16264813 -0.036996115 0.09098327 -0.101010896
000070 f9 3a 37 be 15 ad 0c 3c 87 4a 36 3d 9a 63 90 3e
       -0.1789359 0.008586188 0.04450467 0.2820099
000080 f1 83 57 bb eb f7 4a be 1b 52 26 be dc d7 66 bd
       -0.003288504 -0.19821136 -0.16242258 -0.056358203
000090 ed a4 f4 3d 8f 7b c9 3d c5 fa 46 bc 68 e4 a2 bc
       0.119455196 0.0983802 -0.012144749 -0.019884303
0000a0 36 f5 e1 3c 18 c4 19 be 6e da 97 3b 03 63 df 3d
       0.027582746 -0.1501621 0.004634193 0.10907557
0000b0 37 c4 77 bd 48 bd c7 bc 32 e3 3f be d6 68 38 3e
       -0.06048986 -0.024382249 -0.18739012 0.18008742
0000c0 bd 56 6b be 81 51 1b be 12 f4 29 be fa b1 1d be
       -0.22982307 -0.1516781 -0.16597012 -0.15399924
0000d0 31 ba b2 3d 67 63 61 bd b2 fc 81 be ec 5e 12 be
       0.087269194 -0.055026438 -0.25388104 -0.14294022
0000e0 e1 f7 ad bb 2e 43 66 3e 82 40 10 bd d1 87 38 3a
       -0.0053090905 0.22486565 -0.03521777 0.0007039281
0000f0 6e 8f ae bd 55 4d 8f be 06 56 cc bd a1 46 53 3e
       -0.08523451 -0.27988687 -0.09977345 0.20632412
000100 6a f9 4c 3c 1b 9a 0e 3e db df 29 3e 0a ae 71 3e
       0.012510637 0.13925974 0.165893 0.23601547
000110 1d da 83 be 6d c5 33 be 11 15 cd be 85 71 3a bd
       -0.25752345 -0.1755578 -0.40055135 -0.045518417
000120 ff e8 e8 bd 95 8e 9b 3d 8b 3a 9e be ef 09 4e 3d
       -0.113725655 0.07595555 -0.3090404 0.050302442
000130 a4 3a 49 3d 37 48 5c bd 01 05 63 bd 5d 4a ce bb
       0.04912819 -0.053779807 -0.055424694 -0.006295486
000140 a0 e8 b6 3c 78 6a 70 3e 07 33 c5 3b ff 0a 14 be
       0.022327721 0.23478115 0.006018046 -0.1445732
000150 ab 3f ae 3d c8 2a e4 3d 32 ea 8d 3e 84 a2 94 be
       0.085082375 0.111409724 0.2771774 -0.2903024
000160 7a ff 0e be 29 a6 7e be fa ef 68 3d 00 17 01 3d
       -0.13964644 -0.24868073 0.056869484 0.031516075
000170 63 6c 4e bd c8 aa 16 bd 97 1e 95 3d 8c 71 6c bd
       -0.050396334 -0.036783963 0.07281225 -0.057725474
000180 0f 21 88 bc bc 3f 0f 3e a4 33 44 3e f9 fc 9d be
       -0.016617326 0.13989156 0.19160324 -0.30857065
000190 1c c8 8b be 8b 35 3c be 6e e1 de bd 9c ce 3f be
       -0.2730111 -0.183798 -0.10882841 -0.18731159
0001a0 30 66 39 be 4d 7d d7 bc 1d e9 4e 3d ca 7d 50 3c
       -0.18105388 -0.026304865 0.050515283 0.012725303
0001b0 88 b1 a5 bb 87 7a 8a b8 ab 8e 3e be 12 8a c7 3c
       -0.0050565638 -6.603175e-05 -0.18609111 0.02435783
0001c0 34 fe d4 3d 6e 89 9d 3c a8 69 14 3e 0d 91 97 be
       0.10400048 0.01923057 0.1449343 -0.29602852
0001d0 51 d6 01 3e 1a 68 70 3c fd 98 95 3d 1b e0 f0 3c
       0.12679411 0.014673257 0.07304571 0.029403737
0001e0 75 57 e5 bc de 1c 54 be 91 5e ca 3d 3a a3 87 3d
       -0.027995804 -0.20714137 0.09881318 0.0662293
0001f0 0a 62 15 3e 3a a2 a7 bd cb 44 b8 bd 41 72 0c 3d
       0.1458818 -0.08185239 -0.08997496 0.03428865
000200 4d 03 41 3e da 2f 39 bd d8 9f cd be 78 2a 18 3e
       0.18848915 -0.04521165 -0.40161014 0.1485995
000210 6b be 33 3e 25 36 a8 bc 52 f0 07 3d 65 46 6e bd
       0.17553107 -0.02053363 0.03318817 -0.058172602
000220 91 ea 30 be 82 78 9d bd 9a 48 48 3e a9 a5 fe bc
       -0.1727698 -0.07689001 0.19558945 -0.031084852
000230 4c c2 df 3d 0a a7 12 be 04 bb 29 3d 77 20 ff 3d
       0.10925731 -0.14321533 0.041438118 0.12457364
000240 d4 2a 06 be e4 68 0a be b7 49 9e 3b 1a 7a 42 be
       -0.13102275 -0.13516575 0.004830565 -0.1899189
000250 d4 8e f3 3d aa 87 96 be 5d ef 97 bd c8 cc 2a 3e
       0.11892477 -0.29400378 -0.07418702 0.1667968
000260 ec fb 62 bd 0b fa 9b 3d 96 b6 a9 3b 4e df 17 be
       -0.055416033 0.07616051 0.0051792366 -0.14831278
000270 74 23 d4 bd 1e 26 2b bd 60 c6 6f 3a e7 73 14 be
       -0.10358325 -0.0417844 0.00091466866 -0.14497338
000280 8c e1 75 3d 27 ee 0c be 41 b2 da 3d fe 40 bd 3d
       0.06002955 -0.13762723 0.106785305 0.09240912
000290 36 de 72 3d 51 fd fa bd 86 e1 25 3e cc cd df bd
       0.059293948 -0.122553475 0.16199312 -0.109279245
0002a0 75 b1 95 3c 1b 94 b2 3e 53 c8 00 bb 42 80 6e bd
       0.018273095 0.3487862 -0.0019650653 -0.058227785
0002b0 00 95 81 3d 70 93 60 3e 26 a6 d6 3d a6 51 f5 bc
       0.063272476 0.21931243 0.10480909 -0.02994616
0002c0 08 7d ca 3c e5 82 4f 3d 95 be 51 bd 72 11 42 bc
       0.024717823 0.05066194 -0.051207144 -0.01184498
0002d0 60 96 0a be 56 ca 9d 3a a4 4e a0 3d 56 e4 07 3e
       -0.13533926 0.001203845 0.078274995 0.13270697
0002e0 e0 75 b3 3d 55 e2 92 be bb b9 e5 3d 34 92 41 3e
       0.08762717 -0.28688303 0.11217066 0.18903428
0002f0 72 c9 0c 3e 82 a9 a7 bd 9a 96 25 3e 69 30 3c 3e
       0.1374872 -0.08186628 0.16170731 0.18377842
000300 30 fe 9c bd 1f b0 4e 3e 1f 42 14 3e 22 bc ab bd
       -0.0766567 0.20184372 0.14478348 -0.08385493
000310 90 b7 4a bd a4 99 07 be 9e 6c ef bd f3 89 44 bd
       -0.049491465 -0.13242203 -0.11690639 -0.04798312
000320 69 3e 89 bd 9b fd cf bd 4a f8 95 bd 3d 18 5e 3d
       -0.06701357 -0.10155793 -0.07322748 0.054222334
000330 00 a9 ea bd fc 92 3a bb 13 83 df 3d cb b0 06 bd
       -0.114580154 -0.0028468957 0.10913672 -0.032883447
000340 6c 92 84 bd 24 d1 18 3e b7 4d 36 be 42 f0 21 3e
       -0.0647324 0.14923531 -0.17803083 0.15814307
000350 02 5f 63 3c 0e c0 0f 3e a7 3b 3d bb c2 70 de be
       0.013877632 0.14038107 -0.0028874667 -0.43445402
000360 62 21 8f bd 5a ba 1f 39 b0 f2 80 be 7a 68 00 be
       -0.06988789 0.00015232843 -0.25185156 -0.12539855
000370 fd 39 82 be 8f 92 fb 3d 2c 6b 85 3b 06 19 22 3d
       -0.25434867 0.12283813 0.004071614 0.039574645
000380 f1 50 f3 3d 0e 7a 4f bd 5b 3b dc 3d 4d e2 8e be
       0.11880673 -0.05065351 0.10753509 -0.2790703
000390 59 46 c3 3c 8d 43 9f bd 98 72 fc bd f1 ab 79 be
       0.023837255 -0.07776556 -0.123265445 -0.24381997
0003a0 d6 84 c6 be e5 6d 81 3d 48 74 76 bc df aa 78 bc
       -0.3877322 0.06319789 -0.015042372 -0.015177458
0003b0 51 9d e7 bc 80 f1 c0 bd 60 28 e7 bd 0f d9 08 3c
       -0.028273256 -0.094210625 -0.11286998 0.008352532
0003c0 11 e5 4e 3e b7 7f 1b 3e 55 15 d9 3d 54 2e ab be
       0.2020457 0.15185438 0.10599772 -0.33433783
0003d0 0f 81 1c 3e 25 e9 b4 3d e1 a1 29 3e 70 a7 fc 39
       0.15283607 0.08833531 0.16565658 0.00048189936
0003e0 f8 95 59 bd 93 be f3 bd aa ec 53 bd be d6 78 3d
       -0.053121537 -0.119015835 -0.051739372 0.06075167
0003f0 7b 13 23 3d 1d 32 7a be 17 f9 99 3d f7 27 6a bd
       0.0398135 -0.24433179 0.07518213 -0.05716702

encoder_input.3.bias f4 [32]
000000 26 3f fb bd 84 85 1d be 74 e8 8a 3d c3 ad 36 3d
       -0.12267904 -0.15382963 0.06782618 0.044599306
000010 c2 0e b5 bd 29 7c 26 3e c2 09 85 3d ac 7d a2 3d
       -0.088407055 0.16258301 0.06496002 0.07934126
000020 fb 4b 83 bc b3 9a 00 3e da 08 b4 bd f4 cb 19 be
       -0.016027441 0.12559013 -0.08790751 -0.15019208
000030 36 44 fc bd ac 30 22 be f5 c8 03 3e 01 2d 13 3d
       -0.12317698 -0.1583888 0.12869628 0.03593159
000040 c8 03 2b 3e e9 e4 7e bd b7 f8 ff bd 11 d5 29 3e
       0.16700661 -0.062230024 -0.124986105 0.16585185
000050 4b 27 7a bd 80 4a e0 bd 02 14 1b be 01 2f 31 bc
       -0.06107263 -0.1095171 -0.15144351 -0.010814429
000060 0f 4c d3 bd a1 30 88 bd 77 56 dd bd 28 57 0f bb
       -0.103172414 -0.066499 -0.108075075 -0.0021872018
000070 bf a1 0e 3e dc 63 4a 3c 70 1b f2 3d 6d 1e 23 bd
       0.13928889 0.01235291 0.118216395 -0.03982394

encoder_input.4.weight f4 [32]
000000 01 e3 90 3f 13 2c 6e 3f 81 08 7a 3f 23 c2 95 3f
       1.1319276 0.93036 0.97669226 1.1699871
000010 27 41 76 3f 70 bd c7 3f 4e 6f 82 3f 14 12 97 3f
       0.96193165 1.5604687 1.0190217 1.1802392
000020 49 07 57 3f 02 4a 8e 3f ab 72 89 3f b6 82 92 3f
       0.8399549 1.1116335 1.0738119 1.144614
000030 ac 8f a6 3f 8b ed 95 3f 65 1b 7f 3f 72 fe aa 3f
       1.3012595 1.1713117 0.99651176 1.33589
000040 9a c2 bd 3f 7a ae cc 3f 83 4e 9a 3f 49 48 89 3f
       1.4825013 1.5990746 1.205521 1.0725185
000050 6b 27 b1 3f d6 3b e4 3f 74 ec 7e 3f f3 6e 75 3f
       1.3840154 1.783076 0.9957955 0.9587242
000060 a0 48 b5 3f 90 09 82 3f 9e a7 87 3f 0f ac 90 3f
       1.4162788 1.0159168 1.0598028 1.1302508
000070 fc 79 81 3f aa 15 7b 3f 04 d4 7e 3f 4a 45 60 3f
       1.0115352 0.9807993 0.9954226 0.87605727

encoder_input.4.bias f4 [32]
000000 de 09 da 3e db d1 a2 3d 1f 16 36 3e 43 f2 e0 3e
       0.42585653 0.07950183 0.17781876 0.4393483
000010 c8 5f c3 3d 12 09 3b 3f f0 a3 04 3d bf ce 15 3f
       0.09539753 0.73060715 0.032382905 0.58518595
000020 93 af 17 3e f3 fc b6 3e 66 8a af 3d fc 56 f3 3e
       0.1481307 0.3573986 0.08571319 0.475273
000030 4d dc 2f 3f 76 6b cf 3e d8 d4 93 3e cf 0f ed 3e
       0.6869553 0.40511674 0.28873324 0.46301123
000040 0a a5 33 3f 43 c2 35 3f a4 f8 ea 3e 5c e1 58 3e
       0.70173705 0.70999545 0.45892823 0.21179718
000050 6e 57 19 3f 16 63 64 3f 71 bc 35 3e 60 2d 0b 3e
       0.5989903 0.89213693 0.17747666 0.13591528
000060 7a 57 fc 3e 5c 0a 2d 3e 63 35 c9 3e 22 fd 35 3e
       0.4928549 0.16898483 0.39298543 0.17772344
000070 61 00 6f 3e 21 29 a1 bd 6f 44 2e 3e c2 35 8f bb
       0.23339988 -0.07869173 0.17018293 -0.004370422

encoder_input.4.running_mean f4 [32]
000000 60 9e 88 bf db 56 40 bf 96 74 d2 be b4 19 05 bf
       -1.0673332 -0.7513253 -0.41104573 -0.51992345
000010 55 e0 14 bf 36 c4 1f 3f 6a af 91 be 57 0e 1f bf
       -0.58154804 0.6240877 -0.28454143 -0.62131256
000020 71 eb 60 bf 7b ad 08 bf 4a ad 84 3e b9 31 03 bf
       -0.87859255 -0.5338971 0.2591346 -0.51247746
000030 a3 97 0e bf 91 4f 5e be 15 d8 fd bd b1 fd 94 be
       -0.5570013 -0.2171004 -0.1239473 -0.290998
000040 10 15 1d 3c a4 0e 45 bf fe 33 9c bf ae 5f eb be
       0.009587541 -0.76975465 -1.2203367 -0.45971435
000050 a6 2b 3a bf d8 7c 32 bf e6 32 50 bf aa 59 99 be
       -0.7272285 -0.69721746 -0.81327665 -0.2995122
000060 e3 3d 94 3d 12 d5 85 bf eb 05 7c bf 16 df c5 bb
       0.072383665 -1.0455649 -0.9844653 -0.006038557
000070 6b 90 41 bf f6 df f8 bd 24 fb 8e bf 1d 40 07 be
       -0.7561099 -0.12152092 -1.1170392 -0.13208051

encoder_input.4.running_var f4 [32]
000000 f0 16 49 3f ef 43 f3 3e 46 3a 7e 3f 5a 1a 3b 3f
       0.78550625 0.47512767 0.9930767 0.73087084
000010 58 84 13 3f 69 24 97 3d 8c 78 1e 3f f3 50 73 3f
       0.57623816 0.073799916 0.6190269 0.95045394
000020 47 b1 09 3f 0d ab 48 3f a1 94 ae 3e 02 0c 48 3f
       0.5378613 0.78386 0.3409777 0.7814332
000030 b0 60 9f 3f e2 c3 fa 3e be 4a 95 3e 9b 42 0a 3f
       1.2451382 0.48977572 0.29158586 0.5400788
000040 0b ba a5 3e 09 f0 35 3e 85 8c e4 3e 5a 42 3c 3f
       0.32368502 0.17767347 0.44638458 0.73538744
000050 03 54 06 3f 9e eb 38 3f 60 fe 1e 3f 81 d0 6b 3e
       0.5247194 0.72234523 0.62106895 0.23028757
000060 22 d9 00 3e 37 df 84 3e 2f e3 c4 3f 4a 06 37 3e
       0.1258283 0.2595155 1.5381831 0.17873493
000070 2e 18 80 3f 7b 1a 1c 3f 39 71 0e 3f 19 95 6c 3f
       1.0007379 0.60977906 0.55641514 0.92415005

encoder_input.6.weight f4 [64, 32]
000000 e5 aa 0e 3e 56 f8 2f 3e 22 eb 37 3d 8c 0b b0 be
       0.13932379 0.17184576 0.044901974 -0.3438381
000010 de 71 2f 3e b8 59 1a bf fd 93 77 be fc ac 11 be
       0.1713328 -0.6029315 -0.24177547 -0.14226145
000020 c5 df f0 be e4 89 92 be 23 1b e9 3d 5d 6b 80 be
       -0.47045723 -0.28620827 0.11382129 -0.25081912
000030 91 b8 50 bc 1a f4 28 be 0d ff f1 bd bd 3a 9a 3e
       -0.012739317 -0.16499367 -0.11816225 0.3012294
000040 cf b5 aa be 8a 7f 2e 3e 63 79 36 be e6 29 68 be
       -0.33341834 0.1704084 -0.17819743 -0.22672233
000050 50 e0 f6 3d b8 7d d5 bf 71 ff ec bc 6e c4 6d be
       0.12054503 -1.6678991 -0.028930398 -0.23219463
000060 8b 89 0e bf 91 82 5b be 9c da 01 be db 7e 03 bf
       -0.55678624 -0.21436526 -0.12681049 -0.5136544
000070 8d 5e 3b bc 22 a4 ce 3d b8 f3 02 be 10 d8 3b bd
       -0.011436117 0.100898996 -0.12788284 -0.04586035
000080 de 67 76 bd 26 bd db 3d 95 82 f0 be 72 16 0e bf
       -0.06015765 0.107294366 -0.46974626 -0.55503
000090 7e 5d 7c bd 3b b2 15 bf 5f fa c4 be e5 1d 4d be
       -0.0616126 -0.58475083 -0.38472268 -0.20030935
0000a0 a7 4d 5a bd 57 66 9d be 2a ed dc 3e e0 23 95 be
       -0.05329671 -0.30742142 0.43149692 -0.29128933
0000b0 64 0f 75 bd a9 bb eb be 8a a4 44 be f4 1d fa 3e
       -0.05982913 -0.4604161 -0.19203392 0.48850977
0000c0 55 60 47 bf 03 a2 1e 3f 0a 7e 06 3e 34 11 ee 3a
       -0.77881366 0.6196596 0.13134018 0.0018163086
0000d0 1f 29 15 bd e1 9e 42 bf c5 a4 75 be 58 a6 8a be
       -0.03641617 -0.7602368 -0.23988636 -0.27080035
0000e0 3b e4 9a bf 3c c6 a3 be 52 47 dd be 04 84 0a bf
       -1.21009 -0.31987178 -0.43218476 -0.5410769
0000f0 35 f7 07 be a7 a0 7b bd bc 92 60 3c cd 87 9f 3d
       -0.13277896 -0.061432507 0.013706859 0.07789574
000100 ff b9 c1 be 39 38 04 bd b2 8c 39 3d 6f 34 e4 3d
       -0.37837216 -0.03228018 0.045300193 0.111428134
000110 6e 67 00 be 35 e6 b1 bd 2d f7 b0 be 4f 26 e3 3d
       -0.12539455 -0.08686487 -0.3456358 0.11091291
000120 7f 72 a3 bd 94 18 b9 3e 3a 88 00 bf 1b 10 d4 3d
       -0.07980823 0.36151564 -0.50207865 0.103546344
000130 03 20 d2 be 35 6b 9a bd d9 f4 49 3d 30 69 2f bf
       -0.41040048 -0.07539979 0.04930577 -0.6851988
000140 8b de 0b bd 01 67 a8 bf 96 9e 33 bd 05 da bb be
       -0.03414778 -1.3156434 -0.04385241 -0.36689773
000150 54 39 45 be a5 59 b7 be b3 3a 87 be 16 18 ba 3d
       -0.1926015 -0.3581058 -0.2641197 0.09086625
000160 02 d7 d4 be e2 3a 58 3e 5b 7b 10 3d f3 af 9e bd
       -0.41570288 0.21116212 0.03527389 -0.077484034
000170 5d d0 2c be 8d 0b db bc 15 8c c8 bd 10 08 1d 3e
       -0.1687636 -0.026738906 -0.097923435 0.15335107
000180 22 0e 2d be f2 cc 33 be 44 82 57 be 9d 09 e2 3d
       -0.16899922 -0.17558649 -0.21045786 0.1103699
000190 a2 ca 26 3e 65 86 f9 bd 58 29 62 be d9 6c 07 3e
       0.16288236 -0.12183837 -0.22086084 0.13225116
0001a0 b3 9d 5a be d8 cf 40 bd 57 f1 22 bf c6 85 28 3e
       -0.2134922 -0.047073215 -0.63649505 0.1645728
0001b0 92 4d 00 be e7 01 ab 3e 82 ff 31 be 13 12 e6 bd
       -0.1252959 0.3339989 -0.17382625 -0.11233916
0001c0 5a ba 3c 3e 18 51 dc bf 74 85 15 be 21 6a e3 be
       0.18430462 -1.7212248 -0.1460169 -0.44416907
0001d0 90 4f dd 3d ff f8 9c bf 60 51 93 be 80 66 c8 be
       0.10806191 -1.2263488 -0.28773022 -0.391407
0001e0 fa 1e f7 be 4e 49 4c 3e a0 7e 1d be cd ca 01 bf
       -0.4826582 0.19949839 -0.15380335 -0.50700074
0001f0 35 fd 4b be 5c 1a 7d 3c 8b 10 89 be d9 7b b6 3d
       -0.1992081 0.015448179 -0.26770434 0.08910341
000200 2f 29 31 be 78 41 77 bd 8e bb 90 be 47 4a 10 3e
       -0.17300867 -0.06036517 -0.28268093 0.14090835
000210 ef 07 77 bd e3 b7 55 bd cf 1d 40 be d7 80 d6 3d
       -0.0603103 -0.05217732 -0.18761371 0.10473793
000220 e3 0c 20 3d 04 b8 9b be 4a dc 01 bf 57 d7 89 3e
       0.03907479 -0.3041383 -0.5072676 0.26922104
000230 d4 48 f4 3d 45 82 12 3e 6d 77 5d 3c 84 e5 ba 3d
       0.11927953 0.14307506 0.013517243 0.09125808
000240 93 a0 e3 3d b3 bc a5 bf 57 fa 50 be 49 8c 56 be
       0.111146115 -1.2948211 -0.20407997 -0.20951952
000250 8d 6f 8e 3e 99 51 b1 bf 2b bb c2 be 93 d6 84 be
       0.27819481 -1.3853027 -0.38033423 -0.25944957
000260 e6 de 48 bf 2f bd 8f be 14 b9 4a bd 31 5d 47 bf
       -0.78465116 -0.28074023 -0.04949291 -0.77876574
000270 5f 50 a7 bd f5 2a 90 bd eb a6 83 be be ed 61 bd
       -0.081696264 -0.070394434 -0.25713286 -0.05515837
000280 c7 2d 87 3e 7f 49 b0 3d 33 a7 5b 3e 80 33 3f 3e
       0.26402113 0.08607768 0.214505 0.1867199
000290 22 40 89 3d 90 44 9d 3e 1d 7e ec 3d e1 cb 83 3e
       0.067016855 0.30716372 0.11547492 0.25741485
0002a0 6e e2 03 3e b9 cc 45 3e 3f de 36 3e 61 c2 82 3e
       0.12879345 0.19316377 0.17858218 0.25538924
0002b0 00 d9 87 3e 65 bb 8c 3e d4 5a 34 3e 92 fc a0 3e
       0.26532745 0.2748672 0.17612773 0.31442696
0002c0 f1 e4 aa 3e 16 b6 ac 3e c0 61 b8 3e b2 d4 d1 3d
       0.33377793 0.3373267 0.36012077 0.102456465
0002d0 8e 49 81 3e 49 e8 bb 3e d0 3b 32 3e 28 ea 89 3e
       0.2525143 0.36700657 0.17405629 0.2693646
0002e0 83 c5 a3 3e 27 d6 50 3e 55 4c 32 3e 0e 69 00 3e
       0.31986627 0.20394193 0.17411931 0.12540075
0002f0 54 b3 03 3e fd f8 d3 bb 5a 51 28 3e 51 51 24 3d
       0.12861377 -0.0064688907 0.16437283 0.040116612
000300 e3 dc 50 be b8 56 de 3d 93 56 b1 bd fe 63 dc be
       -0.20396762 0.10856384 -0.08659091 -0.43045038
000310 ec 09 a4 be cf 6b 3d bf 02 bf 98 3d 45 3b 59 be
       -0.3203882 -0.7399263 0.07458307 -0.21214016
000320 44 37 33 be 61 65 1a bf 99 8c ca 3d 05 ac fc be
       -0.17501551 -0.6031094 0.09890098 -0.4934999
000330 a0 53 42 be e8 1b b0 be 8f 1a 8e be 07 42 de bd
       -0.18977213 -0.3439629 -0.27754638 -0.108524375
000340 53 43 77 bf 12 8c 02 3f ab 74 60 bb 5e 98 75 3e
       -0.96587104 0.5099498 -0.0034249227 0.23983905
000350 bb 37 13 bf f2 9b 86 be b3 a9 83 3d 1f e7 61 be
       -0.5750691 -0.26290852 0.06428852 -0.22060822
000360 b8 5a 07 bf 0a 8e 0f 3e 82 1b fb be 53 a0 0e bf
       -0.528728 0.14019027 -0.49044424 -0.55713385
000370 31 cb 3e 3d c1 94 fd bd 1f d2 a2 3d 2f e5 be 3c
       0.046580497 -0.12381888 0.07950234 0.023302643
000380 51 3f 94 bd 33 e7 2b be 8f 6b b3 be 33 97 09 bf
       -0.07238639 -0.16787414 -0.35042998 -0.53746337
000390 76 ee ac be f3 11 7a bf d8 f6 c6 3e 59 e1 ae be
       -0.3377568 -0.9768364 0.38860202 -0.34156302
0003a0 8a 79 4c be 85 79 75 be af 12 11 bb ea 41 0d be
       -0.19968238 -0.23972137 -0.002213638 -0.13794675
0003b0 0a 9e 74 be a1 98 01 bf d6 92 7d be bb 9a d4 bd
       -0.23888412 -0.5062352 -0.24763045 -0.10381075
0003c0 fe 6f 64 bf 1e 61 2a 3f ee d9 9f 3d e8 22 a0 3e
       -0.89233387 0.6655444 0.07805239 0.3127663
0003d0 73 05 2d bf 44 df 11 be 83 1f 99 bc 67 2d a8 be
       -0.6758644 -0.14245325 -0.018691784 -0.3284714
0003e0 b2 46 3b bf cb d5 da 3d 04 c6 2d bf 8b 39 37 bf
       -0.7315475 0.10685309 -0.6788027 -0.7157218
0003f0 58 67 9b bd 1c c2 1a 3e b5 b0 95 3d c3 d5 94 3c
       -0.07588071 0.1511311 0.07309095 0.018168336

encoder_input.6.bias f4 [64]
000000 17 f5 35 be 0f af 5b bd d3 1b 84 bd 1a b3 ae 3c
       -0.17769276 -0.053633746 -0.064506195 0.021325637
000010 82 33 29 be ed c6 aa bb d9 76 38 be 6b cc f1 bd
       -0.16523555 -0.005211702 -0.18014087 -0.11806568
000020 64 86 9f bd d0 bd 86 be 55 95 0a bd fb e0 7e be
       -0.07789305 -0.2631669 -0.03383382 -0.2489051
000030 90 4a 7a be cf 82 9c be bd 0b 0d be b0 09 99 be
       -0.24442506 -0.3056855 -0.13774009 -0.29890203
000040 88 ae 9a be 5c ec 0e bd 77 56 47 3f 76 dd b3 bc
       -0.30211282 -0.03489338 0.7786631 -0.021956187
000050 9a 53 93 3d f2 dd a6 be 9b d2 9a bd 6e 85 11 bc
       0.0719368 -0.32591206 -0.07559701 -0.00888191
000060 ae 2f 49 be 4e fa e9 3c 85 2b 97 bd ba 9b 72 bd
       -0.19647095 0.028561737 -0.073813476 -0.059230544
000070 65 09 a1 ba 73 b1 8f be 1a d3 33 3c ad 2e 87 be
       -0.0012286125 -0.2806507 0.0109756235 -0.26402798
000080 77 8c 30 be 5b bc 26 be 6f 07 07 3d d7 8f cb bd
       -0.17241083 -0.1628279 0.032966074 -0.09939545
000090 d5 b3 29 3d eb 16 f1 bd 78 bd 42 be 41 6a 29 be
       0.041431267 -0.117719494 -0.19017589 -0.16544439
0000a0 00 41 03 be 02 d3 41 bd f0 e7 8b bd aa fc 23 be
       -0.12817764 -0.047320373 -0.06831348 -0.16014352
0000b0 f9 fc 64 be 3c a7 d0 bd 63 49 4e be 1c 4d 90 bd
       -0.22362126 -0.101881474 -0.20145182 -0.070459574
0000c0 36 93 23 be 8b 7f 38 be b7 0f 1d 3d bb db e6 bc
       -0.15974125 -0.18017404 0.038345065 -0.028180948
0000d0 fe 1f 11 be d9 95 8e be 64 c7 75 be dc 9a 1f bd
       -0.1417236 -0.278487 -0.24001843 -0.038966045
0000e0 35 11 9d be ea 06 bf 3d 0b f7 2d be b1 76 4c bd
       -0.3067719 0.09327491 -0.1698877 -0.04991788
0000f0 6c e2 64 3d d0 7e ad 3d 6f 12 8d 3c 8b ce dd 3a
       0.055879995 0.08471453 0.017220704 0.0016922517

encoder_output.0.weight f4 [32, 78]
000000 df 29 73 3e 28 27 e6 bc 8b 1d 78 3b e6 ba 67 bc
       0.23746441 -0.028094843 0.0037859406 -0.014143681
000010 2a eb dd bb 1f 32 e6 bd 83 5d 14 3c c2 51 50 bd
       -0.0067724185 -0.112400286 0.009055498 -0.05085922
000020 3b db 59 bb 28 66 a5 3d a4 60 eb bc d0 f6 59 3d
       -0.0033242244 0.080761254 -0.028732605 0.053213894
000030 37 b2 34 bd 0b 31 07 3e 53 c5 2b 3e 94 f5 aa 3d
       -0.04411527 0.13202302 0.16774492 0.083476216
000040 7c f2 94 3c 47 2a bf 3d ee d2 e8 3c c6 6d a5 3c
       0.018182032 0.09334236 0.028420892 0.020193946
000050 65 4e 96 3d 64 f3 98 3d d9 34 26 bd 72 80 ff 3d
       0.07339171 0.07468298 -0.040577743 0.12475671
000060 31 a0 31 3d 8a f2 69 3d 4d 3e bf bd 80 7b fb 3c
       0.04336566 0.05711607 -0.09338055 0.030698538
000070 8e 39 b1 3c 53 e9 f5 3c d0 2f c6 3d e4 d6 6e bd
       0.02163389 0.030018484 0.09677088 -0.058310404
000080 bf 86 f9 bc 02 e1 85 bd e4 e9 ce bd 13 51 4e 3e
       -0.03045976 -0.065370575 -0.10103205 0.20148115
000090 93 b6 71 bc ce dd 80 bd c5 a3 6f bd 0b 3d a4 bd
       -0.014753002 -0.06292306 -0.058505792 -0.080194555
0000a0 19 eb 31 3e fa 99 fd 3e e1 e7 a2 bc 24 36 50 bc
       0.17374839 0.49531537 -0.01988596 -0.012708221
0000b0 77 c0 4d 3e 19 91 56 be 91 a3 7c bd 08 12 3c 3e
       0.20092951 -0.20953788 -0.061679427 0.18366253
0000c0 aa 3d bf bd 0e 00 7f 3e c8 e2 45 be f2 c1 c2 3e
       -0.09337933 0.24902365 -0.19324791 0.38038594
0000d0 e3 f0 97 bd e1 1e 98 bd 1b 7c b5 3d 5d 92 7a bc
       -0.07418992 -0.07427765 0.08861562 -0.015293685
0000e0 b2 77 a0 3c 37 d2 0a 3e 18 da d9 bd b3 87 5f be
       0.019588325 0.13556753 -0.10637301 -0.21829109
0000f0 ff 2c 79 bd f2 eb c5 be 5c 10 bd bd 34 be 47 be
       -0.060833927 -0.38656574 -0.09231636 -0.1950615
000100 5a 0d bb be a5 7e 0c 3e 32 78 f8 bd 39 6f 99 bc
       -0.36533624 0.13720186 -0.121323004 -0.018729793
000110 0f d2 c8 3d f7 cd 2d 3d 28 1c 2a 3e de 94 74 bd
       0.098056905 0.04243275 0.16612303 -0.059712283
000120 72 d7 35 bd 52 f1 aa bd 2b fb ad 3c c8 fa 5c be
       -0.044394918 -0.083468094 0.02123793 -0.2158004
000130 7e e3 32 3d 1c 33 c1 3d 29 95 7e bc f2 e5 03 be
       0.043673985 0.094335765 -0.015538492 -0.12880686
000140 b0 69 53 ba 28 c4 38 3b c7 00 47 3a 0f 60 3d 3d
       -0.000806476 0.002819309 0.00075913634 0.046234187
000150 ed a5 5d bd 5c 3f 0f 3e e0 49 f4 bb 9c fa 34 bd
       -0.054113317 0.13989013 -0.0074550956 -0.044184312
000160 a4 0b b9 3b 9f 96 28 3d 96 b8 a3 3d a1 e4 3e bd
       0.0056471396 0.04115927 0.07994191 -0.046604756
000170 d1 32 95 bc a2 15 0d bd 9f 91 6e bc a8 0f a6 3c
       -0.018212708 -0.03444446 -0.014561086 0.020271137
000180 d3 47 97 bd 25 11 83 bd 5d 38 94 3d 9f 1a 11 3e
       -0.07386746 -0.063997544 0.07237313 0.14170311
000190 ac ab f7 3c 7a 81 65 bd 4d 60 bd bd 3d 2f 31 3d
       0.030233227 -0.05603168 -0.092468835 0.04325794
0001a0 61 44 28 3e d7 01 a3 3d 0a 01 83 3d 6c e1 0c 3d
       0.16432334 0.07959335 0.063966826 0.034394667
0001b0 46 43 42 bd 66 99 fc bb 3e 8a 12 bd bf 01 a6 3d
       -0.04742744 -0.007708716 -0.03577637 0.08105802
0001c0 ce fb 6c 3d 77 a2 9a bc a0 74 11 3e c3 c6 07 3d
       0.057857327 -0.018876297 0.14204645 0.03314854
0001d0 90 a5 c7 3c d2 c5 e6 3d cd 38 4c 3d 6f 98 2f bd
       0.024370939 0.112682 0.049858857 -0.04286998
0001e0 54 a7 cd bc 5f 59 00 bd 34 ab 6e bc 2e e1 10 3e
       -0.025104202 -0.03133523 -0.014567185 0.14148399
0001f0 97 eb c5 3d 91 5c 2e 3e 53 97 56 bc 1c 9c ea bd
       0.09664076 0.17027499 -0.013097602 -0.11455557
000200 86 cc b3 bd 54 0c 2b bd c1 b4 ae 3d 1d a8 ca bd
       -0.08779244 -0.041759804 0.0853057 -0.09895346
000210 aa fd 61 bd 25 78 05 3d 9f 6d 65 3d f8 ec fe 3d
       -0.055173554 0.032585282 0.056012746 0.12447542
000220 20 10 19 bc 08 c6 d6 3d e2 6d 04 be 2b 2e 59 3b
       -0.009342223 0.1048699 -0.12932542 0.003313909
000230 4d df e9 3d ac 34 e3 bc be 6f 07 3e 9c cf 78 3a
       0.11419544 -0.027735077 0.1322622 0.00094913854
000240 52 4f 53 3b 25 ee 80 bd de 80 b9 bb da be 0f 3e
       0.0032243324 -0.062954225 -0.005661114 0.14037648
000250 c9 23 7f 3d 10 4b 3b 3e 29 c1 3f 3e 91 64 c9 3d
       0.062289987 0.18290353 0.18726029 0.09833635
000260 69 4a 52 bd 07 4f 1a 3e d3 fe 89 3c 71 84 fc bd
       -0.051340494 0.15069209 0.016845142 -0.12329949
000270 b6 7b b9 bd 07 f5 0d 3e e4 7f 6b ba 60 cd 79 3b
       -0.09056799 0.13863002 -0.0008983596 0.0038116798
000280 bd cb 4f 3b be 5c da bd c7 f2 37 3e 0e 1e 86 be
       0.003170713 -0.106622204 0.17963706 -0.26194805
000290 98 5b 4d 3d 70 ff cd bc c1 e3 26 3d 83 24 f8 3d
       0.05013618 -0.025146216 0.040744547 0.12116339
0002a0 59 e5 4e bc 2a 50 73 bd db 92 d6 bc 3b 24 c9 bd
       -0.012627923 -0.059402622 -0.026193073 -0.098213635
0002b0 23 1d a9 3d 2d 81 a7 bc c6 1d 15 bd 69 7a 4f bd
       0.082575105 -0.020447338 -0.036405347 -0.05065385
0002c0 b0 ce a9 bb 06 a7 be 3d 72 67 9f bc e0 ed 08 bc
       -0.00518211 0.09309201 -0.019458506 -0.008357495
0002d0 7c 93 3c be 8e d7 e9 3a 5a a9 43 bd db d4 97 bd
       -0.18415636 0.001784073 -0.047768928 -0.07413646
0002e0 f7 e1 61 bd 58 5f a9 bc ad 23 0f bd 7c 2a 05 3e
       -0.055147137 -0.020675346 -0.034946132 0.13004488
0002f0 f1 7a b0 3c 9c 35 82 bd 85 7d fe 3c f9 0e d8 3c
       0.021542998 -0.063578814 0.031065712 0.026374327
000300 41 e8 15 be a7 7f ca 3c 6e b9 89 3d 79 7b 9f bd
       -0.14639379 0.024719073 0.06724821 -0.077872224
000310 8b 65 11 be 0f 66 12 3e 27 1f 83 bc ce 85 89 3d
       -0.14198892 0.14296745 -0.016006066 0.06714974
000320 30 41 11 be cf 36 fc bd 68 15 57 be e0 01 c5 bd
       -0.14185023 -0.123151414 -0.2100426 -0.09619498
000330 8f d7 60 3d 01 e7 1d 3d 12 88 96 3e 1b 33 fa bd
       0.054893073 0.03855038 0.29400688 -0.12216779
000340 cf 26 e1 3d 08 89 01 3e 0f a3 26 3e 29 fe 02 3e
       0.1099373 0.1264993 0.1627314 0.12792267
000350 7d 9c a7 3d 2f f0 52 be 90 fc bc bd 03 f1 52 bd
       0.08184145 -0.20599435 -0.0922786 -0.051499378
000360 c5 fc ad 3d ab 82 2f 3e c5 b2 1b 3e 5f c2 16 bd
       0.084954776 0.1713969 0.15204914 -0.03680646
000370 48 20 c2 3c 7e c3 a6 bd 73 ab 09 3d dd e3 5c 3e
       0.023697034 -0.08142756 0.033610772 0.21571298
000380 12 3d 55 3e e2 6d ef bd fa 08 b4 bd 9c b0 00 be
       0.20824078 -0.1169088 -0.08790775 -0.12567371
000390 fb 16 e4 bb 9c c9 6c 3e fb d9 67 bd 96 b8 07 be
       -0.0069607473 0.23123783 -0.056604367 -0.13254008
0003a0 86 cb c0 bc af 62 27 3e bc 6b 98 3d ba d6 13 3e
       -0.023534548 0.16346239 0.07442424 0.1443738
0003b0 8b 94 02 3a e3 a6 c2 b9 63 3d d6 bb 6d 07 1e 3a
       0.0004981241 -0.00037126904 -0.0065380796 0.0006028328
0003c0 bf e7 91 bc aa a4 c4 bd 7b 1c 22 3d 4c e0 5a bb
       -0.0178107 -0.0960172 0.039577942 -0.0033397852
0003d0 7b 57 09 be 16 c5 54 be 19 e7 ad bd 70 fe 62 3d
       -0.13412277 -0.20778307 -0.08491344 0.05541843
0003e0 3c 41 99 3d 53 61 94 3d 96 02 84 3d a9 88 ac bc
       0.074831456 0.072451256 0.06445806 -0.021061258
0003f0 cd 25 5c bc 65 ea 3f be aa 12 80 3c b9 3e 83 3d
       -0.013436747 -0.18741758 0.0156339 0.06408448

encoder_output.0.bias f4 [32]
000000 bd eb 40 be 3d 31 f2 bd c5 2d 2a 3d 6d f1 10 bd
       -0.18839927 -0.11825798 0.041547555 -0.03538649
000010 a5 8c df 3d f1 42 67 3d 72 7c d3 3d c6 01 64 3d
       0.10915498 0.056460325 0.103264704 0.055665754
000020 1d 8b 40 bd 96 52 88 3c 7c 8e af bd 07 83 9e bc
       -0.04700767 0.016640943 -0.085720986 -0.019349588
000030 91 23 62 3d 5f 04 bc 3c fb 4a f0 bd dd 5d 5f bc
       0.0552097 0.022951303 -0.117330514 -0.013633219
000040 df 26 d1 3a 8c d4 71 3d af 4d 97 3c 7a ac 7e bd
       0.0015957019 0.05904059 0.01846966 -0.062176205
000050 c1 db 82 3d 4e 42 db bd 8d f6 6e bd 2a 9c 4c 3d
       0.06389571 -0.10706006 -0.058340598 0.049953617
000060 4f 0f f4 bd e3 55 3c 3d 65 f8 40 3d 44 23 65 3c
       -0.119169824 0.045980345 0.047111887 0.013985459
000070 f5 36 80 bd cc d8 b0 3d d8 51 65 3d 48 33 8d 3d
       -0.06260482 0.08635101 0.055986255 0.06894547

encoder_output.1.weight f4 [32]
000000 15 10 61 3f 8b b8 85 3f 22 16 78 3f 85 a5 84 3f
       0.87915164 1.0446943 0.9690877 1.0363013
000010 0e 25 87 3f cf 32 62 3f d9 b4 7a 3f 00 7b 89 3f
       1.0558183 0.8835878 0.979322 1.0740662
000020 40 9d 82 3f 65 bd 82 3f ca 09 67 3f 48 f9 75 3f
       1.0204239 1.0214049 0.9024931 0.960835
000030 b3 e4 81 3f e3 d8 7e 3f 1f 20 7f 3f 29 cb 80 3f
       1.0147918 0.9954969 0.9965839 1.0062
000040 ae 06 56 3f bd 51 61 3f 1d 93 67 3f f5 a8 82 3f
       0.8360394 0.8801535 0.9045885 1.0207812
000050 6c 18 80 3f 4f 8a 87 3f 50 d7 95 3f 08 13 84 3f
       1.0007453 1.0589083 1.1706333 1.0318308
000060 11 b2 89 3f 74 f1 3b 3f 2b e7 6a 3f 97 a0 6a 3f
       1.0757467 0.73415303 0.91758984 0.9165129
000070 7d c9 8b 3f dc 5a 65 3f fb f5 8c 3f 28 83 7f 3f
       1.0920864 0.89591765 1.1012567 0.99809504

encoder_output.1.bias f4 [32]
000000 0f 87 fb bd 6d 62 9d bd 8a ae 68 3e c7 ab b0 bc
       -0.1228162 -0.07684789 0.22722831 -0.021566285
000010 92 e6 f5 bc 2f 02 c0 bb b7 b0 62 3d 00 f1 b2 bd
       -0.030017171 -0.0058596353 0.05534431 -0.08737373
000020 8b 4d 5d 3d c9 ea 5d 3d d5 9e 18 be a9 a4 b6 bd
       0.05402903 0.054178987 -0.1490434 -0.08918125
000030 bd b6 68 3d e9 cb f8 bd 89 ba 94 bd 21 2c 23 be
       0.056814898 -0.12148268 -0.07262141 -0.15934803
000040 9b a8 1f 3e 0b af 70 3d e3 77 11 3e 86 ed 90 bd
       0.15591662 0.058760684 0.1420589 -0.07076554
000050 33 62 ce 3d f5 f3 9d bd ad 2a c3 3d 3c 87 89 3d
       0.10077324 -0.07712547 0.09529624 0.06715247
000060 ea 0d ec 3c ef e4 e1 bb 4b 9c 23 bd a4 65 24 bc
       0.028815228 -0.006893746 -0.039943974 -0.010033999
000070 fc 85 ac bb aa d5 6e 3e ca cb 5c 3d 32 24 5c bd
       -0.0052649956 0.23323694 0.053905286 -0.053745456

encoder_output.1.running_mean f4 [32]
000000 34 b5 c9 be 34 ba 1b 3d a9 6c 2f bc ed c8 a7 bd
       -0.3939606 0.038019374 -0.010707059 -0.081926204
000010 5e a2 78 3d 67 e2 3f bd 77 04 78 3e b7 ea 7c 3d
       0.06070172 -0.046846773 0.24220453 0.06174728
000020 f0 b1 1c be e9 86 8b bd df 48 bb 3d db cb 97 3d
       -0.15302253 -0.068128414 0.091447584 0.07411929
000030 06 32 51 3e c1 cb c3 3d 14 d1 97 be a4 00 2a 3c
       0.20429239 0.09560347 -0.296517 0.010376129
000040 c0 27 8d bd da 10 84 3d 92 14 2f be 65 54 f1 bd
       -0.06892347 0.06448527 -0.1709769 -0.11783675
000050 67 2d 10 3c 04 30 0d 3d 8c 94 e8 3d 20 20 00 3d
       0.008799887 0.03446962 0.11356458 0.031280637
000060 fe dc b6 bd bd 66 88 be b2 22 0d 3e ad 9c 24 be
       -0.0892887 -0.26640883 0.13782766 -0.16075392
000070 bc f4 55 be e3 cb 0e 3e cd 1a bd bd 6f 45 32 3d
       -0.2089414 0.13944964 -0.092336275 0.04352325

encoder_output.1.running_var f4 [32]
000000 27 3a 9e 3c 0d 5b 46 3c 02 fd 17 3d 0b f0 5a 3c
       0.019314839 0.012106669 0.03710652 0.013362895
000010 08 8d 84 3c d7 0e 4b 3d da 0a 8b 3c 02 6f a5 3c
       0.01618053 0.0495747 0.016972948 0.020194534
000020 4c a3 6e 3c 7b 78 63 3c b4 94 98 3c 87 6d 49 3c
       0.0145653 0.013883705 0.018625595 0.01229418
000030 32 cd b1 3c 1e c5 87 3c ed ae 6b 3c e5 08 de 3c
       0.02170429 0.016573485 0.014384967 0.02710385
000040 a5 72 1a 3c 38 23 c9 3c 2d 03 5a 3c 3c 3a 4b 3c
       0.009426747 0.024552926 0.013306421 0.012404021
000050 e4 9e 00 3c 8c de 73 3c 83 a3 1d 3c 48 76 30 3c
       0.0078503825 0.014884602 0.009621504 0.010770388
000060 ef 56 70 3c 84 52 85 3c c1 72 d3 3c 19 60 12 3c
       0.014669164 0.016274698 0.025811555 0.008934044
000070 46 c4 96 3c 9d 5d b7 3c b8 2b 51 3c 02 ec d8 3b
       0.018404137 0.022383505 0.012766771 0.006619931

encoder_output.3.weight f4 [32, 32]
000000 35 0e 24 bd 06 39 19 3e 2b ea 4f 3e 70 12 83 bd
       -0.04005261 0.14963159 0.20304172 -0.06400001
000010 d5 f2 04 3e 47 9c c9 bd d2 77 64 be ae 3e 41 3c
       0.12983258 -0.09844261 -0.22311333 0.011794729
000020 50 24 44 3e ba 12 0d be ca 27 30 be 1e 29 28 bd
       0.19154477 -0.13776675 -0.17202678 -0.041054837
000030 6a 8e 58 3e e3 ad 23 bd c9 6e e5 bd 49 a7 de 3d
       0.21148077 -0.039960753 -0.11202771 0.10871751
000040 94 33 39 3d b4 f1 80 bd 16 9b 9c 3d 1e cc 77 3e
       0.045215204 -0.06296101 0.07646768 0.24198958
000050 6f fb 3b 3c 15 3a 4e be e3 1c 28 be ae ec a9 3d
       0.011473521 -0.20139344 -0.1641727 0.08297096
000060 ec f3 59 3e 07 e2 0c be 6c 58 03 bd 72 b0 0a bd
       0.21284455 -0.13758098 -0.032066748 -0.033859678
000070 e5 27 9e bc 3b ce b8 3c fb 2c 3d be b3 81 44 be
       -0.019306133 0.022559276 -0.1847419 -0.19190101
000080 0c 22 a2 bd 2c da 4e 3e 7c 0b b1 3d 60 cc 38 bc
       -0.0791665 0.20200413 0.086447686 -0.011279196
000090 a4 78 71 3e 00 f4 02 3e 1f 00 2a be 5c 67 2e be
       0.23581177 0.12788391 -0.16601609 -0.17031616
0000a0 eb 79 27 be 5d 32 76 be a8 df cd bd 20 74 04 be
       -0.16355102 -0.2404265 -0.10052425 -0.12934923
0000b0 bd e6 27 3d 38 e2 97 3d 85 14 00 be bf d8 6c bc
       0.040991534 0.07416195 -0.12507828 -0.014455973
0000c0 16 90 6b 3d bb 14 a0 b9 b4 f5 02 bd f1 6b 56 3c
       0.057510458 -0.00030533024 -0.031972602 0.013087259
0000d0 7b 4c 24 3e 01 c4 f9 3d 2a b2 92 be 7a 39 8e 3d
       0.160448 0.12195588 -0.28651553 0.069445565
0000e0 9d 15 40 be eb 91 36 3c 12 40 0f bd 98 53 4b bd
       -0.18758245 0.011143188 -0.03497321 -0.049640268
0000f0 8d 14 4c be 8c 6c c0 3d a1 3b 05 3d 19 19 35 bd
       -0.19929715 0.09395704 0.03252757 -0.044213388
000100 71 9f f5 bc 08 89 44 3e 02 23 78 bd fb 86 11 3d
       -0.029983254 0.19192898 -0.06058026 0.035529118
000110 0d 58 4f bd 0f 17 87 3d 2f cd e9 bc da a2 03 be
       -0.05062108 0.06596195 -0.028540222 -0.12855092
000120 20 51 68 bc bb 36 31 be 4a 9a a1 bd e4 48 02 3e
       -0.014179498 -0.17306034 -0.078907564 0.12723118
000130 65 06 70 3e 7d 7d 0b 3e 48 8d 1a 3c 0a 08 84 3d
       0.2343994 0.13622089 0.009433098 0.06446846
000140 0d 26 30 3e 7f 51 22 be 10 99 91 3e 7a ca 95 3e
       0.17202015 -0.15851401 0.2843709 0.2925604
000150 55 29 91 3d 30 9f 46 be 45 6b 23 be c1 39 fe 3d
       0.070879616 -0.19396663 -0.15958889 0.124133594
000160 77 de b4 3c 79 ce 81 3c 7a 2d 2c ba 02 3e 12 bd
       0.022078736 0.015845524 -0.0006568056 -0.035703667
000170 cb d1 31 3d aa 36 9c 3d 11 d0 5d be 61 d6 e6 bd
       0.043412965 0.07627614 -0.21661402 -0.11271358
000180 14 9b 16 be cb 8f 54 bd 58 b8 88 bd 65 61 42 3e
       -0.14707595 -0.051894944 -0.06675786 0.18982466
000190 50 24 3f 3e 9b c6 12 3c fa 16 a6 3d 87 be 22 bc
       0.18666196 0.008958484 0.08109851 -0.009933121
0001a0 12 59 c8 3d 2e bd 96 bd 6e 3c 5f be a0 5a 86 3c
       0.09782614 -0.07360302 -0.21800396 0.016400635
0001b0 98 50 77 bc e7 6d 2b bd 87 92 e0 3c ef d6 a6 bc
       -0.015094899 -0.041852858 0.02741362 -0.02036616
0001c0 54 4c 78 39 68 9d 58 3d 91 96 81 bd af 20 8e bd
       0.00023679557 0.05288449 -0.063275464 -0.06939828
0001d0 b4 ea 8d bd 9b e7 07 be b7 c3 47 3e 19 5c 8d be
       -0.06929532 -0.13271944 0.19508253 -0.27609327
0001e0 13 9a 41 be 88 02 06 bd 88 52 f4 3c 95 43 92 be
       -0.18906431 -0.032717258 0.02982451 -0.28567186
0001f0 fc 58 25 be d5 4a e9 bc 99 34 3d bb 7f cd 4f be
       -0.16147226 -0.028478066 -0.0028870462 -0.20293234
000200 a1 a5 49 be c6 4c 61 bd 47 ed 0e be a4 c6 0d bd
       -0.19692089 -0.055004857 -0.13957702 -0.034613267
000210 56 5e 25 3d 31 cb cf bd b7 eb d1 bd dc c8 6c 3d
       0.04037317 -0.101461776 -0.10250037 0.057808742
000220 28 4a 51 3e 11 a0 da bd 88 44 b3 3d 44 27 58 3e
       0.20438445 -0.106750615 0.08753306 0.21108729
000230 af 28 64 3d 7b 37 b1 bd 23 25 7a be 7f 4b 1d be
       0.05570286 -0.0865316 -0.24428229 -0.1536083
000240 11 58 1c be 07 d8 06 3e b1 cf 37 be b7 05 9b be
       -0.1526797 0.13168345 -0.17950322 -0.30277798
000250 26 01 e8 3b e1 d7 e2 bc 93 c2 1e 3e 20 1f 33 be
       0.007080215 -0.02769083 0.15503912 -0.17492342
000260 93 cb 49 be c9 a2 df bd a0 8f 1b 3d 01 f1 86 be
       -0.19706564 -0.10919721 0.03797877 -0.26355746
000270 e7 15 84 bd c3 a9 3e bd f7 36 df bd fc da 3a be
       -0.0644949 -0.046548616 -0.108991556 -0.18247598
000280 69 d6 03 bd ed 32 7b 3c 53 83 04 be d4 73 78 3e
       -0.0321869 0.015331966 -0.12940721 0.24262935
000290 be 45 76 3e ca 7a 0e 3e 79 76 43 bc c7 a6 3e bc
       0.24050042 0.13914028 -0.011930102 -0.0116364425
0002a0 b2 e3 93 bd bb 0d b2 bb f0 11 45 bd 5d bb ae bd
       -0.07221164 -0.0054337657 -0.04811281 -0.085318305
0002b0 42 09 85 be 67 a4 68 3d b4 85 b6 3d 37 12 58 be
       -0.25983626 0.05679741 0.089122206 -0.21100698
0002c0 c9 37 99 bd b9 09 d6 bc 24 cf 18 be 12 38 33 be
       -0.07481343 -0.026127683 -0.14922768 -0.17501858
0002d0 4e f6 21 3e ff aa 9b 3e 09 a2 57 be 18 9e 06 bd
       0.15816614 0.30403897 -0.21057905 -0.032865614
0002e0 ca 31 82 bd 67 f5 fc 38 72 86 35 be d8 5b d6 bd
       -0.06357153 0.00012062006 -0.17727068 -0.104667366
0002f0 74 63 5f be df cc e0 3c 5a 53 ff 3d 6b a6 8f 3d
       -0.21815282 0.02744144 0.1246707 0.070141636
000300 4b 52 9e be c9 ce f7 bc d5 82 3d 3e 0e 41 41 3c
       -0.3092216 -0.03024997 0.1850694 0.011795295
000310 b8 0f 27 bd 04 31 2c 3e e9 47 94 bc 5a 3c 91 3e
       -0.040786475 0.16815573 -0.018100696 0.28366357
000320 bb b8 ac 3c 93 d4 07 3e f5 0f 60 bd d7 4b db 3d
       0.02108418 0.13264684 -0.054702718 0.10707825
000330 11 02 91 3c 3e f3 2d 3b b5 e8 62 3e 92 5a bf 3d
       0.01770118 0.0026542689 0.22159083 0.09343447
000340 0f 71 6b bd 1d c7 28 be 8d 69 c9 bd 36 45 8d 3c
       -0.057480868 -0.16482206 -0.09834585 0.017244916
000350 eb 9b 42 3e 26 09 fe bd c0 7c 18 be f3 bd b6 3d
       0.1900479 -0.12404089 -0.14891338 0.08922949
000360 50 b7 c9 bd fe 97 ad 3d 5b 2b 3c 3e a0 8d 2a be
       -0.09849417 0.08476256 0.18375914 -0.16655588
000370 e3 a6 17 be 94 65 a0 3d 05 5c 27 be b2 64 8e 3e
       -0.14809756 0.078318745 -0.16343696 0.278112
000380 e5 1a a7 3d 99 bf 00 bd 8f 05 0f be c1 8a 26 3e
       0.081594266 -0.03143272 -0.13966964 0.16263868
000390 0f 1a 89 bc e5 92 08 be 2b 0f 07 bd f5 12 91 3d
       -0.016736059 -0.13337286 -0.03297345 0.07083694
0003a0 95 e9 9e 3d b8 1f 14 3e 60 1f 0b 3e 2b 6f 9f 3c
       0.07759396 0.14465225 0.13586187 0.019462189
0003b0 38 b1 88 bb f5 3d 62 bb 61 94 67 3e 7a 1e 37 be
       -0.0041715167 -0.0034521793 0.22615196 -0.1788272
0003c0 92 c6 4a bd 5a 80 08 3e d3 ec 67 bd ed 4c 89 be
       -0.049505778 0.13330212 -0.056622338 -0.26816502
0003d0 80 68 a1 3d dd d2 df 3d db 56 86 be eb c9 94 bd
       0.0788126 0.10928891 -0.2623814 -0.07265075
0003e0 96 6a 13 be 12 d0 d7 3d 05 d8 f0 bd d3 03 e9 3b
       -0.14396128 0.10537733 -0.117599525 0.0071110516
0003f0 6f 12 d2 bd f2 5e 55 3d c5 51 f4 3d 72 eb 94 3d
       -0.10257422 0.0520925 0.11929659 0.0727147
