trained_models/aamas22-main/best_agent_encoder.pt (torch, 17829 bytes, 6 tensors)

mlp.0.weight f4 [32, 43]
00000000: 6980 543e 7251 aabb 383a e93e adf0 b93d
00000010: d3ac 273d 264b a93c e1d3 97bd ec1a 8dba
00000020: 503f afbd 6250 48bf 66f4 5ebe f0be 1bbc
00000030: 0112 4ebc 0d47 d93b 2f24 e7bd 8a34 313e
00000040: 78b9 443d ad2b 513c 7324 82bd be23 443d
00000050: b014 1ebe f572 a5bd 72d8 793d 54db 043e
00000060: 8778 bd3c 3613 0c3e 17f9 39bd 3b1a ffba
00000070: 0efe 363d 303f c93b 5a1b 17bd 97f8 583d
00000080: 9352 8b3d 9fa7 d73d 515c 97bb cc40 ac3d
00000090: c156 163c 5cef b5bb e8bb e53c 7edb 0c3e
000000a0: 6ef8 10bd c389 dabd 2bea 39bd 76ac 823e
000000b0: 5843 293d 540b 73bf 41f1 d1bd 8a16 723d
000000c0: 94e2 81bc bab4 883c 6f56 87bd 79e3 a2be
000000d0: 472c df3e bd35 3bbe 1dd2 423e fb5d f03c
000000e0: d82a 3b3e cf43 0d3e 2dd3 8bbd 8202 f8bd
000000f0: b112 453c 7ecd 9dbd d99b 26bd aa00 5d3e
00000100: d638 80bc a014 1dbe bb64 913c 87b5 96bd
00000110: 55a3 23be f271 e23d e755 2bbd ab89 88bd
00000120: 7041 413e ac3b 0ebe b117 9cbc 6183 b1bd
00000130: c834 b93c 04ac de3b c12f 7d3c 2a3a 043e
00000140: fdec 1cbe 4187 48be 8bf6 a0bd 090a 0b3e
00000150: 9256 463e 8705 5e3e 5b2a 18be 89e4 dbbd
00000160: b417 b6bf 34f9 ae3d 5735 333d 95cc a73c
00000170: 0e28 813d bc36 f13c 3853 8abd e4c3 5f3f
00000180: 7070 f2bd 5fdd 10bc 810e 5bbd 3cb4 7ebd
00000190: 7e03 813d 88ba 93bd 8938 453d 5cc1 a5bd
000001a0: 268a 3d3c ab66 a03d ec44 91bd 8782 9c3d
000001b0: 7f47 0a3c 08cd dcbd 6fa2 283d 2d36 2bbe
000001c0: 4410 3c3d 9359 60bd a62e 783d 9c72 1d3d
000001d0: bd0d f4bd 5b68 e03d 3053 febc b00f 51bd
000001e0: 6d0f 8dbc 4cd5 cd3d b198 d7bd 8ead a2bd
000001f0: 75fd f7bd f1b1 14bd b0a5 6bbd 54bf 8b3c
00000200: c3b4 cf3d d00f 95be 4757 0b3e f833 1abf
00000210: 40f2 093e becf e8bd 9521 7f3d 07fe 483c
00000220: 6e10 b6bd 1af6 57be 4f28 303e 5e1c 0dbe
00000230: 0979 bcbd 7dc7 c7bd e2cf 013d c860 5b3e
00000240: fce4 1ebe 3264 5fbe 1520 86bd 4e22 093c
00000250: d74a 38be a0e4 02bd ab25 323e e428 e8bd
00000260: a649 ee3d bfcf b2bd 05f1 5abd 3ff6 dbbd
00000270: 9792 ee3d 38a0 b4bd 78ad 863d b88f 30be
00000280: 4e9c b93d a4d9 0cbd 0246 c7bd c22a 6f3e
00000290: e9b9 603d d2f0 233e 963f 463c 4a37 33be
000002a0: edf7 18be 8aa1 2a3d 4aeb ad3d 1930 3abd
000002b0: 4fef 343b 948e e73b 0b8d 54be d018 4ebd
000002c0: 722f 183d 2733 113c 2e5e 0bbd 4e03 013c
000002d0: 49f9 1c3d 81d7 f8bc 3df7 87be 4411 c2bc
000002e0: 1b93 ffbd f5e7 18bd 47e6 273e b705 833d
000002f0: 6b78 54be 6d40 09be 030e 81bd 4775 fa3c
00000300: 7137 943d d21e d3bd 7f0a e23d fe0d 34bd
00000310: 998a 023c 6a07 21be ae23 283c afa3 c73d
00000320: 7162 cf3d a2a9 123e 2605 e9bd e9e8 5f3c
00000330: 2940 fcbd 25a3 8bbc 5a11 573e eece 9dbc
00000340: 3f50 7fbd e9f8 49be d212 20be 0393 15be
00000350: a471 2a3e a750 bf3d 4452 513e 4abc 89bd
00000360: 8e55 5fbe 6be4 d4be c9d6 803b ca8a cfbd
00000370: 4341 2bbe 960e 25bd ef7a 113e 95cb d0be
00000380: 338e 04bd b651 203e 89c5 5dbe 6a69 8bbd
00000390: ddbd b13d 7597 28be d0ba ec3d 8a11 a4be
000003a0: f923 7abd 1212 1d3e a97d eebd 4cc0 5dbe
000003b0: 4594 85be 6566 02be 4458 95bd 34d2 79bd
000003c0: 57d9 e13d 177e 66be 5dec 133e 5d02 d43e
000003d0: c5d4 2d3c 2fbd 07bc 113e 853e f548 12be
000003e0: e3ef 1abe 59d5 853e c4c0 11be 86b3 2f3d
000003f0: bb8a 5fbe 669d c0bc e075 603d 6ec2 1abd
0.2075211 -0.0051976973 0.4555223 0.090791084 0.040936302 0.020665716 -0.074134596 -0.001076547
-0.08556998 -0.78247654 -0.21772918 -0.009505972 -0.012577535 0.0066307844 -0.11286198 0.17305198
0.04802844 0.012766761 -0.063546084 0.04788565 -0.15437579 -0.08078567 0.060997434 0.12974292
0.023128761 0.13679203 -0.045403566 -0.0019462773 0.04467588 0.0061415657 -0.03689132 0.05297145
0.06802859 0.10530018 -0.0046191593 0.084107965 0.009175957 -0.0055522155 0.028043702 0.13755605
-0.03539317 -0.10670807 -0.045389336 0.25522202 0.04132399 -0.9493916 -0.10251094 0.059103526
-0.015855111 0.01668774 -0.06608283 -0.31814173 0.43588468 -0.18282218 0.19025464 0.029341688
0.18278062 0.13795398 -0.06827388 -0.12109853 0.012028382 -0.0770521 -0.04067597 0.21582285
-0.015652101 -0.15339899 0.017748227 -0.07358842 -0.15980275 0.110568896 -0.04182997 -0.06666883
0.18872619 -0.1388995 -0.019054266 -0.08667637 0.022608176 0.006795408 0.01545328 0.12912813
-0.15324779 -0.19582845 -0.07859524 0.13578047 0.19368961 0.21681796 -0.14859907 -0.10736949
-1.4225984 0.085436255 0.04375204 0.020483295 0.06306468 0.029445045 -0.06754154 0.8740828
-0.11837852 -0.0088418415 -0.05348063 -0.062183604 0.06299494 -0.072133124 0.04814962 -0.08093521
0.011568582 0.07832082 -0.07093224 0.076420836 0.008439898 -0.10781294 0.041170534 -0.16719885
0.04591395 -0.054772925 0.060591362 0.03843938 -0.11916683 0.10957404 -0.031045526 -0.05104035
-0.01721927 0.10050449 -0.105271704 -0.07943259 -0.1210889 -0.03630251 -0.05753106 0.017059006
0.101418994 -0.29113626 0.13607512 -0.6023555 0.13471317 -0.11367749 0.062287886 0.012267596
-0.088898525 -0.21089974 0.17202877 -0.13780352 -0.09202773 -0.09754846 0.031692393 0.21423638
-0.15517038 -0.21815565 -0.06549088 0.008369995 -0.17997299 -0.031956315 0.17397182 -0.11335924
0.11635141 -0.08731031 -0.05345251 -0.10740327 0.116490535 -0.08819622 0.06576055 -0.17242324
0.09063016 -0.034387246 -0.0973015 0.23356155 0.054864798 0.16009834 0.012100121 -0.1750156
-0.14938326 0.041657962 0.084921435 -0.045456026 0.002760846 0.007066557 -0.20756929 -0.05031663
0.037154622 0.008862293 -0.034025364 0.007874323 0.038323674 -0.030376198 -0.26555815 -0.023689874
-0.1247923 -0.037330586 0.16396438 0.063975744 -0.20749061 -0.13403483 -0.06301501 0.0305735
0.07237137 -0.10308613 0.11037158 -0.043958656 0.007967615 -0.15725484 0.010262413 0.09748017
0.10126198 0.14322522 -0.11377935 0.01366637 -0.12316925 -0.017045567 0.21002713 -0.01926371
-0.062332388 -0.19723858 -0.1563218 -0.14606862 0.16644913 0.09341555 0.20441538 -0.067253664
-0.2180998 -0.4158052 0.0039318544 -0.10133894 -0.16724114 -0.040297113 0.14207052 -0.4078032
-0.032362174 0.1565617 -0.21657385 -0.068072155 0.08678792 -0.16464026 0.11559069 -0.3204463
-0.061069462 0.15338925 -0.116450615 -0.21655387 -0.26089683 -0.12734373 -0.07292226 -0.06099148
0.110277824 -0.22509037 0.14445634 0.41408053 0.01060981 -0.008284851 0.26023915 -0.14285643
-0.15130572 0.26139334 -0.1423369 0.042895816 -0.21830265 -0.023512553 0.054799914 -0.03778308

mlp.0.bias f4 [32]
00000000: a644 5f3d 9938 1f3d a692 d13d f7f2 b2bd
00000010: 0302 3abd a851 8a3d ba3f 0a3e 59d2 ecbd
00000020: 6c12 cb3d 47b1 b3bc d47a 973c 2bb6 e1bd
00000030: fc70 823d 386f cebd 2968 b4bb 143f 87bd
00000040: 85bc 993d 2a6d 913c c4d8 9dbd 06f6 82bc
00000050: b480 c73d 2c9f 0abe f83b 6e3d c73b e13d
00000060: 1a78 8b3c 9553 553d 1301 b53c 08b3 113e
00000070: 20fb 3ebd 4390 92bd 79da 023d d811 03bd
0.054508828 0.038872335 0.10233049 -0.08737748 -0.045412075 0.06753856 0.13500872 -0.11563558
0.09915623 -0.021935118 0.018491186 -0.11021074 0.06369206 -0.10079807 -0.005505581 -0.06603828
0.0750666 0.017752249 -0.077073604 -0.015986454 0.09741345 -0.13537282 0.05816266 0.1099773
0.017025042 0.052081663 0.022095239 0.14228451 -0.04662621 -0.07156422 0.031946633 -0.03199944

mlp.2.weight f4 [32, 32]
00000000: 25c3 863d c55a ad3d 80c1 593c 2e17 58be
00000010: 58b3 0bbe 0c9b 283e 6584 993e bc20 023f
00000020: 83be ca3d ae39 8a3c 738c 333e 6ac0 80ba
00000030: 1adf 24be b97e 313e 2afb 72be 0243 7a3d
00000040: e5ba 243e 878a debd c837 d53c c537 9dbe
00000050: bef1 02be 7105 b13d 1f36 82bd fd5b 94bc
00000060: 6181 98be 46d2 91bb 1da3 a5be f7ba 513d
00000070: 5a8a 273d 50f1 0b3f 184c 6c3d d538 edbd
00000080: c75a 28be 8f29 8c3d 6af8 fd3d 1094 c43d
00000090: c8c5 57bd f4c5 253e 0364 4fbd 0490 1e3d
000000a0: a351 9dbe 2ba2 253e 3c75 47be 86f7 bb3d
000000b0: 7529 503d 6e2f e93d 1e90 f73d c3ed a73d
000000c0: 84b4 41be 17d5 f13d c94a 093e ff59 103e
000000d0: 26e8 c2bd 3773 2d3d b7f0 f53d 4228 3abe
000000e0: 772e 19bc 787e 0f3e 1c08 253e e470 01be
000000f0: 1a1f 953e 2300 0e3c 102b dc3c 0d7c 43be
00000100: 3a27 cf3c 8777 d2be 77b6 78bc 591f 13be
00000110: 3a9f 16be 49e1 683e 7fb4 4d3e a86d 003e
00000120: d8a7 bfbd 891a 1b3e dda3 6abe c451 083e
00000130: 1222 d8bd 483c 543e e36b 143e 6c9c a53e
00000140: 4f6b 033e b3c1 ba3c 60cc fc3d 7228 8c3e
00000150: 513c 98be bba5 babd eacc 643b 7e00 763e
00000160: c3d5 113e 903e 623e 8cd9 e9be 6c47 dbbd
00000170: 14a7 633e 4d19 e33e 4b60 a43d 30f7 09bd
00000180: 08ce 77bc 6d1e dcbd 73fa babd d14e 57bc
00000190: 5da4 acbd 7196 4c3d 0778 aabe c8ad 4abe
000001a0: 522c 153e 01bf 83be 3cbe 023e 400f 0ebd
000001b0: 28aa 39bd cbdf 0d3e f556 133e 770e 4bbe
000001c0: 6d56 01be 8e64 293e ad21 0b3e 44fe abbd
000001d0: 8288 aa3c 96ca 823e 9221 dbbd d743 263d
000001e0: d4a4 da3d d4b0 023d 0e4c 0fbe 2a96 fabd
000001f0: 10c1 27bc aee6 c9bd 3774 5c3b 5714 4dbd
00000200: 3612 62be 9f97 173e 0d87 03bf 3e70 e23d
00000210: d49c 073d 19fc 63be 3af5 b0be 5631 9e3d
00000220: 9a5d cc3d 44db d2be 0931 7cbe f607 1ebe
00000230: b81a e93d 9ab7 ddbb e5b7 213f 776c 8bbe
00000240: 6f83 11be 1163 ed3d 930d 7dbb 4d77 9a3e
00000250: 2282 ec3d 8e18 cb3c a687 eabe c392 acbe
00000260: 405b 0a3d 48bd f4bc 30bf 4cbe 21ed a53d
00000270: b32e 8a3d 20ba 70be 997e 3f3c a71d 9abc
00000280: b38e bcbe bf33 493d 1f08 36bd 6cba 1abe
00000290: 48ed b9bd 8c46 cbbe 3671 7d3e b9d6 f73c
000002a0: 3736 9dbd c196 823e 5fa3 b23c ec17 123e
000002b0: 3a9e 033e bd99 9abd cc4e efbd fd96 a1bd
000002c0: eb63 13be e979 3abc 981f 1f3d 6c0f 293e
000002d0: 8281 99be 1e43 fb3d 8871 80be cc3c be3d
000002e0: a436 1bbd fa30 aebe ead0 bebd 80ca 863e
000002f0: 5232 c6bd 3658 84be 2c45 c53c 8a66 8abe
00000300: 67a7 edbd 633e f3bd fcc2 703d ad1e acbd
00000310: d9e1 833d edc3 02be c7c9 c13e f12d e33e
00000320: dee0 193e ff6c a3be a45e cd3e d840 f7bd
00000330: 2b44 7c3d 277f 943c 1460 9ebc e64e 04be
00000340: 3aef 033e 0d2e 233c bf92 d7be c68c 3b3e
00000350: 7fe9 32be 267e 7cbe d8c3 bebe d729 883d
00000360: 458c 90bd 2229 74be 333b 7bbc ce2d ac3d
00000370: 7e05 5a3e 68db fc3e 0a39 0ebf 7ec3 b8bd
00000380: 960d ea3c 72b2 8c3e e337 85be 1316 b0bd
00000390: d54b 9c3c 759b febc 9951 1dbe 1a16 f9bd
000003a0: 52be 32be c086 0bbe 72dc 0dbe 9e04 2abd
000003b0: 49ac f63d b033 31be 5d2b 43bd 5055 fabe
000003c0: d604 c23c 32e9 45be e397 32be 6148 433d
000003d0: 29fc 623c 4770 1cbc 1bcd 96ba 21c1 8abd
000003e0: 9b30 063e 411b 3fbd b753 63be 1f19 903d
000003f0: 3f98 e03d 8d52 77be 1f27 3b3d afd8 de3d
0.065801896 0.084645785 0.013290763 -0.21102592 -0.13642633 0.16465396 0.29983822 0.508312
0.098996185 0.016873207 0.17534046 -0.0009822969 -0.16100731 0.17333497 -0.23728624 0.06109906
0.1608692 -0.10866266 0.026027575 -0.3070661 -0.1278753 0.08643616 -0.06357979 -0.01811027
-0.29786208 -0.0044501154 -0.32351008 0.051203694 0.040903427 0.5466509 0.057689756 -0.115831055
-0.16440879 0.06843864 0.12400897 0.09598553 -0.052678853 0.16188794 -0.050632488 0.038711563
-0.30726346 0.16175143 -0.19478315 0.09178071 0.050820787 0.113859996 0.12088035 0.08199646
-0.18916517 0.11808222 0.13407435 0.14096831 -0.09516935 0.042346206 0.12008803 -0.1817942
-0.009349457 0.14013088 0.16116375 -0.1264072 0.2912529 0.008667025 0.026876003 -0.1909029
0.02528726 -0.41106817 -0.015180222 -0.14367427 -0.14709178 0.2274219 0.20088385 0.1254183
-0.093581855 0.15146841 -0.22914071 0.13312441 -0.105533734 0.2072612 0.1449428 0.32345903
0.12833904 0.022797441 0.12343669 0.27374607 -0.29733518 -0.09113642 0.0034912177 0.24023625
0.142417 0.22094178 -0.45673788 -0.10706982 0.22231704 0.4435524 0.08026179 -0.033683002
-0.015124805 -0.10747991 -0.09129801 -0.01314135 -0.08429787 0.04994816 -0.332947 -0.19792855
0.14567688 -0.25731662 0.12767881 -0.034682512 -0.04532829 0.13854901 0.1438864 -0.19829737
-0.12630625 0.16542265 0.13587065 -0.08398107 0.020817045 0.25545186 -0.106997624 0.04059204
0.1067597 0.031906918 -0.13993856 -0.12235673 -0.010238901 -0.09858452 0.0033638605 -0.050068226
-0.2207726 0.14803933 -0.51377946 0.11056565 0.033108547 -0.22264136 -0.34562093 0.07724254
0.099787906 -0.4118291 -0.2462808 -0.15432724 0.11382049 -0.006766272 0.63171226 -0.2723119
-0.14210294 0.11591161 -0.0038612827 0.30169144 0.11548258 0.024791982 -0.45806617 -0.3370572
0.03377843 -0.029875413 -0.19994807 0.081018694 0.067471884 -0.23508501 0.011687898 -0.018812967
-0.3682762 0.049121615 -0.04444134 -0.15110177 -0.09078461 -0.3970226 0.24750218 0.030253755
-0.07676356 0.2550564 0.021806417 0.14266938 0.12853327 -0.075488545 -0.11684951 -0.07890127
-0.14393584 -0.011381605 0.03884849 0.16509789 -0.2998162 0.12268661 -0.25086617 0.0928894
-0.037893906 -0.3402174 -0.09317191 0.2632637 -0.096775666 -0.2584855 0.024080835 -0.27031356
-0.11604195 -0.11877134 0.0587797 -0.084042884 0.064395614 -0.12770052 0.37849256 0.44370988
0.15027186 -0.31919095 0.40111268 -0.12072915 0.061588448 0.018127037 -0.019332923 -0.12920722
0.12884226 0.00995971 -0.42104146 0.1831542 -0.17471884 -0.24657497 -0.37258792 0.06648605
-0.07058004 -0.23843816 -0.015333938 0.08407174 0.21291158 0.49386144 -0.55555785 -0.09021662
0.028570931 0.27479893 -0.260192 -0.0859796 0.019079128 -0.031079987 -0.15363158 -0.12162419
-0.17455414 -0.13625622 -0.13853624 -0.04150831 0.120445795 -0.17304873 -0.047648776 -0.48893213
0.023683947 -0.19327238 -0.17440753 0.047676448 0.013854065 -0.009548253 -0.0011505218 -0.06775118
0.13104479 -0.04665685 -0.22199903 0.070360415 0.10966539 -0.24152584 0.045691606 0.10881173

mlp.2.bias f4 [32]
00000000: 9f10 cf3d 646d e2bd 4481 04be b5d4 b13d
00000010: 7168 62bb 16cd 8c3d bd43 d93c 1368 8e3e
00000020: 7a03 8bbd abf1 c3bd 54af 333e 077f 82bd
00000030: 8afd 493e 5395 903d 5d44 b63d 4bb3 d83d
00000040: e789 34be d938 f5bb b230 283e 8486 d13d
00000050: c358 043d c4cb 1a3e eed5 823e 4b94 87bd
00000060: dd3a 153d 0f3a 263d 131a bdbc 7359 87bd
00000070: e7af e3bc e59b 3b3e 850a 90bd c863 3cbe
0.10110592 -0.11056021 -0.12939936 0.08683149 -0.0034547115 0.068750545 0.026521558 0.27813777
-0.067877725 -0.09567579 0.17547351 -0.06371885 0.19725624 0.07059731 0.08899758 0.105810724
-0.1763073 -0.0074835834 0.16424826 0.10230735 0.032311212 0.15116793 0.2555384 -0.066200815
0.03643309 0.040582713 -0.023083722 -0.06608858 -0.027793838 0.18321188 -0.070332564 -0.18397439

mlp.4.weight f4 [42, 32]
00000000: 1bc3 b73a 39d6 b23d 036e 303a c471 3dbd
00000010: b88d 1dbe 45e7 c9bd 00e4 21be 60b6 c6bd
00000020: e037 213d d8f1 32bd 9026 f2bc fe49 f83d
00000030: 3ad0 71bc 0dc5 dcbc e0cd 0e3e 42d8 b73d
00000040: 9f9c a7bd c9c0 abbc 99d2 98bd 34f4 633c
00000050: 4483 363d 3b0e 003d df7a bf3c afb3 ba3d
00000060: 0beb bdbd 33f1 3a3e cf6a 2abe f1e7 803d
00000070: 5f8b 453e 4100 993d 87fa eb3c 2208 383d
00000080: 15c8 e9bc 161d 92bd 51f2 04be 3535 08bd
00000090: c1eb 923d 70b5 fa3c 557e 85bd 11ab ddbd
000000a0: 37bc 1e3e 0810 b73d ec2a 9dbd 3d90 ce3d
000000b0: ba4d eebd d82d d03d 33ee 80bc b77a 443c
000000c0: f7b1 8ebd 6cc8 0a3e 118e 2abd c61e 313e
000000d0: 212c b73d 89b0 97bd ada9 c4bd fd35 b8bc
000000e0: 6dee 8ebe 8a34 92bc a26c 02be 07ce 883d
000000f0: 2e09 303d 26c3 01bc f2ee a03e bca9 4ebd
00000100: fd48 0c3e 0f1a eb3b 88a2 31bd 0751 a2bc
00000110: b69e cc3d cd3d 87bd 0ced fa3d 6a4e ff3d
00000120: de3a bd3d 94d4 7f3d be10 cdbd 1fea 31be
00000130: f352 11bb 651f 073e 1582 9c3e c5ee f83c
00000140: f55d 2e3e 5fba 29be 2590 cfbd 93e0 5dbd
00000150: 1536 0cbe dce6 b13d 2311 863d 602f 953d
00000160: a9ee 743c 0b54 88bd 2cc9 943d 9a4c 0c3e
00000170: 318f 613c 88a5 353d 78cf 52bd 28f5 623e
00000180: 7a9d 9e3c 7b45 b2bc 05e7 2bbe 358c fd3d
00000190: b06a c83d a34d a33e 93d8 223d 6045 a6bd
000001a0: 3a9b 2abe 7cb3 edbd dbf6 d6bd a6da d53d
000001b0: 0a82 cabd f736 c33d 7567 2fbe 89d7 073e
000001c0: 3f52 c63d f390 f93d c5a0 2e3e 60bd 033e
000001d0: b833 bd3d 2c36 9a3c 78de 17be 8146 50be
000001e0: 6bec c33d a15e 75be 85de 9fbe a6ab e5bd
000001f0: e939 f63d 63f1 debd 0e67 35bd 21d4 183e
00000200: b5f8 b93d 6093 863d 20a9 1fbe 950a 24be
00000210: 3071 c93c b400 cebc f6ab 5e3e fd1a 0cbd
00000220: 61f0 b03d d234 3bbe d1fd 7dbd 2c9e 3dbd
00000230: a44e 0c3e 0a50 883d d77f 4cbe b8f6 a1bc
00000240: 422f a4bd e889 723d 59d7 fbbb 2622 e73d
00000250: 3070 e3bd 2705 0abe c4b3 9cbd 7714 40be
00000260: 7c35 12be 0750 d4bd d657 8fbd d4ff 153e
00000270: 9b80 ce3d 5788 b23b 0f66 7c3d 48f4 9cbe
00000280: d4aa 2cbc 62d2 443d ea92 60bd ecee cd3d
00000290: 7c85 8abc c60a 5c3d e830 2dbb f70c 54bc
000002a0: fdc3 8d3d 5a1c 16bd bdca dcbd b09a e23b
000002b0: 825a da3d 4c21 19bc ad4a 47be 5b8e 063e
000002c0: 088a 813d 1197 153d 3adc 373d fd4d 653c
000002d0: 188a 2fbe 3528 873d 14da 2bbd 2fad 9d3e
000002e0: 1145 433e fc3d 833c 613f 503d 71d7 bc3d
000002f0: 623e 453e 8cb8 91bc 44ee 59bb 6cf7 91be
00000300: 447d bcbd 4c6d 753e 1971 253e 627c 3b3d
00000310: 2382 9bbd b53a 3c3c c00c 6d3c 2807 ce3d
00000320: 5f84 893d 8eba 8b3c e11d 5c3c f7fb 6dbd
00000330: 9592 013c 4fa9 0abd 629a 9abe 8341 a43d
00000340: 5829 de3d c0a1 37bc d656 683d 9e30 183e
00000350: 71fa 5bbd 983b a03c a1dc 863d 0a15 0d3e
00000360: 25a0 313d fa92 fd3c 29bc e83d efc1 35bd
00000370: 26f2 72bd 7f18 643d cfca 4dbe 399e ffbd
00000380: 656b 7fbd 1063 613d d5f6 123e 56df 0b3e
00000390: e68e 33bd 4f44 3dbe 54b4 72be 8043 273d
000003a0: 50c3 20bd ddd3 103e 9f01 f9bc 308b a03d
000003b0: 5890 283e c114 d8bd dadd 33be 7833 04bd
000003c0: 1dfc 14be 7bf5 5c3d 5b84 6b3b ba3a 513e
000003d0: 78dc d13d 6af9 b0bd a05b 453d fdce 733d
000003e0: d0d1 7ebd d8e9 833e d0b7 3abe 26ce 823d
000003f0: a566 883d 393a 203d 65e9 ed3d 46ec 5fbd
0.0014019938 0.08732266 0.000673026 -0.046251073 -0.15386093 -0.09858564 -0.15809631 -0.09702754
0.039359927 -0.04368767 -0.029559404 0.12123488 -0.014759118 -0.02694943 0.13945723 0.08976795
-0.0818417 -0.02096595 -0.07462043 0.013913203 0.04455878 0.03126357 0.02337402 0.09116303
-0.092733465 0.18256073 -0.16642307 0.06294239 0.19291447 0.074707516 0.028805984 0.04492963
-0.02853779 -0.07134454 -0.12983061 -0.033253867 0.07173873 0.030604094 -0.065182365 -0.10823644
0.15501486 0.089386046 -0.07674202 0.10086105 -0.11635919 0.10164994 -0.015738582 0.011992148
-0.06967538 0.13553017 -0.04163939 0.17296895 0.08943964 -0.07406718 -0.096026756 -0.022486681
-0.2791628 -0.017847318 -0.12736753 0.066799216 0.042977504 -0.007920062 0.314323 -0.05045484
0.13699718 0.0071747373 -0.043367893 -0.019814027 0.09991209 -0.066035844 0.12252244 0.12466128
0.09239744 0.06245859 -0.10012959 -0.17374466 -0.0022174686 0.1319557 0.30567995 0.030387292
0.1702803 -0.16575001 -0.10134915 -0.05416925 -0.13692506 0.08686611 0.06546237 0.07284427
0.014949479 -0.06656655 0.07264933 0.13701096 0.01376705 0.044347316 -0.05146739 0.22163832
0.0193622 -0.021761646 -0.16787346 0.12380258 0.09785974 0.3189517 0.039757323 -0.08118701
-0.16660777 -0.116064996 -0.10496303 0.104420945 -0.09888084 0.09531968 -0.1712931 0.13265814
0.09683656 0.1218585 0.17053516 0.1286521 0.0923838 0.01882466 -0.14830959 -0.20339395
0.095665775 -0.2396188 -0.31224456 -0.1121438 0.12022764 -0.108858846 -0.044287734 0.14924671
0.0908064 0.06571078 -0.1559186 -0.16019662 0.024590105 -0.02514682 0.21745285 -0.034205426
0.08639599 -0.18281868 -0.062009636 -0.046293423 0.13701874 0.06655891 -0.19970642 -0.019770965
-0.08016826 0.05921355 -0.0076855836 0.1128581 -0.111053824 -0.13478528 -0.07651475 -0.18757807
-0.14278215 -0.103668265 -0.06999175 0.14648372 0.10083123 0.005448382 0.06162077 -0.30655122
-0.0105387755 0.0480522 -0.05482761 0.10055336 -0.016909353 0.05372121 -0.0026426855 -0.012942544
0.069221474 -0.036648132 -0.10780857 0.006915413 0.10661794 -0.0093463175 -0.1946208 0.13140242
0.063251555 0.03652102 0.04488776 0.013995645 -0.17142522 0.06599466 -0.041956022 0.3079619
0.19069315 0.016020767 0.050841693 0.0922078 0.19262078 -0.017788194 -0.003325359 -0.2850908
-0.0920358 0.23967475 0.16156425 0.045772918 -0.07593181 0.011488606 0.014468372 0.10059959
0.06714701 0.01705673 0.013434858 -0.05810162 0.007908483 -0.03385287 -0.3019591 0.08020308
0.108477294 -0.011207998 0.05672344 0.14862296 -0.053705636 0.019559667 0.065850504 0.13777557
0.043365616 0.030953873 0.11364014 -0.044374403 -0.059312962 0.055687424 -0.20096897 -0.124813505
-0.06235828 0.055026114 0.14351971 0.13659415 -0.04383745 -0.18483089 -0.23701602 0.040835857
-0.039248765 0.1414332 -0.03039628 0.07839048 0.16461313 -0.105508335 -0.17565098 -0.032275647
-0.14549299 0.053945046 0.0035937044 0.20432559 0.10247129 -0.08641322 0.048183084 0.05952357
-0.06221181 0.25764346 -0.18234181 0.06386976 0.06660203 0.039118025 0.11616782 -0.054668687

mlp.4.bias f4 [42]
00000000: 64af ba3d 7187 3b3e 5834 fcbd dfcf 223e
00000010: 7ebc 68bd 9604 7cbd 5e08 983d bfd8 e13d
00000020: 7b3b 3bbc 5afe 543d d02b d3bd 176f 10be
00000030: ee73 373d 8d6b 05be ee1a 1c3e beba 3ebe
00000040: 5c02 c5bd c884 41be 3df5 463d 92ba d13d
00000050: 6fa0 d6bd ec0e adbd 88bd 043e 4dc6 f63d
00000060: b18a 203e e22b b3bc 9d1b f43d 7123 a83d
00000070: d6b6 073e 6eb0 20bd 1cb4 8fbd dbc5 1a3e
00000080: 87ee c9bd f367 15be 9dac 05be 0e9c e9bb
00000090: b940 383d c2f1 a2bc 469f f63d b048 39bd
000000a0: cee3 09be f554 87bd
0.09115484 0.18313386 -0.12314671 0.15899609 -0.056820385 -0.06152781 0.07423471 0.11027669
-0.0114277555 0.05200038 -0.10311091 -0.14104877 0.044788294 -0.13029309 0.15244648 -0.18625924
-0.09619591 -0.18898308 0.04857372 0.102406636 -0.10479819 -0.08450112 0.12962925 0.120495416
0.15677907 -0.02187151 0.11919329 0.08209885 0.1325334 -0.039230756 -0.07016775 0.15114538
-0.098599486 -0.14590435 -0.13054128 -0.007129199 0.0449836 -0.01989067 0.12042098 -0.045235336
-0.13465807 -0.06608001
