trained_models/aamas22-main/best_fov_encoder_self.pt (torch, 103461 bytes, 6 tensors)

mlp.0.weight f4 [32, 722]
0	0x3bc3f5f8	0.0059802495
1	0xbd1ec377	-0.03876063
2	0xbb9a682d	-0.0047121258
3	0xbd005e68	-0.031340033
4	0x3c549dda	0.012977088
5	0x3c9d842f	0.01922807
6	0xbd1c7afc	-0.038203225
7	0xbc0f5f88	-0.008750804
8	0xbd0401d1	-0.032228295
9	0xbc86bec5	-0.016448388
10	0x3cd6a642	0.026202325
11	0xbd2bdc47	-0.04195812
12	0x3cef85a3	0.029238528
13	0xbc4f3a9c	-0.012648251
14	0x3cab80eb	0.020935496
15	0x3cb66cb0	0.022268623
16	0x3bb9c8e8	0.005669702
17	0x3c8efc3c	0.01745426
18	0xbbf33f4d	-0.0074233175
19	0x3c40c38b	0.011765371
20	0xbd278ac2	-0.040903814
21	0x3c175ce6	0.009238457
22	0x3c3df0cd	0.011593056
23	0xbd102617	-0.035192575
24	0xbd04a991	-0.032388274
25	0xbcc17f8d	-0.023620391
26	0x3cc4dcfc	0.024031155
27	0x3bc5f55a	0.006041211
28	0x3cef1d5b	0.029188802
29	0x3cdf5dc3	0.027266389
30	0x3ca95679	0.020671116
31	0x3ced0057	0.028930826
32	0x3b97fa9d	0.0046380297
33	0xbbd8bf66	-0.0066146133
34	0xbc92fef1	-0.017943831
35	0x3c50c53d	0.012742338
36	0xbd19951c	-0.037495717
37	0xbd0164b5	-0.031590182
38	0x3c1bf717	0.00951936
39	0xbbb58d95	-0.0055405595
40	0xbce02f8f	-0.027366428
41	0xbc983232	-0.018578622
42	0x3c6eafe1	0.0145683
43	0xbcca08d3	-0.02466241
44	0xbce89854	-0.028392948
45	0x3cf803c4	0.030275233
46	0xbcb3a915	-0.02193121
47	0xbd15ac0e	-0.036541037
48	0xbcf563c3	-0.029954797
49	0xbd1eb3d9	-0.038745735
50	0xb9eb2e88	-0.0004485736
51	0x3cf80053	0.030273592
52	0xbd011f59	-0.031524036
53	0xbd024595	-0.03180464
54	0x3c36171f	0.011113911
55	0x3c808dac	0.015692554
56	0x3ace64db	0.001574661
57	0x3c6c7182	0.014431359
58	0xbc068be6	-0.008212065
59	0x3c6f43ea	0.014603594
60	0x3c8f8376	0.01751874
61	0xbc2854b5	-0.010274102
62	0xbcfe8da9	-0.031073408
63	0x3b0577ef	0.0020365675
64	0xbd0420bd	-0.032257784
65	0xbc905a94	-0.017621316
66	0x3b8c4042	0.004280121
67	0xb7e9b097	-2.7857996e-05
68	0x3b1b0204	0.0023652324
69	0x3ce4e5e1	0.027941646
70	0x3c92cdf6	0.017920475
71	0x3ba6bebc	0.0050886553
72	0xbd1e33d7	-0.038623657
73	0x3ca2ccfa	0.019873131
74	0xbd060420	-0.032718778
75	0xbd2a9359	-0.041644428
76	0xbcf4d7a4	-0.029887982
77	0xbd1491be	-0.036271803
78	0x3b48f59e	0.0030663977
79	0x3cdb110e	0.02674153
80	0x3cde4674	0.027133204
81	0x3ca5c044	0.020233281
82	0xbc7a9119	-0.015293383
83	0xbc9a419b	-0.018830111
84	0x3cab0192	0.020874772
85	0xbd0ff64a	-0.03514699
86	0xbc1f00ac	-0.00970475
87	0x3bd53be6	0.0065073846
88	0xbb4ed048	-0.003155725
89	0x3cf73d5d	0.030180627
90	0xbc09c697	-0.008409164
91	0xbd2ea846	-0.042640947
92	0xbc448543	-0.011994663
93	0xbccb8da5	-0.024847815
94	0x3ce2bc9b	0.027677825
95	0x3b093917	0.002093857
96	0xbcb841a5	-0.02249224
97	0x3c73fc34	0.014891673
98	0xbc9dae11	-0.01924804
99	0xbd076a4d	-0.03306036
100	0x3ab32974	0.001366897
101	0x3bb9415d	0.005653544
102	0xbc628f09	-0.013828048
103	0xbd061d6a	-0.032742895
104	0xbbac871a	-0.005265129
105	0x3cb30a58	0.021855518
106	0xbc38d50b	-0.011281262
107	0x3c061a66	0.008185005
108	0x3cf22b88	0.029561773
109	0x3cee04a4	0.029054947
110	0xbd1fa7fe	-0.03897857
111	0xbca81a6c	-0.020520411
112	0x3cf24217	0.02957253
113	0xbd22d7c6	-0.03975656
114	0xbbbb56e6	-0.005717146
115	0x3cc9aa48	0.02461733
116	0x3cedc17b	0.029022923
117	0xbd0f28cf	-0.034951027
118	0x3c6e274d	0.014535737
119	0xba147a08	-0.0005663936
120	0x3c7ced5d	0.015437451
121	0x3b677fdc	0.0035324013
122	0x3ccf6145	0.025314936
123	0x3ce7e5c2	0.0283078
124	0xb7a3879b	-1.949426e-05
125	0xb81ac350	-3.689836e-05
126	0x3c4d091a	0.012514377
127	0x3bfe9477	0.007769163
128	0x3ca7c8fa	0.020481575
129	0x3c4fe616	0.012689134
130	0xbb226ef6	-0.0024785376
131	0x3cd8e277	0.026475174
132	0xbc955d38	-0.018232927
133	0xbc6e2cf1	-0.014537082
134	0xbb864a02	-0.004098178
135	0x3c6cb3e7	0.014447189
136	0xbcb9b128	-0.022667482
137	0xbc43b00b	-0.011943827
138	0xbce500b2	-0.027954433
139	0x3c6ce3bd	0.014458594
140	0x3c7cb079	0.015422934
141	0xbccddb15	-0.02512888
142	0xbab320d1	-0.0013666396
143	0xbce9d55e	-0.028544124
144	0x390efd3a	0.0001363651
145	0x3a74758d	0.0009325378
146	0xbd2791bc	-0.040910468
147	0xbc361542	-0.011113467
148	0xbd07b5f9	-0.033132527
149	0xbbe45fec	-0.0069694426
150	0x3c7b37fb	0.015333171
151	0xbd0fd8d9	-0.03511891
152	0x3a005cef	0.00048966607
153	0xbc7f4602	-0.015580656
154	0x3b92b411	0.004477032
155	0x3ca3aeb6	0.01998077
156	0x3cd520c5	0.026016602
157	0x3c0b098e	0.008486165
158	0xbcb553b1	-0.022134634
159	0xbcce6440	-0.025194287
160	0xbd2c0cbc	-0.042004332
161	0xbc4af720	-0.012388021
162	0xbbffe0cc	-0.0078087803
163	0xbc41fd91	-0.01184024
164	0xbb39eeb4	-0.0028371038
165	0xbb20bd3f	-0.0024526862
166	0xbc251b7d	-0.0100773545
167	0x3ca44c94	0.020056047
168	0x3c91108e	0.01770809
169	0xbcb25829	-0.021770554
170	0x3c5e2994	0.013559718
171	0xbd06aa39	-0.03287718
172	0xbd1f8ca2	-0.038952477
173	0xbd2f842a	-0.04285065
174	0xbd0a5130	-0.033768833
175	0xbcc713c8	-0.024301425
176	0xbc12ccbf	-0.008959948
177	0xbb031a7a	-0.0020004795
178	0xba994b86	-0.0011695481
179	0xbc37c722	-0.011216911
180	0xbc7cfc1e	-0.015440969
181	0xbcdf293a	-0.027241338
182	0xbba6111b	-0.005067957
183	0xbc14d2c1	-0.009083451
184	0x3c4a7e70	0.012359247
185	0xbce194b3	-0.027536726
186	0xbd1ce84c	-0.038307473
187	0xbc5e0902	-0.013551952
188	0xbc458741	-0.012056173
189	0xbcc0351a	-0.02346282
190	0x3be600c7	0.0070191356
191	0xbc43965c	-0.011937704
192	0x3b09a2e2	0.0021001627
193	0xbb493953	-0.0030704334
194	0xbd2c4941	-0.042062048
195	0x3c876563	0.016527837
196	0x3c2bbc1d	0.010481861
197	0xbac77d2c	-0.0015219799
198	0xbbdecc99	-0.0067992923
199	0xbcd788ce	-0.02631035
200	0xbcfbf3cb	-0.030755898
201	0xba3ef84e	-0.0007284925
202	0x3cfe751c	0.031061701
203	0xbd055921	-0.032555703
204	0xbcde8702	-0.027163986
205	0xbc781df0	-0.015143856
206	0x3cd91fa5	0.026504347
207	0x3cd33619	0.025782632
208	0xbc03cd0f	-0.008044495
209	0x3c6498de	0.013952462
210	0x3cc42552	0.023943577
211	0xbcde3fae	-0.027129974
212	0x3b87ef94	0.004148433
213	0xbc889f43	-0.016677504
214	0xbb87a2f2	-0.0041392976
215	0x3b56b566	0.003276193
216	0x3ce03c7b	0.02737259
217	0x3cd682e4	0.02618546
218	0xbcae0eac	-0.02124723
219	0xbd085be0	-0.033290744
220	0xbd1290da	-0.035782672
221	0xbcc1b567	-0.02364607
222	0x3b4a16ff	0.003083646
223	0xbd2f4bcd	-0.0427969
224	0xbc59de65	-0.013297652
225	0x3cd12ce3	0.025534099
226	0x3cf29d68	0.029616073
227	0xbd0bbafd	-0.034113873
228	0xbc749670	-0.014928445
229	0xbca0eb97	-0.019643588
230	0xbc8592ab	-0.016305288
231	0x3c961b1a	0.01832347
232	0xbd047bdf	-0.032344695
233	0xbc68a861	-0.014200301
234	0xbd130a34	-0.035898402
235	0xbd2e1283	-0.042498123
236	0xbc9778ba	-0.018490184
237	0x3c0121de	0.00788161
238	0xbc904d61	-0.017615022
239	0x3b179891	0.0023131708
240	0xbd1c11e3	-0.038102996
241	0x3cfe1db3	0.031020021
242	0x3b7d9caf	0.0038698127
243	0x3bbae1ca	0.0057031857
244	0xbd256d24	-0.040387288
245	0xbd2aff89	-0.041747604
246	0xbcb7ae2a	-0.022421915
247	0xbca8f05c	-0.020622425
248	0x3cef5367	0.029214574
249	0xbcf35d23	-0.029707497
250	0x3cb89299	0.02253084
251	0xbccfeaf9	-0.025380598
252	0xbae46e53	-0.0017427899
253	0xbc10c4d7	-0.008835993
254	0x3c8c9de1	0.017165126
255	0xbb5e9c5c	-0.003396771

mlp.0.bias f4 [32]
0	0xbc6b40b3	-0.014358687
1	0x3cb9413f	0.02261412
2	0x3d52c95a	0.051461555
3	0x3cc92a2e	0.024556246
4	0x3cdd00d9	0.026977943
5	0xbc419374	-0.011814941
6	0xbafeea53	-0.0019448496
7	0x3c261db0	0.010138914
8	0x3ce1d8cf	0.027569203
9	0x3c360154	0.011108715
10	0x3c8f4e42	0.01749337
11	0x3c224f49	0.009906598
12	0xbd1f2134	-0.038850024
13	0xbc13251e	-0.008981017
14	0x3d15573b	0.036460143
15	0x3c9312a0	0.017953217
16	0x3d0a92c8	0.033831388
17	0x3b4434f0	0.002993878
18	0xbd02a82c	-0.031898662
19	0x3b176323	0.0023099862
20	0x3cdd1aaa	0.026990253
21	0x3c1e8436	0.009675076
22	0x3af2936c	0.001850707
23	0xbcb150b9	-0.021644937
24	0x3ccb33cd	0.024804974
25	0xbaa29216	-0.0012403156
26	0xbd030dee	-0.031995706
27	0x3bd638ad	0.006537518
28	0xbcbbc5fa	-0.022921551
29	0xbc1b7b03	-0.0094897775
30	0x3c88f8ce	0.016720202
31	0x3cbe63d9	0.02324097

mlp.2.weight f4 [32, 32]
0	0x3cf4da68	0.0298893
1	0xbe1d4342	-0.15357688
2	0xbd583ebc	-0.052794203
3	0x3d88f6fc	0.066877335
4	0x3e068d53	0.13139848
5	0xbded85e0	-0.115978
6	0xbcc0c0df	-0.023529468
7	0x3d2a0ef9	0.041518185
8	0x3da8a25f	0.08234095
9	0xbd9a73e7	-0.07541638
10	0x3d4c87ff	0.049934383
11	0xbd740d20	-0.05958283
12	0x3cac9a4e	0.021069672
13	0x3d9a926d	0.0754746
14	0x3db8ef3f	0.090300076
15	0x3cdd5893	0.027019775
16	0xbc9719bf	-0.018444894
17	0x3cce43fd	0.025178904
18	0x3b897092	0.0041943276
19	0x3d108dd0	0.035291493
20	0xbdcdf8d5	-0.100572266
21	0xbe391ac3	-0.18076615
22	0xbde71441	-0.1128316
23	0xbd574e7c	-0.052565083
24	0x3df8d822	0.12150599
25	0x3e0e8e76	0.13921532
26	0xbe0aba5e	-0.13547656
27	0xbd811b79	-0.06304068
28	0xbe3342f3	-0.17506008
29	0xbe46830b	-0.19385926
30	0xbe33681d	-0.17520185
31	0xbe0f63d6	-0.14002928
32	0xbd5077ed	-0.05089562
33	0x3e1270c0	0.14300823
34	0x3d08f83b	0.033439856
35	0x3e2151ef	0.15753911
36	0xbd50ae17	-0.050947275
37	0x3deb4e6f	0.114895694
38	0x3d60cdc6	0.05488374
39	0x3d48e710	0.049048483
40	0xbd90c110	-0.07068074
41	0xbcd99728	-0.026561335
42	0x3e0e64a5	0.1390558
43	0x3d43547e	0.047688
44	0x3da9594b	0.082689844
45	0x3e01a489	0.12660421
46	0xbe1c5557	-0.1526693
47	0xbe0ebdb1	-0.13939549
48	0x3d770832	0.06031055
49	0xbe3da21e	-0.18518874
50	0xbde1f6e8	-0.11033422
51	0xbdf60253	-0.12012162
52	0x3d6902a1	0.056887273
53	0x3b933472	0.004492336
54	0xbcf0829d	-0.029359156
55	0x3d732bbb	0.059367876
56	0xbde4f18a	-0.111788824
57	0x3e2d2fb6	0.16912732
58	0xbe1f21e9	-0.1554028
59	0x3d3714c8	0.044697553
60	0xbd547954	-0.05187352
61	0xbe251d97	-0.16124569
62	0xbe0cf746	-0.13766202
63	0xbe0b7447	-0.13618575
64	0x3d5c8cf2	0.053845353
65	0xbde85f8f	-0.11346351
66	0x3c6b22f2	0.014351593
67	0xbcd972f3	-0.02654407
68	0x3e0179c5	0.12644108
69	0x3d451b7f	0.048121925
70	0x3e135644	0.14388376
71	0xbe1b2af2	-0.15153101
72	0xbbcd4a8f	-0.0062649916
73	0xbd8c0d7d	-0.0683851
74	0x3d951fa0	0.072814226
75	0x3e20b6c8	0.15694726
76	0x3de27f52	0.11059441
77	0x3e03c0ed	0.12866564
78	0x3cc9a338	0.024613962
79	0xbd8434e6	-0.06455402
80	0x3d6ef687	0.058340576
81	0x3c6c549b	0.014424468
82	0xbda8e8e2	-0.08247544
83	0xbe31c7a7	-0.17361318
84	0xbbc874da	-0.0061174454
85	0xbdcdc3ba	-0.100470975
86	0x3e531073	0.20611744
87	0x3d7adf8f	0.06124836
88	0x3dc98050	0.09838927
89	0xbe0d8df5	-0.13823684
90	0xbd76df7d	-0.06027173
91	0x3cfefcb9	0.031126367
92	0xbda287c8	-0.079360545
93	0xbdb64240	-0.08899355
94	0x3ceda091	0.029007228
95	0x3dd5666f	0.10419928
96	0xbdd61929	-0.10454018
97	0xbe165135	-0.14679416
98	0x3d210fdf	0.039321776
99	0x3cba4ad1	0.022740753
100	0x3dad719e	0.084689364
101	0xbc8884ee	-0.016664948
102	0x3d03fb94	0.032222345
103	0x3e1fdfe0	0.15612745
104	0x3e28cf7d	0.164854
105	0xbcf69ae6	-0.030103158
106	0x3cf301e6	0.029663991
107	0x3e0b69bd	0.13614555
108	0xbdd57c6e	-0.10424124
109	0x3cad54d2	0.02115861
110	0x3d819e5a	0.06329031
111	0x3e0a8bd9	0.1352991
112	0x3c166f6a	0.009181837
113	0x3cf27848	0.02959837
114	0xbb7a0fd9	-0.0038156419
115	0xbdc36e3c	-0.0954251
116	0x3c82f42d	0.015985573
117	0xbd2f79bc	-0.042840704
118	0x3e33d273	0.17560749
119	0x3d4c7ed2	0.049925633
120	0xbdbc2ceb	-0.09188255
121	0xbdf7c7f5	-0.12098686
122	0x3dee2f66	0.11630134
123	0x3d4f4486	0.05060246
124	0x3d4145c6	0.04718568
125	0xbd3bda0d	-0.045862246
126	0x3d31c81d	0.043403734
127	0x3e0fbe74	0.14037496
128	0xbd51c6df	-0.05121505
129	0x3d40f711	0.04711062
130	0xbb99cdf8	-0.004693743
131	0x3e123f62	0.14281991
132	0xbd42bd17	-0.04754361
133	0x3da911d3	0.08255353
134	0xbe09793c	-0.13425153
135	0x3dd8c0b0	0.10583627
136	0x3e197ea7	0.1498972
137	0x3df188f8	0.11793703
138	0xbdd3159d	-0.10306857
139	0x3e354b78	0.1770457
140	0x3b4f92fb	0.00316733
141	0x3e307747	0.17233
142	0x3cd9c81f	0.026584683
143	0xbd883140	-0.06650019
144	0xbe03538d	-0.12824841
145	0xbc769cd3	-0.015052038
146	0x3c3b5721	0.011434347
147	0x3c9401c2	0.018067244
148	0x3ccf431a	0.025300551
149	0xbb8eaac8	-0.004353855
150	0xbd71f121	-0.05906785
151	0xbc94cec2	-0.018164996
152	0x3e11692f	0.1420028
153	0xbe322577	-0.17397104
154	0xbdae385b	-0.08506843
155	0xbd3327f1	-0.043739263
156	0xbdcb9142	-0.09939815
157	0x38ffe563	0.00012202074
158	0x3d99616c	0.07489285
159	0xbdc5ee76	-0.096646234
160	0xbe15f8e0	-0.1464572
161	0x3daae29b	0.08344003
162	0xbdbc1e5c	-0.09185478
163	0xbe0b5ec1	-0.13610364
164	0xbdd5d7b0	-0.1044153
165	0xbd559ed2	-0.052153416
166	0xba24c181	-0.0006284938
167	0x3dbcd665	0.0922058
168	0xbdfc0f04	-0.123075515
169	0x3e15d45f	0.14631794
170	0xbdd3e4e7	-0.10346394
171	0xbcff9aa5	-0.03120167
172	0xbe0e64ad	-0.13905592
173	0x3c843077	0.016136391
174	0x3c39430b	0.011307488
175	0xbc6e10c8	-0.014530368
176	0xbdf3e9d1	-0.11909831
177	0xbe852470	-0.26004362
178	0xbda3a389	-0.07990176
179	0x3e0402fe	0.12891766
180	0x3dade234	0.084904104
181	0x3d5692e4	0.05238618
182	0x3d513828	0.051078945
183	0xbe66ba0b	-0.22531907
184	0xbe1c2374	-0.152479
185	0xbdc9b98e	-0.09849845
186	0x3e1ddd2c	0.15416402
187	0xbe792e77	-0.24334131
188	0xbddd7f82	-0.10815336
189	0x3e26ac8d	0.1627676
190	0xbe436a5a	-0.19083539
191	0xbe32e81a	-0.17471352
192	0xbdd17083	-0.10226538
193	0xbdaa646a	-0.08319934
194	0xbd6dd7bf	-0.05806708
195	0x3c76211d	0.015022543
196	0xbb7d15b5	-0.0038617675
197	0xbe0a1612	-0.13484982
198	0x3d88c3f0	0.06677997
199	0x3e27153d	0.16316696
200	0x3dce4d60	0.10073352
201	0xbe5b7475	-0.21431144
202	0x3c866789	0.016406791
203	0x3de8ba93	0.11363711
204	0xbdee469b	-0.11634561
205	0xbcb79f75	-0.022414902
206	0xbdc2ec94	-0.0951778
207	0x3db1256b	0.08649715
208	0xbda01533	-0.078165434
209	0x3c3736f1	0.011182533
210	0x3ca1b65b	0.019740274
211	0xbe1a41a2	-0.150641
212	0xbe0b1253	-0.13581209
213	0xbda6b6ef	-0.081403606
214	0x3df19c99	0.11797447
215	0xbde2b167	-0.11068993
216	0xbe242baa	-0.16032282
217	0xbc989ddc	-0.01862996
218	0xbb8c8998	-0.0042888634
219	0xbda55aed	-0.08073983
220	0xbe67bd60	-0.22630835
221	0x3d4d6e51	0.050154034
222	0xbd96f7d7	-0.073714904
223	0x3d8f9504	0.07010844
224	0x3e2a438c	0.1662733
225	0xbd8c73d2	-0.068580285
226	0xbd0a18a6	-0.033714913
227	0xbdf7c906	-0.12098889
228	0xbdb5e5f8	-0.08881754
229	0xbb83c9e4	-0.00402187
230	0xbd87131d	-0.065954424
231	0xbe0c0426	-0.13673458
232	0x3e06bd89	0.1315824
233	0x3dcb0f5b	0.09915038
234	0xbdf28b9e	-0.11843036
235	0xbd216d5b	-0.03941093
236	0x3dc981fa	0.09839244
237	0x3e1faef7	0.15594088
238	0x3d840ad3	0.06447377
239	0x3daa8f98	0.083281696
240	0xbd956eb8	-0.072965086
241	0x3d4cf8ea	0.05004207
242	0x3d9ec49e	0.077523455
243	0x3e0fdaea	0.14048353
244	0xbc6d2cc4	-0.014476005
245	0x3e0c7f61	0.13720466
246	0x3d52de68	0.051481634
247	0x3c892625	0.016741822
248	0x3d31b8b9	0.043389056
249	0xbd74cb6e	-0.05976432
250	0xbdcb87ca	-0.09938009
251	0xbdbd4145	-0.09240965
252	0xbe22faa1	-0.1591592
253	0x38f971ee	0.00011894466
254	0x3c74f2b0	0.014950439
255	0x3db1a1ac	0.086734146

mlp.2.bias f4 [32]
0	0xbe53d6f9	-0.20687474
1	0xbe58fb88	-0.21189702
2	0x3e744ac8	0.23856652
3	0x3d6728f5	0.056435544
4	0xbdff9e07	-0.12481313
5	0xbe17adea	-0.14812437
6	0xbdb51aca	-0.08843
7	0x3d99ae5b	0.07503959
8	0xbd2b617b	-0.04184101
9	0x3baf59a3	0.0053512617
10	0x3e8e6056	0.27807873
11	0xbd8d90ab	-0.06912359
12	0xbd73fa12	-0.059564658
13	0xbc349589	-0.01102198
14	0x3d91797e	0.07103251
15	0x3e0c0fb7	0.1367787
16	0x3e0bc90e	0.13650915
17	0x3e5e0d23	0.21684699
18	0x3d1349e9	0.035959158
19	0x3dca717d	0.098849274
20	0x3e109fa7	0.14123403
21	0xbe2ae2ce	-0.16688082
22	0x3e0b4083	0.13598828
23	0xbd977aff	-0.073965065
24	0xbb7136c0	-0.0036806315
25	0xbcd90832	-0.026493166
26	0xbc922e0f	-0.017844228
27	0xbe666225	-0.22498377
28	0xbe17bdd7	-0.14818512
29	0x3ed4cfb6	0.4156472
30	0xbe760b71	-0.24027802
31	0x3d829d66	0.063776776

mlp.4.weight f4 [32, 32]
0	0x3d50da38	0.05098936
1	0x3d65aeab	0.05607478
2	0x3c1ff3f3	0.009762752
3	0x3db0dc2c	0.086357445
4	0xbde637de	-0.112411246
5	0x3e5a358c	0.21309489
6	0x3e5eb9de	0.2175059
7	0x3d815486	0.0631495
8	0x3ded56b6	0.115888044
9	0xbdec1d7e	-0.11529063
10	0x3dd4c7ab	0.10389646
11	0xbe1a0837	-0.15042196
12	0x3d9d4cee	0.07680689
13	0xbe023219	-0.12714423
14	0x3d9b5d4e	0.07586156
15	0xbd5fc4ee	-0.054631166
16	0xbd211c75	-0.03933378
17	0x3d33dd08	0.043911964
18	0x3d9d44cb	0.07679137
19	0x3d4650fa	0.04841707
20	0xbce6aa37	-0.028157337
21	0xbe27803c	-0.16357511
22	0xbd96eba2	-0.07369162
23	0x3d3ee31a	0.0466033
24	0xbd99059f	-0.07471775
25	0xbe07498c	-0.1321165
26	0xbc9aacba	-0.01888119
27	0x3dc9daff	0.09856223
28	0xbdc554ee	-0.0963534
29	0xbda677fd	-0.08128355
30	0xbdd18d74	-0.10232058
31	0x3c065da7	0.008201039
32	0xbe099297	-0.13434826
33	0xbe1d181b	-0.15341227
34	0xbd8e8f30	-0.069609046
35	0xbd678d0e	-0.056531005
36	0xbc7d08a3	-0.015443954
37	0xbe431221	-0.19049884
38	0x3b0a06ad	0.0021061108
39	0x3c5b1c14	0.013373394
40	0x3db1cc7f	0.08681583
41	0xbaef46c7	-0.0018255346
42	0x3e756efd	0.2396812
43	0x3e08e901	0.13370134
44	0x3dfdb56c	0.12388119
45	0xbe317bef	-0.17332433
46	0xbc6df5d4	-0.014523942
47	0x3da7a0cc	0.081849664
48	0x3d913653	0.0709044
49	0x3d6ebdaa	0.058286346
50	0xbcf21f5e	-0.029555973
51	0x3e23e62c	0.16005772
52	0x3d3e6488	0.046482593
53	0xbde90adb	-0.11379024
54	0x3daa6e69	0.0832184
55	0xbdc5d22c	-0.09659228
56	0xbd8ff7e8	-0.07029706
57	0xbd54ed2a	-0.05198399
58	0xbe1efdc7	-0.15526496
59	0x3d9e9600	0.07743454
60	0x3d370485	0.044682045
61	0x3d86514a	0.065584734
62	0x3cd3a3e6	0.025834989
63	0xbd59185a	-0.05300174
64	0x3d45f3a8	0.04832807
65	0xbd57a4f0	-0.05264753
66	0xbd99fd95	-0.0751907
67	0xbddeaf2a	-0.10873254
68	0xbd6cfb6b	-0.05785696
69	0x3d75c1ff	0.059999462
70	0xbdd07c21	-0.10179926
71	0x3de02ef4	0.109464556
72	0xbe10d6cd	-0.1414444
73	0xbd5a2ae1	-0.05326355
74	0xbe66dddb	-0.22545569
75	0xbd91280a	-0.07087715
76	0x3c65d36b	0.014027457
77	0x3d94ba99	0.07262153
78	0x3d17d80c	0.037071273
79	0xbdad535a	-0.08463164
80	0x3dddbec9	0.10827405
81	0xbc253793	-0.010084051
82	0x3d94851c	0.07251951
83	0x3d5d355d	0.05400597
84	0xbe3a7147	-0.18207274
85	0x3cc64575	0.024203042
86	0x3d8a191d	0.06743071
87	0x3931f90c	0.00016972813
88	0x3db75fd9	0.08953828
89	0xbe331de6	-0.17491874
90	0x3d836a8a	0.06416805
91	0x3e0138d0	0.12619328
92	0xbda26cde	-0.07930921
93	0xbb41c314	-0.0029565739
94	0xbe28cd13	-0.1648448
95	0xbd80a7d1	-0.062820084
96	0x3d6457db	0.055747848
97	0xbce79b49	-0.028272288
98	0xbb90b1ae	-0.0044157123
99	0x3dfdee43	0.123989604
100	0xbd8bdc56	-0.06829135
101	0xbe19f930	-0.15036464
102	0xbd3aaa77	-0.045572724
103	0xbdff0b95	-0.12453381
104	0xbdc7f479	-0.09763426
105	0x3c8de941	0.017323138
106	0xbcdbdbc6	-0.026838195
107	0xbc7866a8	-0.015161194
108	0x3c7d281a	0.0154514555
109	0x3e034382	0.12818721
110	0x3d13ee54	0.03611596
111	0x3d43ad3d	0.047772635
112	0x3c547dce	0.012969447
113	0xbd71c6e0	-0.059027553
114	0xbe0d78e0	-0.13815641
115	0xbd8ea56e	-0.06965147
116	0x3c8aa325	0.016923496
117	0x3c6bd796	0.014394661
118	0xbe0108ed	-0.12601061
119	0xbcc29134	-0.023750879
120	0x3c2dba5d	0.0106035145
121	0x3d8fb786	0.07017426
122	0x3c8907b7	0.016727312
123	0x3d0ada44	0.03389956
124	0xbe2a74b8	-0.16646087
125	0xbd179112	-0.037003584
126	0xbd6553fd	-0.0559883
127	0x3d4b9579	0.049703095
128	0x3d98d6ae	0.07462822
129	0x3dc9926d	0.098423816
130	0xbc210df2	-0.009829985
131	0xbdcf79bb	-0.1013064
132	0xbdfb3b86	-0.122672126
133	0xbd18779a	-0.037223436
134	0xbe0331cc	-0.12811965
135	0x3d7b54f8	0.06136033
136	0x3d68dc86	0.056850933
137	0xbd41b4c6	-0.04729154
138	0x3ce227c2	0.027606849
139	0x3db8696e	0.09004484
140	0xbdb4867c	-0.08814713
141	0xbe2d0822	-0.16897634
142	0x3dda3e2f	0.10656392
143	0xbd2a728c	-0.041613147
144	0xbda3cbae	-0.07997833
145	0x3c5592b8	0.013035469
146	0xbcbebfaa	-0.023284752
147	0x3c90484c	0.017612599
148	0x3c114463	0.008866402
149	0x3cc97717	0.02459292
150	0x3de83d3c	0.113398045
151	0x3c321cd2	0.010871129
152	0x3c1b50ff	0.00947976
153	0x3e00c4e2	0.12575105
154	0xbe08fac1	-0.13376905
155	0x3d2f0154	0.042725876
156	0xbe21a3dd	-0.15785165
157	0xbacf81e3	-0.0015831556
158	0x3d67ba15	0.056573946
159	0xbcfdf474	-0.031000353
160	0xbe35c860	-0.17752218
161	0x3beafaa6	0.007170993
162	0x3d3e149f	0.046406385
163	0xbc2dcc03	-0.010607722
164	0x3d9725f2	0.07380284
165	0x3d959520	0.07303834
166	0x3ea14769	0.31499794
167	0x3e217671	0.15767838
168	0x3d85cf40	0.065336704
169	0xbdf3f18b	-0.11911305
170	0xbda7d3c4	-0.08194688
171	0xbd377808	-0.044792205
172	0x3c6d1259	0.014469706
173	0x3ce9132a	0.028451521
174	0x3d5a0c4a	0.053234376
175	0xbd536a28	-0.05161491
176	0xbb91748e	-0.004438943
177	0xbdaa8fe1	-0.08328224
178	0xbd6f28d2	-0.05838854
179	0x3ddf25f3	0.1089591
180	0x3bd793f3	0.006578916
181	0xbc1ec2e8	-0.009690024
182	0x3d7ed857	0.062218037
183	0xbcce2ce9	-0.0251679
184	0xbd99714e	-0.07492314
185	0x3dba5efa	0.091001466
186	0x3e1b3ee3	0.15160708
187	0xbdb675c3	-0.0890918
188	0x3d8ac467	0.06775742
189	0xbd84d88b	-0.06486615
190	0x3d7c21e0	0.061555743
191	0x3d139324	0.036028996
192	0xbe092e2b	-0.13396518
193	0xbe2fefdb	-0.17181341
194	0xbd500d7b	-0.050794106
195	0xbdf3e3ad	-0.1190866
196	0x3d17adf7	0.03703114
197	0x3de36efb	0.11105152
198	0xbdd5ae16	-0.10433595
199	0xbb071fd9	-0.0020618348
200	0xbe204733	-0.1565216
201	0x3d166407	0.036716487
202	0xbdbcdec2	-0.09222175
203	0xbd14e31c	-0.0363494
204	0x3d949fb9	0.07257027
205	0x3d427f60	0.047484756
206	0xbd02d9b3	-0.031945895
207	0x3c9856f8	0.018596157
208	0x3def2dcc	0.11678657
209	0xbd31226c	-0.043245718
210	0xbdd6218b	-0.104556166
211	0x3da4f6b0	0.080548644
212	0x3c6e31ec	0.0145382695
213	0x3d1c236d	0.038119722
214	0x3d3645b5	0.04450007
215	0xbd02c1ae	-0.03192299
216	0x3e1f7457	0.15571724
217	0xbd12d5d9	-0.035848472
218	0xbdf33b4c	-0.11876544
219	0x3dfa59f6	0.1222419
220	0xbd2e44b0	-0.042545974
221	0xba039551	-0.00050195033
222	0xbddfc077	-0.10925382
223	0x3d004bb8	0.03132221
224	0x3d084b02	0.033274658
225	0xbd0c5aa1	-0.034266118
226	0xbd84d644	-0.064861804
227	0x3df204d2	0.11817326
228	0x3db81e67	0.08990174
229	0x3e1c96f8	0.15291965
230	0xbbb30179	-0.005462822
231	0xbd046f05	-0.03233244
232	0x3b7a67fb	0.003820895
233	0x3d522a85	0.05131008
234	0x3dddaa59	0.10823507
235	0xbd7c4dce	-0.061597638
236	0x3d2d16f3	0.042258214
237	0x3de5a8b9	0.11213822
238	0x3c9cdcb2	0.019148204
239	0x3b2885ba	0.0025714473
240	0x3d70ef4d	0.058821965
241	0xbdc65e91	-0.09686006
242	0xbd22d6e0	-0.039755702
243	0xbe0ffa5b	-0.14060347
244	0x3da9471f	0.082655184
245	0xbd9ad7da	-0.07560702
246	0x3c6e1f43	0.014533821
247	0x3cf951bc	0.030434482
248	0xbd89c24f	-0.067265145
249	0xbc9d8d0b	-0.019232294
250	0x3afbeae9	0.0019219789
251	0x3d2550e4	0.040360346
252	0xbd0c07b7	-0.034187045
253	0x3ba7b1ea	0.0051176446
254	0xbda1ea42	-0.07906009
255	0x3ac4dd62	0.001501959

mlp.4.bias f4 [32]
0	0x3c92a2ea	0.01789995
1	0xbe175f65	-0.14782484
2	0xbd92ea17	-0.07173555
3	0xbe111280	-0.14167213
4	0x3d973cdb	0.07384654
5	0xbdad691c	-0.08467314
6	0xbe3eea2b	-0.18644015
7	0x3d95c379	0.07312674
8	0x3e1fa579	0.15590467
9	0xbdc10865	-0.09425429
10	0x3c55b57f	0.01304376
11	0xbe43a59c	-0.19106144
12	0x3dd6b362	0.10483433
13	0xbd2b1307	-0.041766193
14	0xbc951862	-0.018200103
15	0xbd167c0f	-0.036739405
16	0x3e24a3b4	0.16078073
17	0x3d75c756	0.060004555
18	0xbc10d4ff	-0.008839845
19	0x3d4f735f	0.050647136
20	0xbcd96710	-0.026538402
21	0xbbc317f5	-0.0059537836
22	0xbe37b1b3	-0.1793888
23	0x3c710077	0.0147095835
24	0x3d2fdc16	0.0429345
25	0xbcc00725	-0.023440907
26	0xbdcadc19	-0.099052615
27	0xbe3345c6	-0.17507085
28	0xbe369545	-0.1783038
29	0x3e3e61cf	0.18591999
30	0x3e1448ba	0.14480868
31	0x3e04ca82	0.12967876
