trained_models/aamas22-main/best_fov_encoder_vain.pt (torch, 103461 bytes, 6 tensors)

mlp.0.weight f4 [32, 722]
000000 a8 9b c3 3d 09 d5 d4 3d 19 13 49 3e 48 32 52 3e
       0.095511734 0.10392196 0.19636191 0.20526993
000010 dd 04 0b 3e ec 8d e1 3d 25 68 21 3e d8 65 21 3e
       0.13576074 0.110133976 0.15762384 0.15761507
000020 df 8f 46 3d 89 f6 9d 3d 72 8e 7e 3d d7 d8 01 3e
       0.04847705 0.077130385 0.062147565 0.12680374
000030 7e e0 b0 3d 61 4b d5 3d d6 65 f4 3d b9 dd b2 3d
       0.086365685 0.10414768 0.11933486 0.087336965
000040 7a d5 35 3e fe bc 6e 3e bd bf 0c 3e df 8f 0d 3e
       0.17757216 0.23314282 0.13745017 0.13824414
000050 19 eb cb 3d 67 62 b1 3d 21 46 18 3e 1c 8e 24 3d
       0.09956951 0.08661347 0.14870502 0.04017459
000060 37 55 c0 3d 07 16 8d 3d a1 1a c8 3d 82 00 a0 3d
       0.093912534 0.06888967 0.09770704 0.07812597
000070 55 6b 73 3d 4a 0f 46 3d 4d 15 c8 3d 36 e7 1d 3e
       0.05942853 0.048354425 0.09769688 0.15420231
000080 05 15 c8 3d b4 a5 0e 3d 11 a0 4a 3d e4 2b 00 3e
       0.09769634 0.034825996 0.049469057 0.12516743
000090 fe 71 fc 3d 5c be 8c 3d e6 5f 18 3d ed 11 22 3c
       0.1232643 0.06872246 0.03720083 0.009891969
0000a0 f6 c9 94 3d a4 c6 cb 3d 62 41 60 3d 98 08 a5 3c
       0.072650835 0.09949997 0.054749854 0.0201457
0000b0 9a df 70 bc 90 55 97 3d 4d 9d 1d 3d 8e 5d c7 3c
       -0.014701748 0.073893666 0.03848009 0.024336603
0000c0 cc a6 9f 3d 7f b0 b4 3d 57 d5 d9 3d ec 17 b2 3d
       0.07795486 0.088227265 0.106363945 0.08695969
0000d0 16 00 43 3d 72 43 8b 3c b5 fe 4b 3d 0f 1b bc 3c
       0.047607504 0.016999934 0.049803454 0.022962121
0000e0 5b 1c ff 3b 88 b6 78 3b 04 ea e6 3c da c8 3e 3d
       0.0077853627 0.0037950594 0.02818776 0.046578266
0000f0 e7 6e 8e 3d 03 c7 64 3b d2 bd 35 bd 6a fb 45 bb
       0.06954747 0.003490866 -0.04437048 -0.003020967
000100 f4 46 c8 3c 3e b3 83 3c 53 43 61 3d 8e 71 b5 3d
       0.024447896 0.01607668 0.054995846 0.088595495
000110 da 11 85 3d a7 0e bb 3d 74 7e d8 3c ec 82 ee 3b
       0.064975455 0.09133654 0.026427485 0.0072787907
000120 30 df c4 3a 84 dd a5 3d d8 6c 2c bd 6b b4 01 bd
       0.0015020128 0.080988914 -0.04209599 -0.0316662
000130 01 cf 3e 3d 0d fc 72 3d 54 11 e6 3d 8a 2d a8 3d
       0.046584133 0.059322406 0.11233774 0.08211811
000140 30 49 6e 3c 81 62 27 3c 16 d1 5f bc a5 07 c3 bc
       0.014543816 0.010216356 -0.01366069 -0.023807356
000150 79 2e 1f 3c cf 10 46 3c d6 45 24 3d ac 9d bb 3a
       0.00971567 0.012088968 0.040105663 0.0014313958
000160 0f e5 11 3d be 4f fa 3c ef 1a 4d bd 33 a0 bd bd
       0.035618838 0.030555602 -0.050074514 -0.09259071
000170 0f a2 ba bc 13 e4 8b bc 9b c0 7c bd ee 83 98 bc
       -0.022782354 -0.017076528 -0.06170712 -0.018617596
000180 34 0e fc 3c 67 d8 33 3d 4e 9f c9 3d 97 32 5c bd
       0.030768491 0.04390755 0.09844838 -0.053759184
000190 c3 5f 33 bd af b8 07 bd 20 b4 e5 3b 4d eb d7 bc
       -0.043792497 -0.033135112 0.007009998 -0.026357317
0001a0 c4 bc b7 bc e9 2e 02 3d 62 68 cc 3c 54 cd 86 3c
       -0.022428878 0.03178302 0.024952117 0.01645533
0001b0 f8 27 bc 3c 72 8b a0 bd 5e 8e 12 be e9 a4 fc bd
       0.022968277 -0.07839097 -0.14312121 -0.123361416
0001c0 bc 8f 1d bd be af ae bd 5f 1e d7 3b 2c 6b bc bc
       -0.038467154 -0.08529614 0.0065649 -0.023000322
0001d0 e9 95 84 3d 39 fc eb 3c 23 66 a5 ba 0d 66 9e bc
       0.064739056 0.028806793 -0.001261894 -0.019335771
0001e0 e1 ac 3b bd 2e 91 34 3c 24 d4 16 bc f8 67 da bc
       -0.045819167 0.011020942 -0.009205852 -0.026660904
0001f0 71 19 db bc ca 85 63 bd 95 5b 61 bc 9b 3e 6d 39
       -0.02674553 -0.055547513 -0.013754745 0.00022625404
000200 af 3b 63 bd 37 3a 28 be 45 3c 15 be 2e 45 c2 bd
       -0.05547684 -0.16428457 -0.14573772 -0.09485851
000210 50 0c 25 be a8 37 aa 3b 27 8d d7 ba b3 8b 43 3c
       -0.16117978 0.005194623 -0.0016445265 0.011935162
000220 06 0a 74 3d 18 6f cf bc a3 ad 8f bc cd f1 9a bc
       0.05957987 -0.025321528 -0.017538851 -0.018914128
000230 70 b2 0c bd 15 00 52 bd 19 00 86 bc d5 3f 0b bd
       -0.03434986 -0.05126961 -0.016357468 -0.03399642
000240 ef d0 ba bc f7 e8 3e 3b 4b 33 33 bc 54 77 83 bd
       -0.022804705 0.0029130557 -0.010937522 -0.064192444
000250 73 69 8c bd 25 7f 89 bd 65 07 69 bd 16 90 91 bd
       -0.0685605 -0.06713704 -0.056891818 -0.0710756
000260 44 e3 70 3c 64 6e c7 bc 8b 7f 3f 3c de 04 83 3c
       0.014702622 -0.02434463 0.011688123 0.015993532
000270 c0 79 cd 3c d0 db 2d bd 5a 18 65 3c d6 bb 2b bd
       0.025082469 -0.042445958 0.013982857 -0.04192718
000280 32 a1 8c 3b b6 19 15 bd bc b4 36 3c a3 14 e6 3b
       0.004291677 -0.036401473 0.011151489 0.007021503
000290 d8 40 be 3c ae 1a 35 bd d9 5c d1 bc 70 87 b5 bc
       0.02322428 -0.044214897 -0.025556969 -0.022159308
0002a0 28 d4 b7 3a 16 09 1c bc b6 64 02 3d c5 c5 ce 3c
       0.001402502 -0.009523651 0.031834327 0.025240788
0002b0 35 98 17 3c 72 c7 15 3d 5b 84 b1 3d 46 67 59 bd
       0.009252598 0.03656716 0.08667823 -0.053077005
0002c0 b3 4f 0f 3c 2a 27 3a bd 51 89 8f 3c 94 f0 81 bc
       0.008747029 -0.045447506 0.017521532 -0.015861787
0002d0 a1 76 aa 3c 3b fb 18 3c b0 21 db bc df e3 b0 bc
       0.02080852 0.009337242 -0.026749462 -0.021593032
0002e0 29 46 f9 bb 3f 08 a4 bd de 76 d9 bc bc 61 30 3d
       -0.0076072407 -0.08009385 -0.026545938 0.043061957
0002f0 f3 f9 ed 3d 09 6b 1d 3d 9c 7f 7b bc 34 dc d5 bc
       0.1161994 0.038432155 -0.015350249 -0.026105978
000300 d4 af 6e bc f0 97 e0 bc 8b 92 51 bd 93 90 c6 bc
       -0.014568288 -0.0274162 -0.051165145 -0.02423886
000310 16 15 1d bd 6f 12 b7 ba 09 f7 1c bd bd 86 06 bc
       -0.038350187 -0.0013967286 -0.03832153 -0.008210835
000320 06 69 11 bd 0c 6c 3e bd be cc 8c bc 5d 9e 9a 3c
       -0.03550055 -0.04648976 -0.017187472 0.018874342
000330 7a c8 b4 bd b6 53 bc bc 69 c3 01 3d a9 32 0a 3e
       -0.088273 -0.022989135 0.0316805 0.13495888
000340 0e ab 88 3c 30 e6 46 bd cb 3d 9f bd 5f 37 5e bd
       0.016683128 -0.048559368 -0.07775458 -0.054252025
000350 92 f8 41 bd 64 67 46 bd 31 8b 80 bd 99 c3 71 bc
       -0.047356196 -0.048438445 -0.06276549 -0.014756107
000360 a4 9a b3 bc 3d 1e 49 bd 67 07 55 bd dd 49 f0 bc
       -0.021924324 -0.049101103 -0.052009013 -0.029332096
000370 e3 58 6d 3c ad 64 ab bc 2a 12 04 bd 2a 30 9b bd
       0.014486524 -0.02092203 -0.032243885 -0.07577546
000380 12 c9 82 bd 4b 05 87 3d 3b 35 40 3d 0f 91 1b 3d
       -0.06386007 0.065928064 0.046925765 0.037980136
000390 85 57 34 bd 11 38 9d bd aa e0 3a bd 59 d2 e8 bc
       -0.044028778 -0.076767094 -0.045624413 -0.028420614
0003a0 f5 85 b1 bd 4a a4 32 bd d7 c7 0b bd 02 d4 3e bc
       -0.086681284 -0.04361371 -0.03412613 -0.011647226
0003b0 8c 90 44 bd 0b 3c 96 3b 51 4e b5 3c 46 bc 45 3b
       -0.047989413 0.0045847944 0.02213207 0.0030172034
0003c0 0f 41 7e bc c9 dd c9 bc 6f de 3f bd 4a ee 2d bd
       -0.015518441 -0.024641888 -0.04684299 -0.04246358
0003d0 3f d4 63 3d e2 b6 20 3d 86 13 a5 3d 27 d2 bf bd
       0.055622336 0.03923691 0.080603644 -0.09366255
0003e0 73 01 8c bd 5a c0 20 bb f0 f0 47 bc 47 ab de bc
       -0.06836214 -0.0024528713 -0.01220344 -0.02718128
0003f0 e6 4f 74 bd e8 d9 3d bd 4f ec 57 bd d1 d4 b0 bc
       -0.05964651 -0.04635039 -0.052715596 -0.021585854

mlp.0.bias f4 [32]
000000 9a d1 e0 bc 49 9d c5 3c 75 05 d6 bc 02 6a 89 bc
       -0.027443696 0.024122851 -0.026125649 -0.016774181
000010 a8 d9 92 3c d0 7b d8 3c c0 2b af 3c e8 72 16 bd
       0.017926052 0.026426226 0.021383166 -0.036730677
000020 cf 4c fa 3c b1 97 1b 3d 78 7d 37 3c 79 b1 15 bd
       0.030554203 0.03798646 0.011199348 -0.036546204
000030 a5 c7 31 bb 8b 4e f7 3b 3d 5d b1 bc 1b 90 db 3c
       -0.0027127054 0.007547205 -0.021650905 0.026802113
000040 de 26 08 bc 67 40 be bb 95 8d 81 3c de 75 a9 3c
       -0.008310048 -0.005806017 0.015814582 0.020686086
000050 27 5c fc 39 b5 23 78 bb cf 7f 2a bc d8 20 ba bc
       0.00048133844 -0.003786308 -0.0104064485 -0.02272074
000060 65 a5 0f bd de 94 c6 3b 90 14 00 bd 3b 8e eb bc
       -0.035069842 0.006060227 -0.03126961 -0.028754344
000070 a1 62 90 3b 42 e7 7a 3c 06 0c 00 bc e9 1d 23 bd
       0.0044062887 0.015313925 -0.007815367 -0.039823446

mlp.2.weight f4 [32, 32]
000000 24 c1 20 be d9 4a 20 3c a9 88 17 be 70 2b 14 3e
       -0.15698677 0.00978347 -0.14798225 0.14469695
000010 c7 bb 8e bc 73 42 1f 3c 61 35 21 3d 23 87 74 3d
       -0.017423524 0.009720433 0.039357547 0.05969919
000020 c4 ba 34 be e3 c1 ae bd d9 cb 24 be 3c 6c 30 bd
       -0.1764937 -0.08533075 -0.16093387 -0.04307197
000030 1a 18 a1 bc a8 ad 36 3d 2e 74 a5 bc 7d 88 8a bd
       -0.019664813 0.044599205 -0.020197 -0.06764314
000040 14 1b 9c 3d fe 99 2e be c6 3e 75 bd c5 9e cb bc
       0.07622352 -0.17050931 -0.05987432 -0.02485598
000050 ff 1f 23 3e 86 9a 05 3e 86 25 1b be ca 19 82 3d
       0.15930174 0.13047227 -0.15151033 0.06352575
000060 eb 9e 4b 3d 53 19 ce bd c9 36 18 be 97 12 fd 3d
       0.049712103 -0.10063424 -0.14864649 0.12357061
000070 53 71 ab 3c 5e ed 74 bc 7d c1 20 be 60 e2 a0 bc
       0.02092806 -0.014949171 -0.1569881 -0.019639194
000080 14 31 69 3c 39 4b 9a be 46 c4 07 be 34 2d a0 bd
       0.014232893 -0.30135515 -0.13258466 -0.07821122
000090 33 fe 13 be 32 5d f4 bd f8 7c f3 3d 2f af fa bd
       -0.14452438 -0.11931838 0.1188907 -0.12240445
0000a0 10 1a a9 3d 34 03 9e 3c d4 47 95 3d 37 56 c7 3c
       0.08256924 0.019288637 0.07289091 0.024333103
0000b0 86 5c 12 be 33 d0 25 3c 3d 7b 1e bc 4e cc 2e 3e
       -0.14293107 0.010120439 -0.009672937 0.17070124
0000c0 d2 45 19 be 06 04 98 bd a2 b8 f7 3d 84 a8 89 3c
       -0.1496804 -0.074226424 0.12095763 0.016803987
0000d0 8f 9a 39 be 53 3e 1e be 82 5b c5 3d 29 ed 2d 3e
       -0.18125366 -0.15453462 0.09636594 0.16985
0000e0 c6 53 0f be 56 e2 ee bd 6f 32 a4 bd cb d7 11 3d
       -0.13996801 -0.11664264 -0.08017432 0.035606187
0000f0 82 37 81 3d 19 49 72 bc 99 8f 32 be 1d b0 1c 3b
       0.063094154 -0.014787936 -0.1743759 0.0023908683
000100 47 70 f7 3b e4 74 69 3c 17 65 cf bd 7b 31 7b 3d
       0.0075512263 0.01424906 -0.10126703 0.061326485
000110 5e 21 f2 bb 7f e6 fd 3c 80 31 a2 3d 4c 0b 20 be
       -0.0073892316 0.030993698 0.079195976 -0.1562931
000120 8b c4 a2 3d 15 85 58 be d7 2a c0 3d fb 88 cb bd
       0.07947644 -0.21144517 0.09383171 -0.09938236
000130 b0 4f ed 3d e5 c7 ab 3d 27 0d 11 3e 72 aa 80 3d
       0.11587465 0.08387736 0.14165173 0.0628251
000140 1b 80 82 3d be fc e2 3c 08 64 01 3e 93 93 41 3d
       0.063720904 0.027708407 0.12635815 0.04725988
000150 e1 0e d1 bc cd 9e b3 bd e7 c1 e1 3d 25 f9 2d 3d
       -0.02551979 -0.08770523 0.11023312 0.04247393
000160 b4 75 f7 bd 2b 6f 9e bb a6 93 c5 bd 8e 3a b6 bd
       -0.12082997 -0.0048350296 -0.09647302 -0.08897887
000170 19 be e5 3d 44 1c 61 3d fd ba 3b bd fd a1 f7 bc
       0.11217899 0.054958597 -0.045832623 -0.03022861
000180 7a fd eb bd 5b 57 11 3e 3b 07 2d be 2e 2d 1a be
       -0.11522956 0.1419348 -0.1689729 -0.15056297
000190 7f 3e 02 bd 27 ff c4 3d b0 4b 8e 3d 4f 2e 80 bc
       -0.031797882 0.09618979 0.0694803 -0.015647082
0001a0 7a ed 02 bd 63 c6 70 bc 21 f1 54 bd 3b 79 0f 3e
       -0.031964757 -0.014695737 -0.05198777 0.1401109
0001b0 4d 81 e9 3d 86 a8 89 bd 8d 5b 10 3e 9b 69 45 bc
       0.11401615 -0.067215964 0.14097424 -0.012049104
0001c0 6c bd 93 3c 29 e7 13 3e fd f9 23 bd e9 b1 91 3c
       0.01803466 0.1444365 -0.04003333 0.01778503
0001d0 33 a9 4a bd dd b3 22 bd 7e 78 ec bd 28 74 1e be
       -0.049477767 -0.039722312 -0.115464196 -0.15473998
0001e0 be f2 5a bd e8 a4 8f bd 82 9a c6 bd c3 5e ee bd
       -0.053454153 -0.07013875 -0.09697439 -0.11639168
0001f0 41 41 6d 3d ac b9 50 bd a3 c9 6b 3d 73 d6 f8 be
       0.05792356 -0.05095832 0.057565343 -0.48601112
000200 33 7d 55 be 46 03 10 3e 48 fe 03 be ea 1d 19 be
       -0.20848541 0.14063749 -0.1288997 -0.14952818
000210 92 22 59 be a3 3a 89 bd ec ac fd bc ad 92 0d be
       -0.21204594 -0.06700637 -0.030966245 -0.13825484
000220 26 eb 5c ba 05 18 23 bd d8 de be bc f7 4b 17 be
       -0.0008427374 -0.03981783 -0.02329962 -0.14775072
000230 71 3f 17 3e 43 de 4c 3d 25 72 fa 3d c6 10 0b be
       0.14770295 0.050016653 0.122288026 -0.13580617
000240 f9 74 22 3e df 4d 5c 3d e2 38 38 be 68 38 8a bd
       0.15864934 0.0537852 -0.17990449 -0.0674904
000250 d0 da 03 be c0 37 63 3d de c1 b2 3d 28 92 71 3d
       -0.12876439 0.05547309 0.087283835 0.058977276
000260 b7 2f f4 3d ca ee 07 be 8a 85 0e 3e 8b 6d d4 bd
       0.119231634 -0.13274685 0.13918129 -0.10372456
000270 67 59 07 be 3e 35 cc 3c 7d ec c8 3d 55 a9 a4 bc
       -0.13217698 0.024927732 0.098107316 -0.020100275
000280 68 48 ea be 16 0f c1 3d 11 00 a0 bb f1 3c 3f bd
       -0.45758367 0.094267055 -0.0048828204 -0.046688978
000290 85 9b 1e 3e 45 5b 1c be 09 a0 70 3d 4b d7 17 3e
       0.15489013 -0.15269192 0.05874637 0.14828221
0002a0 bd 41 d3 bd 20 7d 8b bd cc c9 26 be 68 85 d2 bd
       -0.10315273 -0.06810975 -0.16287917 -0.102793515
0002b0 b8 a9 c4 bc 63 9d 47 3d 9e 41 fa 3d ad c3 22 3e
       -0.02400671 0.04873408 0.12219547 0.15894957
0002c0 17 67 9a bd ea c7 2a bd be f0 bf 3b 62 f4 10 bd
       -0.07539194 -0.04169456 0.005857556 -0.03538931
0002d0 b3 b6 1d 3e cd 5a 60 ba d2 bc 39 3c 58 c2 ae 3c
       0.15401725 -0.0008558452 0.011336522 0.021332905
0002e0 0c 5e 78 bd 28 d9 86 bd 21 18 f4 3d e1 43 22 3e
       -0.060636565 -0.06584388 0.11918665 0.15846206
0002f0 05 b6 10 3b 65 91 0e 3e 0c 61 2b be 64 4f 53 be
       0.0022081148 0.13922651 -0.16736239 -0.20635754
000300 3a bc 22 bd a5 72 dd 3c 12 2c f8 bd c0 c8 09 be
       -0.039730288 0.027032206 -0.12117781 -0.13455486
000310 bc b2 84 be 61 d7 d4 bb 2d cf 29 be 0a ab 8e 3d
       -0.25917614 -0.0064954017 -0.16582938 0.06966217
000320 94 ed 3c be 1f 43 32 bd c0 8b a2 3d e7 65 15 be
       -0.18450004 -0.043521043 0.079368114 -0.14589654
000330 27 60 0c 3e a2 a1 2d 3e ab e4 1e 3e a9 12 92 3d
       0.13708554 0.1695619 0.15516917 0.071324654
000340 2a 0a 5d 3d 88 3b 67 3d ab c7 35 3e bf 8a 41 be
       0.05396477 0.056453258 0.17751949 -0.18900584
000350 8d 84 ca bd f3 29 86 bd 97 d4 29 3e d0 88 ab bd
       -0.09888563 -0.0655097 0.16585003 -0.08375704
000360 4c 50 e7 3d 3f 8b 0e 3e 9a 36 9a 3c 67 8d 30 bd
       0.11294612 0.13920306 0.018824864 -0.0431036
000370 41 81 99 3d 30 3a bf bd d5 0f 88 3d 19 21 d2 3b
       0.07495356 -0.0933727 0.06643645 0.006412637
000380 9d 9e b6 3d 2a 54 1d be 06 eb 22 be 61 cd 33 be
       0.08916972 -0.15364137 -0.15909967 -0.17558815
000390 d4 51 2c be 0d a4 e7 3d 15 6c 1b be 60 ed 18 be
       -0.1682809 0.11310587 -0.15177949 -0.14934301
0003a0 e9 3f e2 bd a0 9b 85 be 72 08 31 be cd 77 94 bc
       -0.11047346 -0.26095295 -0.17288378 -0.018123532
0003b0 26 a7 a4 3b bb eb b5 3c 79 50 00 be 94 22 a8 3d
       0.0050248085 0.022207132 -0.12530698 0.0820972
0003c0 1f 5f e9 bd 69 1e cf 3c fa b0 ec 3d 7c 66 1f be
       -0.11395096 0.025283055 0.11557193 -0.15566438
0003d0 2f 37 20 be d9 49 45 3b 69 c1 0b be 4a 3e 2a 3e
       -0.15646051 0.003010383 -0.13647999 0.16625324
0003e0 e0 06 96 bd 9f 54 34 be fd a6 21 be 0d 0b 04 3d
       -0.0732553 -0.17610405 -0.15786357 0.0322371
0003f0 01 3a 0d be 14 eb 00 be b7 46 0a 3e d0 91 4f be
       -0.13791658 -0.12589675 0.13503538 -0.20270467

mlp.2.bias f4 [32]
000000 19 93 38 be 31 ca 1d 3e eb 3f 05 bd d5 45 68 be
       -0.18024863 0.15409161 -0.03253166 -0.22682889
000010 52 8a c3 bd 4b b7 07 3e c3 69 2c 3e 2f a4 78 3c
       -0.09547867 0.13253514 0.1683722 0.015175863
000020 13 ba 12 3d 6e 0e 51 bd e0 3c 14 be da be 8b bd
       0.035821985 -0.05103915 -0.14476347 -0.068235114
000030 38 68 23 be 92 8c 35 bc a8 d9 e0 bb 55 19 7d be
       -0.15957725 -0.011080878 -0.006861884 -0.24716695
000040 26 0e 09 3c 83 b0 05 3e 50 07 39 bb 67 eb ee bd
       0.00836519 0.13055615 -0.0028233118 -0.11665993
000050 c5 2c 4f be 19 74 99 bb dc 94 89 be da 49 3d be
       -0.20231922 -0.0046830294 -0.26871383 -0.18485203
000060 12 f6 3f be c3 1d c5 bd 1c fc 31 3e 07 e3 0c be
       -0.18746212 -0.09624817 0.17381328 -0.13758479
000070 96 7a 23 3e d7 43 6a be 29 a4 59 bd be 8e 27 bd
       0.15964732 -0.22877441 -0.05313507 -0.040907614

mlp.4.weight f4 [32, 32]
000000 35 a2 11 bd 34 25 4c bd 93 e6 08 3e 7a cb ed bc
       -0.035555083 -0.049840167 0.13369207 -0.02902769
000010 97 fb ab 3d 01 e6 a1 3b 33 16 d6 bd b7 87 b9 be
       0.08397596 0.0049407487 -0.10453453 -0.36236355
000020 98 0c 48 3d f3 ed 07 3d b5 e7 45 be 20 bb 6f bc
       0.048840135 0.03318591 -0.1932667 -0.014632016
000030 37 60 73 3c 64 6f b5 bd 8d f8 7d bb 8e ca f2 3d
       0.014854482 -0.08859137 -0.0038752884 0.118550405
000040 e4 28 26 be 41 2a 00 be ad 4f b0 bd 67 c0 c6 3d
       -0.16226536 -0.12516119 -0.08608947 0.097046666
000050 8d 9f b1 3d 40 1a 38 3e e7 de 4c 3e ad 73 a3 bd
       0.0867301 0.17978764 0.20006905 -0.07981048
000060 84 9f a1 bc c1 2f fe bd 9c 93 08 3d 55 af aa bd
       -0.019729383 -0.12411452 0.033343896 -0.08334223
000070 01 d4 b8 bd 9e 24 37 3d 3d 10 82 3c 4c e8 ca 3a
       -0.090248115 0.044712655 0.015876884 0.0015480607
000080 50 82 b8 3c dc eb 1a be 07 e3 90 3d 3d d4 93 3c
       0.022523075 -0.15129036 0.07074552 0.018045539
000090 74 f2 15 3e d6 31 0e be 38 45 14 be 86 ff 96 3d
       0.1464327 -0.13886198 -0.1447953 0.07372956
0000a0 c4 2b 98 bd aa b0 d6 3d 27 66 4f be 76 99 2c be
       -0.07430223 0.10482915 -0.20253812 -0.16855416
0000b0 bb 5f 8c 3d b2 bd 85 3d 00 96 bc 3c 75 0f 5d 3d
       0.06854197 0.06530322 0.023020744 0.05396982
0000c0 26 61 82 3d 62 5f a4 bc 98 c2 dd 3d c2 e8 77 3e
       0.06366186 -0.020065013 0.108281314 0.24209884
0000d0 0d 25 64 3e f6 6c 26 bd da 4d 38 3e f3 b6 ef 3c
       0.22279759 -0.040631257 0.17998448 0.029262042
0000e0 3e 5a 02 3d f1 39 3f 3d d8 d4 fe bb f2 33 79 bd
       0.031824343 0.046686117 -0.007776838 -0.060840555
0000f0 d6 3d ba 3d 8f 1d 22 3d 20 3a 2b 3d 46 94 cc 3d
       0.090938255 0.03957897 0.04180348 0.099892184
000100 34 2b 89 3d 1c cd 82 bd a5 a2 7b 3d 93 37 db bc
       0.066976935 -0.06386778 0.061434407 -0.026759898
000110 66 6e 66 3e 23 96 d5 3c b5 c0 13 3e f7 48 f5 3c
       0.22503051 0.026072567 0.1442898 0.029942019
000120 7f 19 ea 3d 91 63 a1 3c 20 c8 37 be f3 26 ef 3d
       0.11430644 0.019700797 -0.17947435 0.11677351
000130 b1 3c 1a 3e c7 6d 64 3d 92 80 52 3e 97 f3 d6 bd
       0.15062214 0.055768754 0.20556858 -0.1049568
000140 34 d5 08 bd d6 e6 b8 3d 28 27 51 3d 12 fa 77 be
       -0.03340645 0.090284035 0.051062733 -0.24216488
000150 6f ac 82 bd d2 3b c7 ba d8 4c 0d 3e b7 f0 01 3e
       -0.06380545 -0.0015200323 0.13798845 0.12689482
000160 7f 08 b4 bd c1 e6 b6 3d 8d 88 8f 3e 08 13 05 3b
       -0.08790683 0.089307316 0.28033867 0.0020305533
000170 be a3 85 bd 3b 46 77 3e f4 0f 84 3c 58 47 e3 bd
       -0.06525372 0.24147885 0.016120888 -0.11097592
000180 2a 08 88 bd b3 30 41 bd f8 ab 08 3e 13 f5 26 3e
       -0.06642182 -0.047165584 0.13346851 0.16304426
000190 70 f5 13 3e 52 c4 1a bb a9 82 e7 bd 47 67 4e 3e
       0.14449096 -0.0023615551 -0.11304218 0.20156585
0001a0 7e 72 db 3d d4 46 03 be 04 d1 37 bc ba f1 f0 3d
       0.10715197 -0.12819988 -0.011219267 0.11764856
0001b0 a0 1f 79 bd 06 4c c4 bc a8 e9 d3 bd 46 91 2d bd
       -0.060821176 -0.023962032 -0.10347301 -0.04237487
0001c0 61 93 f9 3c bd f9 1f be c7 01 ab bc f4 8e 19 3e
       0.030465784 -0.15622611 -0.020874871 0.14995939
0001d0 37 89 42 be 0d be e4 3c e6 74 01 be 77 80 90 3d
       -0.18997656 0.027922655 -0.1264225 0.07055753
0001e0 44 cf c5 3c 4d 45 2e bd cf 98 4f 3d b6 e4 90 bd
       0.024146684 -0.04254656 0.05068284 -0.07074873
0001f0 bb 19 bc bd d7 aa a7 3d 77 a7 c7 bd 57 5e 02 b9
       -0.09184595 0.08186882 -0.09748738 -0.0001243291
000200 47 bd 2b 3e 04 6f 34 3e fa c8 21 be 24 3e 9f bc
       0.16771422 0.17620474 -0.15799323 -0.01943881
000210 cb fe 6c bd 06 1e f3 3d 13 06 c9 3d 81 78 ad 3d
       -0.057860177 0.11870961 0.09815612 0.0847025
000220 7a 52 60 be e1 6b 15 be 1e 8d 2a be ae 97 b8 3d
       -0.21906462 -0.14591934 -0.16655394 0.090133056
000230 80 45 03 be 72 d4 26 bd e0 42 74 bd 57 f2 fc bd
       -0.12819481 -0.040729947 -0.05963409 -0.1235091
000240 a9 85 78 bd 0c a7 4b 3d 2a b7 04 bb fe 81 d7 bd
       -0.060674343 0.049719855 -0.0020250776 -0.10522841
000250 7c da 8c bd 61 24 21 3e 7a 26 bb 3d 7b 8e 83 bd
       -0.0687761 0.15736534 0.09138198 -0.0642366
000260 41 68 8a 3c 66 0f ca 3c ab be 20 be c8 1b 0a bd
       0.016895415 0.024665546 -0.15697734 -0.0337179
000270 a8 79 d4 3d 2e f0 13 bd 7a 23 31 3e 27 1d 0d 3e
       0.103747666 -0.036117725 0.1729869 0.13780652
000280 42 94 e2 bd d3 7f a1 3c 14 5a 7f 3d c0 32 0e bd
       -0.11063434 0.019714272 0.062341765 -0.034716368
000290 cd e4 a0 3d 6b 86 60 bd 3f b8 91 3d d5 be 09 3e
       0.0785614 -0.05481569 0.0711522 0.13451703
0002a0 9b 8b 2f be fd 24 38 3e 8c 6b 9e 3e b4 6e 00 bc
       -0.17143099 0.1798286 0.30941427 -0.007838894
0002b0 ca 6f 42 3d 03 4d c0 bd fa 07 87 bd 5b f8 07 be
       0.04746989 -0.09389689 -0.06593318 -0.13278334
0002c0 b8 da 89 3d e0 c0 0a 3e 00 a4 fb bd 43 91 5c 3d
       0.067311704 0.13550138 -0.1228714 0.05384947
0002d0 a0 5d 48 3e 17 6d 0b be e7 38 1c be 50 ec 4b bc
       0.19566965 -0.13615833 -0.15256082 -0.012446478
0002e0 c5 88 b8 3b 6e a8 7c 3d 9f 84 18 3e c6 1b 22 be
       0.0056315386 0.061684065 0.14894341 -0.15830907
0002f0 fb 06 24 3e ad ff e2 bd 6f 82 2f 3e 95 d5 8f bd
       0.16018288 -0.110839225 0.171396 -0.070231594
000300 97 c8 6b bd 1a 3b 74 bd dc 4a 96 3d 84 bd 03 bd
       -0.057564344 -0.059626676 0.07338497 -0.032163158
000310 a0 7b af bd 4d 25 d2 3d 37 c4 e6 bb c6 d4 66 bd
       -0.085685015 0.10261021 -0.0070424336 -0.05635526
000320 2d 46 03 bd 77 39 02 be ff 82 f9 bc 38 77 ea bd
       -0.032049347 -0.12717234 -0.030457972 -0.114485204
000330 a2 c2 bc 3c ae f0 ec bd b9 db fb 3d dd 9d 30 3e
       0.023042027 -0.115693435 0.12297768 0.1724772
000340 de 74 e2 bd d5 80 2e be 51 78 df 3d dc 4f a7 be
       -0.11057447 -0.17041333 0.109116204 -0.32678115
000350 7d 86 ec 3b 99 d1 bc 3d 84 e5 fa bd f6 05 6f bc
       0.0072181807 0.09219665 -0.12250808 -0.014588824
000360 24 bc 27 bd 65 a9 1e be 4a dc 7b 3e 78 76 0a 3e
       -0.04095091 -0.15494306 0.24595752 0.13521755
000370 99 c8 8a bd 7c 10 38 be 67 cc 07 be 6b 7b 53 bd
       -0.06776542 -0.17975038 -0.13261567 -0.051631372
000380 91 b5 01 3d 43 d7 c0 bd 5d 0f be bd 3e 61 dd bd
       0.031667296 -0.09416058 -0.09280274 -0.10809563
000390 cd 6a 1c 3d 78 6f 49 3e 5b 2d 8c 3e 6b c2 c2 bd
       0.03818779 0.19671428 0.27378353 -0.095097385
0003a0 75 68 d0 3d 9d a0 17 3e 1b a4 cf 3d 23 e9 76 ba
       0.101761736 0.14807363 0.101387225 -0.00094188954
0003b0 2b ba 3e 3d d2 df c3 3d 3a d2 f2 bd c3 7f 33 3d
       0.046564262 0.09564175 -0.11856504 0.043823015
0003c0 fb 1e 87 3d f8 56 a3 bd c0 0c be 3e 82 5e 60 3e
       0.06597706 -0.07975572 0.37119102 0.21911052
0003d0 d2 ac 34 be c6 6b 0e 3e d7 0e 8a bd 77 e4 19 be
       -0.1764405 0.139083 -0.06741112 -0.15028559
0003e0 6f e7 24 3e 4d 39 15 3e 41 81 00 be f3 71 20 3e
       0.1610391 0.1457264 -0.12549306 0.15668468
0003f0 8c db 2a bd 5e 62 3c bd 77 4e 1e 3e 97 c1 05 3d
       -0.041713282 -0.045992248 0.1545962 0.032655325

mlp.4.bias f4 [32]
000000 e9 12 38 3d 57 fa 23 3d e2 7a 5e bc 81 86 b9 bb
       0.04493991 0.040033665 -0.013579102 -0.005661786
000010 4b 9a 1d bd 85 4c 91 bc af e5 ac 3d 21 8c 85 bb
       -0.038477223 -0.017736683 0.08442246 -0.0040755426
000020 c0 75 6a 3d 2d 26 36 bd 6b f8 38 3c d4 62 a1 bd
       0.0572412 -0.04447 0.011289696 -0.07880178
000030 a8 2c 94 bd 60 0f f1 3c 72 e1 d9 3c 07 25 3e bd
       -0.0723508 0.029426277 0.026596759 -0.04642203
000040 c2 ca 93 3c 52 75 e1 3c 1a b8 b3 bc e5 14 f8 3d
       0.018041018 0.027521763 -0.021938372 0.1211336
000050 cf 82 ea ba d3 eb ff 3c d8 f3 bd bd ea a7 d9 bc
       -0.0017891767 0.03124038 -0.09275025 -0.026569325
000060 de 2d 46 bd 39 44 bf bb 56 c0 36 3d 58 f2 f3 3c
       -0.048383586 -0.00583699 0.04461702 0.029778644
000070 11 0d 09 3d 5d 5c d2 3c 3a ba 45 be c2 8b d6 bd
       0.033459727 0.025678808 -0.19309321 -0.104758754
