trained_models/aamas22-main/final_agent_encoder.pt (torch, 17829 bytes, 6 tensors)

mlp.0.weight f4 [32, 43]
0	0x3e4cd7ba	0.20004168
1	0xbb63ccfb	-0.003475963
2	0x3eeccc90	0.4624982
3	0x3dbe13be	0.09281109
4	0x3d097d29	0.033566628
5	0x3cba51c1	0.022744061
6	0xbd9a7e1a	-0.07543583
7	0xbbf3c774	-0.007439548
8	0xbdc018fe	-0.09379767
9	0xbf4bc41f	-0.7959613
10	0xbe5923da	-0.21205083
11	0xbc919bf2	-0.017774556
12	0xbc65b971	-0.014021263
13	0x3c95fb9c	0.018308453
14	0xbdebbffb	-0.11511227
15	0x3e252c69	0.16130222
16	0x3d807a6b	0.062733494
17	0x3cd42bde	0.025899824
18	0xbdb7d0cf	-0.08975374
19	0x3d7dd928	0.061974674
20	0xbe1bbb85	-0.15208252
21	0xbd983655	-0.07432238
22	0x3d572d0a	0.052533187
23	0x3e0542f6	0.13013825
24	0xb9cdc169	-0.0003924475
25	0x3e11ec2a	0.14250246
26	0xbd424f62	-0.047438987
27	0x3cfdd3d6	0.0309848
28	0x3d06ec29	0.032940064
29	0xbb4081bd	-0.0029374205
30	0xbd0c8916	-0.034310423
31	0x3d5f9c83	0.05459262
32	0x3d81a54d	0.06330357
33	0x3db2e809	0.087356634
34	0x3c00ab0d	0.007853282
35	0x3dbfbcfe	0.09362219
36	0x3cdf60e2	0.027267877
37	0x3a879176	0.0010343033
38	0x3d35d1ff	0.04438972
39	0x3e058c15	0.13041718
40	0xbd1781ff	-0.03698921
41	0xbddf4fde	-0.10903905
42	0xbd41175f	-0.04714143
43	0x3e868ccc	0.26279294
44	0x3d104d92	0.035230227
45	0xbf78ef93	-0.9724056
46	0xbdbe6a87	-0.09297662
47	0x3d6cc48c	0.05780463
48	0xbc1b9564	-0.009496067
49	0x3c4b1f3a	0.012397582
50	0xbd9cb6b3	-0.076520346
51	0xbe9ffd5b	-0.31247982
52	0x3ee7ce01	0.45274356
53	0xbe433287	-0.19062243
54	0x3e48a2e8	0.19593394
55	0x3cae4753	0.021274244
56	0x3e43894b	0.19095342
57	0x3e13ab00	0.144207
58	0xbd951bf5	-0.07280723
59	0xbe06210e	-0.13098547
60	0x3c2e6d64	0.010646198
61	0xbd95a202	-0.07306291
62	0xbd6cc748	-0.057807237
63	0x3e4cdc31	0.20005871
64	0xbc315581	-0.010823608
65	0xbe1b6d3d	-0.1517839
66	0x3bc88aca	0.0061200606
67	0xbd975688	-0.073895514
68	0xbe2a4cb3	-0.16630821
69	0x3ddaeb0b	0.10689362
70	0xbc3245e7	-0.010880924
71	0xbd897f61	-0.06713749
72	0x3e3f1d23	0.18663459
73	0xbe0c9e2d	-0.13732214
74	0xbc523c1b	-0.012831713
75	0xbdbc72d3	-0.092015885
76	0x3c34ea2b	0.011042158
77	0x3bc8056e	0.006104163
78	0x3c9b4721	0.018954815
79	0x3de443d6	0.11145751
80	0xbe18d912	-0.14926556
81	0xbe4e682b	-0.20156924
82	0xbdb0ca22	-0.08632304
83	0x3e0d2fd0	0.1378777
84	0x3e42f20c	0.19037646
85	0x3e607a2a	0.21921602
86	0xbe1ae7e1	-0.15127517
87	0xbdd5c45f	-0.104378454
88	0xbfb8f6ac	-1.4450278
89	0x3db10b84	0.086447746
90	0x3d3cb29d	0.046068776
91	0x3ca75b7f	0.02042937
92	0x3d808d19	0.06276912
93	0x3cd31e5f	0.025771318
94	0xbd8753d9	-0.066077895
95	0x3f67bd11	0.9052287
96	0xbe0e0440	-0.13868809
97	0xbbef6423	-0.0073056384
98	0xbd7cf5da	-0.0617579
99	0xbd89dc9a	-0.067315295
100	0x3d7faba6	0.062419556
101	0xbd88a49c	-0.06672022
102	0x3d1480fb	0.036255818
103	0xbd9bf329	-0.076147385
104	0x3c55c331	0.013047026
105	0x3da38824	0.07984951
106	0xbd83e0bf	-0.06439351
107	0x3d8c59df	0.06853079
108	0x3a9ac104	0.0011806791
109	0xbdc92621	-0.09821726
110	0x3d4881b6	0.048951827
111	0xbe2fab42	-0.17155173
112	0x3d4aa4b2	0.049473472
113	0xbd654a33	-0.055978965
114	0x3d858718	0.06519908
115	0x3d25669d	0.040381063
116	0xbdf466da	-0.1193368
117	0x3e00051e	0.12501952
118	0xbce49675	-0.027903775
119	0xbd5dbb95	-0.05413397
120	0xbc8b5907	-0.017010225
121	0x3dc1cead	0.094632484
122	0xbdd7b4e2	-0.105325475
123	0xbd9b456a	-0.07581599
124	0xbdf51aa0	-0.11967969
125	0xbd0e5fe8	-0.034759432
126	0xbd7cc978	-0.061715573
127	0x3c9131f9	0.017724024
128	0x3dcfa9b5	0.10139791
129	0xbe96b1e4	-0.29432595
130	0x3e11f226	0.14252529
131	0xbf1f9a75	-0.6234506
132	0x3e05f393	0.13081197
133	0xbdf85ee7	-0.12127476
134	0x3d7a054c	0.061040208
135	0x3c64f26c	0.0139738135
136	0xbda5817e	-0.08081339
137	0xbe58d132	-0.21173552
138	0x3e393a78	0.1808871
139	0xbe15b455	-0.14619572
140	0xbe00f8e8	-0.1259495
141	0xbdca34e1	-0.09873367
142	0x3c8e4558	0.01736705
143	0x3e4ff7f4	0.2030943
144	0xbe1a6637	-0.15078054
145	0xbe63f77b	-0.22262375
146	0xbd91f4b5	-0.07126752
147	0x3b40e9a0	0.0029436126
148	0xbe1e1fc8	-0.15441811
149	0xbd051876	-0.03249403
150	0x3e2c9ae2	0.16855958
151	0xbe09d54c	-0.13460273
152	0x3e0e2d9c	0.13884586
153	0xbdad061c	-0.08448431
154	0xbd788982	-0.060678013
155	0xbde787ac	-0.11305174
156	0x3dac8f38	0.08425754
157	0xbdcad63f	-0.099041454
158	0x3d6f2e78	0.058393925
159	0xbe37e796	-0.17959437
160	0x3db0b157	0.08627575
161	0xbbe90f50	-0.007112421
162	0xbdc46b9f	-0.095908396
163	0x3e7235ee	0.23653385
164	0x3d78fc67	0.060787585
165	0x3e27f9f2	0.1640394
166	0x3c0365c5	0.008019869
167	0xbe371f4d	-0.17883034
168	0xbe1a20f9	-0.1505164
169	0x3c77c37e	0.015122293
170	0x3dbb59cc	0.09147987
171	0xbd1c5d60	-0.038174987
172	0x3bb43d7d	0.005500494
173	0xbd1e4cb3	-0.038647365
174	0xbe6137ce	-0.21993944
175	0xbd458471	-0.04822201
176	0x3cea8c84	0.028631456
177	0x3ca4c345	0.020112643
178	0xbce69106	-0.028145324
179	0xbd0abd6b	-0.03387205
180	0x3caea3ca	0.021318335
181	0xbd1c9383	-0.038226616
182	0xbe8f06bb	-0.27934822
183	0xbd039952	-0.03212864
184	0xbe0107c1	-0.12600614
185	0xbd1a120c	-0.037614867
186	0x3e21c0ca	0.157962
187	0x3d85f200	0.065402985
188	0xbe4ef58a	-0.20210853
189	0xbe06d5ae	-0.1316745
190	0xbd29acb1	-0.041424457
191	0x3d540958	0.051766723
192	0x3d8fa6f8	0.07014269
193	0xbdcb3f8c	-0.0992423
194	0x3e058f23	0.13042884
195	0xbd20815f	-0.039185878
196	0x3cb3ffb9	0.021972524
197	0xbe1eb17c	-0.15497392
198	0xb883983f	-6.274925e-05
199	0x3dc2b0aa	0.09506352
200	0x3de38eb3	0.11111202
201	0x3e12b2cb	0.14326017
202	0xbdfd5e72	-0.1237153
203	0x3cd1e791	0.025623115
204	0xbe0ad698	-0.13558424
205	0xbada0652	-0.0016633964
206	0x3e60db3e	0.21958634
207	0xbd123861	-0.0356983
208	0xbd389d5a	-0.045071937
209	0xbe5c3770	-0.21505523
210	0xbe14873d	-0.14504714
211	0xbdf6cfae	-0.120513305
212	0x3e2d099b	0.16898195
213	0x3df9e79f	0.12202381
214	0x3e65f408	0.22456372
215	0xbd7dbb82	-0.0619464
216	0xbe6a3c34	-0.22874528
217	0xbed20b43	-0.41024217
218	0x3b699ae1	0.0035645294
219	0xbdbd0a08	-0.09230429
220	0xbe3b6edd	-0.1830401
221	0xbcf61285	-0.030038128
222	0x3e0a81fa	0.13526145
223	0xbec573cc	-0.38564909
224	0xbd018f05	-0.031630535
225	0x3e44d3f8	0.19221485
226	0xbe5d10ba	-0.21588412
227	0xbdb71f01	-0.089414604
228	0x3de96ed2	0.113980904
229	0xbe32e305	-0.17469414
230	0x3ddc8d58	0.10769147
231	0xbea4555a	-0.32096368
232	0xbd777bba	-0.06042073
233	0x3e344df8	0.17607868
234	0xbde1b286	-0.11020379
235	0xbe72798a	-0.23679176
236	0xbe8bebff	-0.27328488
237	0xbdfa27ac	-0.12214598
238	0xbdb9b49f	-0.09067654
239	0xbcea801d	-0.028625542
240	0x3df84672	0.121228114
241	0xbe6b28da	-0.22964802
242	0x3e1d07c8	0.15335
243	0x3ed7b6de	0.42131704
244	0x3c1f7655	0.009732802
245	0xbad09fb8	-0.001591674
246	0x3e79127d	0.24323459
247	0xbe1fb9b8	-0.1559819
248	0xbe1e6b56	-0.15470633
249	0x3e800555	0.25004068
250	0xbe0f7604	-0.14009863
251	0x3ce98280	0.02850461
252	0xbe71ae6c	-0.23601693
253	0xbc456678	-0.012048356
254	0x3da4c312	0.08045019
255	0xbc1ab253	-0.00944193

mlp.0.bias f4 [32]
0	0x3d6f5870	0.05843395
1	0x3d1fd112	0.039017744
2	0x3dd0b06e	0.10189901
3	0xbdbbedde	-0.09176229
4	0xbd8e0583	-0.06934645
5	0x3d864e28	0.06557876
6	0x3e0ab711	0.13546397
7	0xbdf9afc1	-0.121917255
8	0x3dc8ee50	0.098110795
9	0xbcb15508	-0.021646991
10	0x3caad91a	0.020855475
11	0xbde861df	-0.113467924
12	0x3d872e74	0.06600657
13	0xbdd4ce97	-0.103909664
14	0xbba695f5	-0.0050837942
15	0xbd84a383	-0.064765
16	0x3da3f2d0	0.08005297
17	0x3c9e2fe8	0.019309953
18	0xbd9d56f0	-0.07682598
19	0xbc8aa90c	-0.016926311
20	0x3dc575bd	0.096415974
21	0xbe08b858	-0.13351572
22	0x3d69834b	0.057009976
23	0x3ddeccec	0.108789295
24	0x3c8f2f48	0.0174786
25	0x3d59d22c	0.05317895
26	0x3c8c5390	0.01712969
27	0x3e122bff	0.14274596
28	0xbd27e237	-0.04098722
29	0xbd8c39e0	-0.06846976
30	0x3ce8a1de	0.028397497
31	0xbd0f6f19	-0.03501806

mlp.2.weight f4 [32, 32]
0	0x3d89d30e	0.067297086
1	0x3daf7df7	0.08568948
2	0x3c71f535	0.014767935
3	0xbe5b8f48	-0.21441376
4	0xbe2b5360	-0.16731024
5	0x3e24562e	0.160485
6	0x3e98d289	0.29848126
7	0x3f000427	0.50006336
8	0x3dbe4f75	0.09292499
9	0x3c2adce7	0.010428644
10	0x3e26eaf5	0.16300566
11	0x3b0cff99	0.0021514653
12	0xbe210182	-0.15723231
13	0x3e351756	0.17684683
14	0xbe74ca20	-0.2390523
15	0x3da0aefd	0.07845876
16	0x3e26bafb	0.16282265
17	0xbddd928a	-0.10818966
18	0x3cc292f5	0.023751715
19	0xbea713b5	-0.32632223
20	0xbe065507	-0.13118373
21	0x3da1e0c4	0.07904199
22	0xbd6735e2	-0.05644787
23	0xbcc099c4	-0.023510821
24	0xbe9083d1	-0.28225568
25	0xbbc23764	-0.0059270132
26	0xbea860d6	-0.3288638
27	0x3d45d4b5	0.048298556
28	0x3d1d66bd	0.038428057
29	0x3f0c7496	0.54865396
30	0x3d5f78ae	0.05455845
31	0xbde9aaa2	-0.11409499
32	0xbe2510a0	-0.16119623
33	0x3d901667	0.07035523
34	0x3de56642	0.11201145
35	0x3e0003b4	0.12501413
36	0xbd4bfb57	-0.049800243
37	0x3e362498	0.17787397
38	0xbd5ce40b	-0.053928416
39	0x3d08a883	0.03336383
40	0xbeb696d7	-0.35661957
41	0x3e25fdf6	0.1621016
42	0xbe780eee	-0.24224445
43	0x3e036d9f	0.12834786
44	0x3d39719b	0.04527436
45	0x3dfcfe69	0.123532124
46	0x3dd64a52	0.10463394
47	0x3d8338f9	0.06407351
48	0xbe723639	-0.23653497
49	0x3e06fde9	0.13182797
50	0x3df5accd	0.1199585
51	0x3e163b5e	0.14671084
52	0xbdc63c46	-0.09679465
53	0x3d59d583	0.053182136
54	0x3e07b9e2	0.13254502
55	0xbe5edfba	-0.21765032
56	0x3c257127	0.010097778
57	0x3e183587	0.14864169
58	0x3e23130e	0.15925238
59	0xbe06d85e	-0.13168475
60	0x3e8c021e	0.27345365
61	0x3d02006f	0.031738695
62	0x3d1460f3	0.03622527
63	0xbe71bef1	-0.23607995
64	0x3cd804e8	0.026369527
65	0xbed48623	-0.41508588
66	0xbcc87b62	-0.024472896
67	0xbe271060	-0.1631484
68	0xbe1b71ee	-0.1518018
69	0x3e68797b	0.22702591
70	0x3e4835cb	0.1955177
71	0x3e0e7a90	0.13913941
72	0xbdb7888c	-0.08961591
73	0x3e101bc6	0.14073095
74	0xbe64cc90	-0.2234366
75	0x3e03931d	0.12849088
76	0xbdec4dbb	-0.115382634
77	0x3e53c11a	0.20679131
78	0x3e1447a9	0.14480461
79	0x3ea25b35	0.3171021
80	0x3e067298	0.13129652
81	0x3cd4b654	0.025965847
82	0x3db9e88f	0.0907756
83	0x3e8bfef9	0.27342966
84	0xbe9f8de9	-0.31162956
85	0xbdac64fe	-0.084177
86	0x3c167741	0.009183706
87	0x3e7bf4d2	0.2460511
88	0x3e12503f	0.14288424
89	0x3e61680a	0.22012344
90	0xbef6bc0d	-0.48190346
91	0xbdcf393e	-0.1011834
92	0x3e5ad6ae	0.21370956
93	0x3ef031b3	0.46912917
94	0x3db27cb1	0.08715189
95	0xbd57171b	-0.05251227
96	0xbc5c577d	-0.013448593
97	0xbdeb8fdd	-0.11502049
98	0xbddef926	-0.10887365
99	0xbcd6b6b4	-0.026210167
100	0xbdc6492e	-0.09681927
101	0x3d4da058	0.050201744
102	0xbead2fbd	-0.33825484
103	0xbe59c888	-0.21267903
104	0x3e2b456f	0.16725706
105	0xbe862a1e	-0.26204008
106	0x3e017972	0.12643984
107	0xbd29031a	-0.041262724
108	0xbd398720	-0.04529488
109	0x3e030d38	0.12798011
110	0x3e0d598a	0.13803688
111	0xbe5dcd76	-0.21660408
112	0xbdfb8f59	-0.12283201
113	0x3e2271af	0.1586368
114	0x3e100517	0.14064442
115	0xbdb2e8dc	-0.08735821
116	0x3d05dd81	0.032681946
117	0x3e7bab9f	0.24577187
118	0xbdd952fe	-0.10611533
119	0x3d10abe2	0.03532017
120	0x3de551a8	0.11197215
121	0x3d14649a	0.036228754
122	0xbe2a4f20	-0.16631746
123	0xbdfe601f	-0.124206774
124	0xbcc05e6a	-0.02348252
125	0xbddd2386	-0.10797791
126	0x3a3736e5	0.0006989076
127	0xbd355442	-0.044269808
128	0xbe5547eb	-0.20828216
129	0x3e0acad6	0.13553938
130	0xbf04eb53	-0.51921576
131	0x3e0065a4	0.12538773
132	0x3d28bcfc	0.041195855
133	0xbe7099be	-0.23496148
134	0xbeb2b8a2	-0.3490649
135	0x3db77faa	0.08959897
136	0x3dcbb3d2	0.099464074
137	0xbee5e02f	-0.448976
138	0xbe80562b	-0.2506574
139	0xbe044add	-0.12919183
140	0x3dee8033	0.11645546
141	0xbd4434bc	-0.047901854
142	0x3f24b90c	0.6434486
143	0xbe8b8b60	-0.27254772
144	0xbe01d9dc	-0.12680763
145	0x3dfcd2fd	0.1234493
146	0x3a8f9972	0.0010955764
147	0x3e98eab0	0.29866552
148	0x3de6efbd	0.11276195
149	0x3cc0504b	0.023475787
150	0xbeed4a28	-0.4634564
151	0xbeba1537	-0.3634431
152	0x3b18677a	0.0023255036
153	0xbcfd9441	-0.030954482
154	0xbe6972aa	-0.22797647
155	0x3db5978a	0.088667944
156	0x3da04bb5	0.0782694
157	0xbe7d4db6	-0.24736676
158	0x3cad70b2	0.021171901
159	0xbc884542	-0.016634587
160	0xbebed79d	-0.37273875
161	0x3d418bd6	0.0472525
162	0xbd2bf3e0	-0.041980624
163	0xbe1e174c	-0.15438575
164	0xbdbfbbce	-0.09361993
165	0xbed50360	-0.41604137
166	0x3e82018e	0.2539181
167	0x3d5537e4	0.052055255
168	0xbdc5420f	-0.0963174
169	0x3e85d3d7	0.26138183
170	0x3cff1c4b	0.03114142
171	0x3e142777	0.1446818
172	0x3e027089	0.12738241
173	0xbd9accbd	-0.07558582
174	0xbdf7701e	-0.120819315
175	0xbdecf593	-0.11570277
176	0xbe18ca9e	-0.14921042
177	0xbcae3c05	-0.021268854
178	0x3cfa9521	0.030588688
179	0x3e2f6250	0.17127347
180	0xbe97be06	-0.29637164
181	0x3de59363	0.112097524
182	0xbe864af7	-0.2622907
183	0x3dc4927c	0.09598252
184	0xbd31988a	-0.043358363
185	0xbead0b17	-0.33797523
186	0xbdc15966	-0.094408795
187	0x3e887988	0.2665522
188	0xbdc8fd4a	-0.09813936
189	0xbe8ef4d8	-0.27921176
190	0x3c69be95	0.01426663
191	0xbe967dce	-0.29392856
192	0xbdf1f171	-0.118136294
193	0xbe077e62	-0.13231805
194	0x3d9e3724	0.07725361
195	0xbd69ef5f	-0.057113048
196	0x3d5d1149	0.053971563
197	0xbe0d708f	-0.13812469
198	0x3ecba92c	0.39777505
199	0x3ee2b5b7	0.44279262
200	0x3e1b8945	0.15189083
201	0xbea746c1	-0.32671168
202	0x3ecf947b	0.4054297
203	0xbdfd3199	-0.123629756
204	0x3d834ff5	0.06411735
205	0x3c53e1d3	0.012932259
206	0xbc94fcaa	-0.018186886
207	0xbdf52be6	-0.119712636
208	0x3e0a9d4e	0.1353657
209	0x3c71cf4c	0.014758896
210	0xbede6320	-0.43435
211	0x3e388734	0.18020326
212	0xbe2bab55	-0.16764577
213	0xbe8353c7	-0.25649855
214	0xbebb0b16	-0.36531895
215	0x3d8e3a5f	0.06944727
216	0xbd88725c	-0.06662437
217	0xbe80575f	-0.2506666
218	0xbc2b53d7	-0.010457001
219	0x3d9813d8	0.0742566
220	0x3e6d2079	0.23156919
221	0x3f01f64b	0.5076644
222	0xbf0b3064	-0.54370713
223	0xbdcd683d	-0.100296475
224	0x3d051218	0.03248796
225	0x3e91a3cb	0.28445277
226	0xbe8798d0	-0.26483774
227	0xbdafeb14	-0.085897595
228	0x3d838631	0.06422079
229	0xbd183cd3	-0.03716738
230	0xbe195456	-0.14973578
231	0xbdf97046	-0.121796176
232	0xbe35807d	-0.17724796
233	0xbe0fb9fd	-0.14035793
234	0xbe0a668a	-0.13515678
235	0xbd5a49ce	-0.053293042
236	0x3df4a2bc	0.119451016
237	0xbe3934a3	-0.18086486
238	0xbd4ec154	-0.05047734
239	0xbf01b233	-0.50662535
240	0x3cd5145d	0.026010687
241	0xbe4320f4	-0.1905554
242	0xbe2f1626	-0.17098293
243	0x3d59a513	0.053135943
244	0x3ca86ed5	0.020560661
245	0xbb2a8b2b	-0.0026022892
246	0xbb01679b	-0.0019745592
247	0xbd8a8964	-0.067644864
248	0x3e04c727	0.12966596
249	0xbd49e492	-0.049290247
250	0xbe709452	-0.2349408
251	0x3d912c2c	0.07088503
252	0x3de0d08f	0.109772794
253	0xbe75ac0c	-0.23991412
254	0x3d09ca7c	0.03364037
255	0x3dcb605b	0.09930488

mlp.2.bias f4 [32]
0	0x3dd7dca6	0.10540132
1	0xbdd322b8	-0.103093565
2	0xbe041745	-0.12899502
3	0x3dad1d8f	0.084529035
4	0xb9dc8c41	-0.00042066167
5	0x3d8dc1e1	0.06921745
6	0x3ce43519	0.02785735
7	0x3e8bec8c	0.27328908
8	0xbd8b037a	-0.067877725
9	0xbdc6f89a	-0.09715386
10	0x3e354b07	0.17704402
11	0xbd827f07	-0.06371885
12	0x3e4af5e2	0.1982036
13	0x3d99d84e	0.0751196
14	0x3db2ea81	0.08736134
15	0x3ddc4a77	0.107563905
16	0xbe3489e7	-0.1763073
17	0xbbdf4e73	-0.006814772
18	0x3e216ddf	0.15764569
19	0x3dbde329	0.09271843
20	0x3d031566	0.03200283
21	0x3e1528e1	0.14566375
22	0x3e8860de	0.26636404
23	0xbd81b3f6	-0.06333153
24	0x3d1613c4	0.036639944
25	0x3d25f936	0.04052087
26	0xbcc6bac6	-0.024258982
27	0xbd875973	-0.06608858
28	0xbcf31847	-0.029674662
29	0x3e47913f	0.19489
30	0xbd8dde23	-0.06927135
31	0xbe32cb41	-0.17460348

mlp.4.weight f4 [42, 32]
0	0x3b905252	0.0044043446
1	0x3d761a53	0.0600837
2	0xbbe4dcf2	-0.0069843465
3	0xbd4c307e	-0.049850933
4	0xbe13542c	-0.14387578
5	0xbdd08fca	-0.101836756
6	0xbe2f4240	-0.17115116
7	0xbdc75b37	-0.09734195
8	0x3d2137e0	0.039359927
9	0xbd43147e	-0.047626965
10	0xbcdc8d03	-0.026922708
11	0x3df849fe	0.12123488
12	0xbc2e106a	-0.010624031
13	0xbc8506d8	-0.016238615
14	0x3e0f4847	0.13992415
15	0x3db30245	0.08740667
16	0xbda79c9f	-0.0818417
17	0xbcb641e5	-0.022248218
18	0xbd90b4e7	-0.070657544
19	0x3c75b49c	0.014996674
20	0x3d5accd1	0.053417984
21	0x3d17785f	0.03698003
22	0x3cdd9843	0.027050143
23	0x3dad7a2c	0.08470568
24	0xbdc29e32	-0.095028296
25	0x3e3e9b83	0.1861401
26	0xbe1be070	-0.15222335
27	0x3d80e7f1	0.06294239
28	0x3e56d4fd	0.20979686
29	0x3da22b2a	0.07918389
30	0x3b9568a9	0.0045595956
31	0x3d54dd70	0.05196899
32	0xbcd53d35	-0.026030162
33	0xbdb355b7	-0.08756583
34	0xbe056296	-0.13025889
35	0xbcfb6cd7	-0.030691547
36	0x3db50235	0.088383116
37	0x3cb8ae03	0.022543913
38	0xbd94c3c3	-0.07263901
39	0xbde5e726	-0.11225729
40	0x3e1ebc37	0.15501486
41	0x3dbb89b0	0.09157121
42	0xbda07e98	-0.07836646
43	0x3dce903d	0.10086105
44	0xbe077f41	-0.13232137
45	0x3dc76bd2	0.09737362
46	0xbc81f1ea	-0.015862424
47	0x3aa9e50d	0.0012961939
48	0xbd8eb1f7	-0.06967538
49	0x3e0c0899	0.13675155
50	0xbd2586de	-0.040411822
51	0x3e2e444d	0.17018242
52	0x3dc90adb	0.09816524
53	0xbd9764d9	-0.07392282
54	0xbdbcd42c	-0.09220156
55	0xbcacda83	-0.021100288
56	0xbe8d8072	-0.27637058
57	0xbcc889cf	-0.024479775
58	0xbe08cfe8	-0.1336056
59	0x3d88ce07	0.066799216
60	0x3d432777	0.04764506
61	0xbc47b603	-0.012189391
62	0x3ea77a92	0.327107
63	0xbd1f0325	-0.03882136
64	0x3e12f9fa	0.14353171
65	0x3cc73e70	0.024321765
66	0xbd3815d4	-0.044942692
67	0xbc3e6c51	-0.011622504
68	0x3dc7e697	0.097607784
69	0xbdacbad8	-0.08434075
70	0x3e0852b9	0.13312806
71	0x3dfd37f0	0.12364185
72	0x3dbd3ade	0.09239744
73	0x3d81d35c	0.06339142
74	0xbdd131d5	-0.10214583
75	0xbe31ea1f	-0.17374466
76	0xbaf29689	-0.0018507998
77	0x3e035c7e	0.12828252
78	0x3e9a0c50	0.3008752
79	0x3cbca501	0.023027899
80	0x3e2e5df5	0.1702803
81	0xbe2b4b48	-0.16727936
82	0xbdcb8e4a	-0.09939249
83	0xbd7c6dd2	-0.06162817
84	0xbe241e7b	-0.16027252
85	0x3da6a851	0.081375726
86	0x3d71cfd2	0.059036084
87	0x3d997320	0.074926615
88	0x3c9a79bc	0.018856876
89	0xbda87cfe	-0.08226965
90	0x3da3bb8b	0.07994755
91	0x3e0c4c9a	0.13701096
92	0x3cbb6395	0.022874633
93	0x3d18b49a	0.03728161
94	0xbd9fd481	-0.07804204
95	0x3e477996	0.19479975
96	0x3c7b4374	0.015335906
97	0xbd186b19	-0.03721151
98	0xbe3a3ce0	-0.18187284
99	0x3dece78e	0.11567603
100	0x3db44b63	0.088034414
101	0x3ea669da	0.32502633
102	0x3ce5d834	0.028057195
103	0xbdace77a	-0.08442588
104	0xbe2a9b3a	-0.16660777
105	0xbdedffad	-0.11621032
106	0xbde09e84	-0.109677345
107	0x3dd5daa6	0.104420945
108	0xbdcee4ff	-0.10102271
109	0x3dbd141a	0.0923235
110	0xbe2a75d7	-0.16646515
111	0x3e01dcf9	0.1268195
112	0x3dc6523f	0.09683656
113	0x3dfd003d	0.12353561
114	0x3e296544	0.16542536
115	0x3e0604cc	0.13087767
116	0x3db36ba5	0.08760766
117	0x3c90bf2a	0.01766928
118	0xbe1c9117	-0.15289722
119	0xbe580eb7	-0.21099363
120	0x3dcb6aa2	0.09932448
121	0xbe6f62c1	-0.23377515
122	0xbea10fcb	-0.31457362
123	0xbde5aba6	-0.1121438
124	0x3ddfe3fd	0.10932157
125	0xbde7bc97	-0.113152675
126	0xbc89531a	-0.016763259
127	0x3e452692	0.19252995
128	0x3dab0ec6	0.08352427
129	0x3d3f3985	0.046685714
130	0xbe1b5bda	-0.15171757
131	0xbe2a1e57	-0.16613136
132	0x3ce60594	0.028078832
133	0xbcd7d5c7	-0.026347054
134	0x3e54e206	0.20789346
135	0xbd011d78	-0.031522244
136	0x3db0f061	0.08639599
137	0xbe3777ab	-0.17916743
138	0xbd865b18	-0.065603435
139	0xbd3d9e2c	-0.046293423
140	0x3e0ae599	0.13564147
141	0x3d57fed8	0.052733272
142	0xbe48f819	-0.19625892
143	0xbcbbf597	-0.022944255
144	0xbda42f42	-0.08016826
145	0x3d5f0e63	0.05445708
146	0xbc645c4a	-0.013938019
147	0x3df7ab44	0.12093213
148	0xbdac6ef7	-0.08419602
149	0xbe09b310	-0.13447213
150	0xbd9933e2	-0.07480599
151	0xbe4d0dff	-0.2002487
152	0xbe10da1c	-0.14145702
153	0xbde4fd1c	-0.11181089
154	0xbd3eef6a	-0.04661504
155	0x3e15ffd4	0.14648372
156	0x3ddf7177	0.109103136
157	0xbaa0900b	-0.0012249959
158	0x3de46fb1	0.11154116
159	0xbea45bee	-0.32101387
160	0xbcadf39b	-0.021234324
161	0x3c1d0d77	0.00958573
162	0xbd909e70	-0.070614696
163	0x3dce73e0	0.10080695
164	0xbb955bbe	-0.0045580557
165	0x3d905318	0.07047099
166	0xbc560d4b	-0.013064693
167	0xbc38cc51	-0.011279182
168	0x3d8dc3fd	0.069221474
169	0xbcfd11db	-0.030892303
170	0xbddfd581	-0.109293945
171	0x3be29ab0	0.006915413
172	0x3ddca668	0.10773927
173	0xbbd9a202	-0.0066416273
174	0xbe43d28a	-0.19123283
175	0x3e057c8e	0.13035795
176	0x3d818a08	0.063251555
177	0x3d257084	0.040390506
178	0x3d2b1115	0.041764338
179	0x3c6adeca	0.014335344
180	0xbe44a539	-0.19203652
181	0x3d8ef46d	0.06980214
182	0xbd4254fd	-0.047444332
183	0x3e99e316	0.30056065
184	0x3e3d3002	0.18475345
185	0x3cdea747	0.027179373
186	0x3d816041	0.06317187
187	0x3dbcd771	0.0922078
188	0x3e508660	0.2036376
189	0xbc24b50c	-0.010052931
190	0x3c1da386	0.009621507
191	0xbe917099	-0.28406218
192	0xbdc1f211	-0.09469999
193	0x3e5d8d1d	0.21635862
194	0x3e296333	0.16541748
195	0x3d35e172	0.044404455
196	0xbda44dd1	-0.08022655
197	0x3c983697	0.018580718
198	0x3c8f26d8	0.017474577
199	0x3dcd23a2	0.10016562
200	0x3d89845f	0.06714701
201	0x3ca66e3f	0.020316241
202	0x3c6850ae	0.014179392
203	0xbd6dfbf7	-0.05810162
204	0x3c0e50b4	0.008686233
205	0xbd038ff8	-0.03211972
206	0xbe9c545a	-0.30533105
207	0x3da48395	0.0803291
208	0x3dde2958	0.108477294
209	0xbbda3e22	-0.006660239
210	0x3d627145	0.055283803
211	0x3e1ef830	0.15524364
212	0xbd9fe748	-0.07807785
213	0x3cb4f505	0.02208949
214	0x3d86ab76	0.06575672
215	0x3e0c443c	0.13697904
216	0x3d267b58	0.040644974
217	0x3cd3df4b	0.02586331
218	0x3e0a511b	0.13507502
219	0xbd35c1ef	-0.044374403
220	0xbd9aff34	-0.075682074
221	0x3d73ca84	0.059519306
222	0xbe16e976	-0.14737496
223	0xbe16606b	-0.14685218
224	0xbd72367d	-0.059133995
225	0x3d68eeed	0.056868482
226	0x3e03716d	0.12836237
227	0x3e0d867f	0.13820837
228	0xbd1059ed	-0.03524201
229	0xbe436e2b	-0.19084994
230	0xbe7d9cb7	-0.24766813
231	0x3d2184c9	0.039433274
232	0xbd20c350	-0.039248765
233	0x3e0b9bd4	0.13633662
234	0xbcfc5af1	-0.030805083
235	0x3da08b30	0.07839048
236	0x3e1cf53a	0.15327922
237	0xbdd896ab	-0.10575613
238	0xbe390231	-0.18067242
239	0xbcec9c19	-0.028883027
240	0xbe14fc1d	-0.14549299
241	0x3d680542	0.05664564
242	0x3bc5bd47	0.0060345265
243	0x3e4975ec	0.1967389
244	0x3dbf13cb	0.09329947
245	0xbdba9902	-0.09111215
246	0x3d38307f	0.044968124
247	0x3d54bb46	0.05193641
248	0xbd8fe737	-0.070265226
249	0x3e8af389	0.27138928
250	0xbe47c4af	-0.19508623
251	0x3d82ce26	0.06386976
252	0x3d8e98f4	0.06962767
253	0x3d2d005a	0.042236663
254	0x3dc02aa6	0.093831345
255	0xbc830c4a	-0.01599707

mlp.4.bias f4 [42]
0	0x3dc54c51	0.09633697
1	0x3e2bf0b1	0.16791035
2	0xbdebc989	-0.11513049
3	0x3e1405dd	0.14455362
4	0xbd80d46e	-0.06290518
5	0xbd74a143	-0.059724104
6	0x3d89d49d	0.06730006
7	0x3dd18e89	0.102322645
8	0xbc89e5d9	-0.016833233
9	0x3d6a7284	0.057238117
10	0xbde4933c	-0.11160895
11	0xbe0b76bc	-0.13619512
12	0x3d535106	0.05159094
13	0xbe144228	-0.14478362
14	0x3e219570	0.15779662
15	0xbe410a7d	-0.18851657
16	0xbdb790e4	-0.089631826
17	0xbe4351ca	-0.19074169
18	0x3d496e44	0.049177423
19	0x3dead9df	0.11467337
20	0xbdc8e4db	-0.09809276
21	0xbda94762	-0.08265568
22	0x3e0783d9	0.1323389
23	0x3e011d38	0.12608802
24	0x3e1f1797	0.15536343
25	0xbcf0e707	-0.029407037
26	0x3dea68da	0.1144578
27	0x3d996b18	0.0749113
28	0x3dff0a04	0.12453082
29	0xbcd469ce	-0.025929358
30	0xbda082c9	-0.07837445
31	0x3e173a33	0.14768295
32	0xbdc9ee17	-0.09859865
33	0xbe156801	-0.14590456
34	0xbe05acb2	-0.1305416
35	0xbbe99933	-0.0071288585
36	0x3d384061	0.04498327
37	0xbca2f164	-0.019890495
38	0x3df69fb8	0.12042183
39	0xbd3948cb	-0.045235436
40	0xbe09e3c1	-0.13465787
41	0xbd875564	-0.06608084
