trained_models/aamas22-main/final_fov_encoder_self.pt (torch, 103461 bytes, 6 tensors)

mlp.0.weight f4 [32, 722]
0.0059802495 -0.03876063 -0.0047121258 -0.031340033 0.012977088 0.01922807 -0.038203225 -0.008750804
-0.032228295 -0.016448388 0.026202325 -0.04195812 0.029238528 -0.012648251 0.020935496 0.022268623
0.005669702 0.01745426 -0.0074233175 0.011765371 -0.040903814 0.009238457 0.011593056 -0.035192575
-0.032388274 -0.023620391 0.024031155 0.006041211 0.029188802 0.027266389 0.020671116 0.028930826
0.0046380297 -0.0066146133 -0.017943831 0.012742338 -0.037495717 -0.031590182 0.00951936 -0.0055405595
-0.027366428 -0.018578622 0.0145683 -0.02466241 -0.028392948 0.030275233 -0.02193121 -0.036541037
-0.029954797 -0.038745735 -0.0004485736 0.030273592 -0.031524036 -0.03180464 0.011113911 0.015692554
0.001574661 0.014431359 -0.008212065 0.014603594 0.01751874 -0.010274102 -0.031073408 0.0020365675
-0.032257784 -0.017621316 0.004280121 -2.7857996e-05 0.0023652324 0.027941646 0.017920475 0.0050886553
-0.038623657 0.019873131 -0.032718778 -0.041644428 -0.029887982 -0.036271803 0.0030663977 0.02674153
0.027133204 0.020233281 -0.015293383 -0.018830111 0.020874772 -0.03514699 -0.00970475 0.0065073846
-0.003155725 0.030180627 -0.008409164 -0.042640947 -0.011994663 -0.024847815 0.027677825 0.002093857
-0.02249224 0.014891673 -0.01924804 -0.03306036 0.001366897 0.005653544 -0.013828048 -0.032742895
-0.005265129 0.021855518 -0.011281262 0.008185005 0.029561773 0.029054947 -0.03897857 -0.020520411
0.02957253 -0.03975656 -0.005717146 0.02461733 0.029022923 -0.034951027 0.014535737 -0.0005663936
0.015437451 0.0035324013 0.025314936 0.0283078 -1.949426e-05 -3.689836e-05 0.012514377 0.007769163
0.020481575 0.012689134 -0.0024785376 0.026475174 -0.018232927 -0.014537082 -0.004098178 0.014447189
-0.022667482 -0.011943827 -0.027954433 0.014458594 0.015422934 -0.02512888 -0.0013666396 -0.028544124
0.0001363651 0.0009325378 -0.040910468 -0.011113467 -0.033132527 -0.0069694426 0.015333171 -0.03511891
0.00048966607 -0.015580656 0.004477032 0.01998077 0.026016602 0.008486165 -0.022134634 -0.025194287
-0.042004332 -0.012388021 -0.0078087803 -0.01184024 -0.0028371038 -0.0024526862 -0.0100773545 0.020056047
0.01770809 -0.021770554 0.013559718 -0.03287718 -0.038952477 -0.04285065 -0.033768833 -0.024301425
-0.008959948 -0.0020004795 -0.0011695481 -0.011216911 -0.015440969 -0.027241338 -0.005067957 -0.009083451
0.012359247 -0.027536726 -0.038307473 -0.013551952 -0.012056173 -0.02346282 0.0070191356 -0.011937704
0.0021001627 -0.0030704334 -0.042062048 0.016527837 0.010481861 -0.0015219799 -0.0067992923 -0.02631035
-0.030755898 -0.0007284925 0.031061701 -0.032555703 -0.027163986 -0.015143856 0.026504347 0.025782632
-0.008044495 0.013952462 0.023943577 -0.027129974 0.004148433 -0.016677504 -0.0041392976 0.003276193
0.02737259 0.02618546 -0.02124723 -0.033290744 -0.035782672 -0.02364607 0.003083646 -0.0427969
-0.013297652 0.025534099 0.029616073 -0.034113873 -0.014928445 -0.019643588 -0.016305288 0.01832347
-0.032344695 -0.014200301 -0.035898402 -0.042498123 -0.018490184 0.00788161 -0.017615022 0.0023131708
-0.038102996 0.031020021 0.0038698127 0.0057031857 -0.040387288 -0.041747604 -0.022421915 -0.020622425
0.029214574 -0.029707497 0.02253084 -0.025380598 -0.0017427899 -0.008835993 0.017165126 -0.003396771
00000000: f8f5 c33b 77c3 1ebd 2d68 9abb 685e 00bd
00000010: da9d 543c 2f84 9d3c fc7a 1cbd 885f 0fbc
00000020: d101 04bd c5be 86bc 42a6 d63c 47dc 2bbd
00000030: a385 ef3c 9c3a 4fbc eb80 ab3c b06c b63c
00000040: e8c8 b93b 3cfc 8e3c 4d3f f3bb 8bc3 403c
00000050: c28a 27bd e65c 173c cdf0 3d3c 1726 10bd
00000060: 91a9 04bd 8d7f c1bc fcdc c43c 5af5 c53b
00000070: 5b1d ef3c c35d df3c 7956 a93c 5700 ed3c
00000080: 9dfa 973b 66bf d8bb f1fe 92bc 3dc5 503c
00000090: 1c95 19bd b564 01bd 17f7 1b3c 958d b5bb
000000a0: 8f2f e0bc 3232 98bc e1af 6e3c d308 cabc
000000b0: 5498 e8bc c403 f83c 15a9 b3bc 0eac 15bd
000000c0: c363 f5bc d9b3 1ebd 882e ebb9 5300 f83c
000000d0: 591f 01bd 9545 02bd 1f17 363c ac8d 803c
000000e0: db64 ce3a 8271 6c3c e68b 06bc ea43 6f3c
000000f0: 7683 8f3c b554 28bc a98d febc ef77 053b
00000100: bd20 04bd 945a 90bc 4240 8c3b 97b0 e9b7
00000110: 0402 1b3b e1e5 e43c f6cd 923c bcbe a63b
00000120: d733 1ebd facc a23c 2004 06bd 5993 2abd
00000130: a4d7 f4bc be91 14bd 9ef5 483b 0e11 db3c
00000140: 7446 de3c 44c0 a53c 1991 7abc 9b41 9abc
00000150: 9201 ab3c 4af6 0fbd ac00 1fbc e63b d53b
00000160: 48d0 4ebb 5d3d f73c 97c6 09bc 46a8 2ebd
00000170: 4385 44bc a58d cbbc 9bbc e23c 1739 093b
00000180: a541 b8bc 34fc 733c 11ae 9dbc 4d6a 07bd
00000190: 7429 b33a 5d41 b93b 098f 62bc 6a1d 06bd
000001a0: 1a87 acbb 580a b33c 0bd5 38bc 661a 063c
000001b0: 882b f23c a404 ee3c fea7 1fbd 6c1a a8bc
000001c0: 1742 f23c c6d7 22bd e656 bbbb 48aa c93c
000001d0: 7bc1 ed3c cf28 0fbd 4d27 6e3c 087a 14ba
000001e0: 5ded 7c3c dc7f 673b 4561 cf3c c2e5 e73c
000001f0: 9b87 a3b7 50c3 1ab8 1a09 4d3c 7794 fe3b
00000200: fac8 a73c 16e6 4f3c f66e 22bb 77e2 d83c
00000210: 385d 95bc f12c 6ebc 024a 86bb e7b3 6c3c
00000220: 28b1 b9bc 0bb0 43bc b200 e5bc bde3 6c3c
00000230: 79b0 7c3c 15db cdbc d120 b3ba 5ed5 e9bc
00000240: 3afd 0e39 8d75 743a bc91 27bd 4215 36bc
00000250: f9b5 07bd ec5f e4bb fb37 7b3c d9d8 0fbd
00000260: ef5c 003a 0246 7fbc 11b4 923b b6ae a33c
00000270: c520 d53c 8e09 0b3c b153 b5bc 4064 cebc
00000280: bc0c 2cbd 20f7 4abc cce0 ffbb 91fd 41bc
00000290: b4ee 39bb 3fbd 20bb 7d1b 25bc 944c a43c
000002a0: 8e10 913c 2958 b2bc 9429 5e3c 39aa 06bd
000002b0: a28c 1fbd 2a84 2fbd 3051 0abd c813 c7bc
000002c0: bfcc 12bc 7a1a 03bb 864b 99ba 22c7 37bc
000002d0: 1efc 7cbc 3a29 dfbc 1b11 a6bb c1d2 14bc
000002e0: 707e 4a3c b394 e1bc 4ce8 1cbd 0209 5ebc
000002f0: 4187 45bc 1a35 c0bc c700 e63b 5c96 43bc
00000300: e2a2 093b 5339 49bb 4149 2cbd 6365 873c
00000310: 1dbc 2b3c 2c7d c7ba 99cc debb ce88 d7bc
00000320: cbf3 fbbc 4ef8 3eba 1c75 fe3c 2159 05bd
00000330: 0287 debc f01d 78bc a51f d93c 1936 d33c
00000340: 0fcd 03bc de98 643c 5225 c43c ae3f debc
00000350: 94ef 873b 439f 88bc f2a2 87bb 66b5 563b
00000360: 7b3c e03c e482 d63c ac0e aebc e05b 08bd
00000370: da90 12bd 67b5 c1bc ff16 4a3b cd4b 2fbd
00000380: 65de 59bc e32c d13c 689d f23c fdba 0bbd
00000390: 7096 74bc 97eb a0bc ab92 85bc 1a1b 963c
000003a0: df7b 04bd 61a8 68bc 340a 13bd 8312 2ebd
000003b0: ba78 97bc de21 013c 614d 90bc 9198 173b
000003c0: e311 1cbd b31d fe3c af9c 7d3b cae1 ba3b
000003d0: 246d 25bd 89ff 2abd 2aae b7bc 5cf0 a8bc
000003e0: 6753 ef3c 235d f3bc 9992 b83c f9ea cfbc
000003f0: 536e e4ba d7c4 10bc e19d 8c3c 5c9c 5ebb

mlp.0.bias f4 [32]
-0.014358687 0.02261412 0.05146149 0.024556246 0.026977943 -0.010046624 -0.0019448496 0.010138914
0.027569203 0.011644577 0.018290808 0.009906598 -0.038850024 -0.008981017 0.041254237 0.017953217
0.0311301 0.0034224386 -0.031898662 0.0023099862 0.027027773 0.012854543 0.002775354 -0.020477839
0.024804974 -0.0012403156 -0.031995706 0.008085862 -0.022921551 -0.0094897775 0.008690396 0.021009995
00000000: b340 6bbc 3f41 b93c 49c9 523d 2e2a c93c
00000010: d900 dd3c 989a 24bc 53ea feba b01d 263c
00000020: cfd8 e13c e5c8 3e3c 9bd6 953c 494f 223c
00000030: 3421 1fbd 1e25 13bc 34fa 283d a012 933c
00000040: 8d04 ff3c fe4a 603b 2ca8 02bd 2363 173b
00000050: 5969 dd3c dc9b 523c b7e2 353b 24c1 a7bc
00000060: cd33 cb3c 1692 a2ba ee0d 03bd 907a 043c
00000070: fac5 bbbc 037b 1bbc 2a62 0e3c 271d ac3c

mlp.2.weight f4 [32, 32]
0.0298893 -0.15357688 -0.06086494 0.066877335 0.13139848 -0.115978 -0.023529468 0.041518185
0.08234095 -0.07972841 0.049934383 -0.05958283 0.021069672 0.0754746 0.07143258 0.027019775
-0.018444894 0.00594097 0.0041943276 0.035291493 -0.100572266 -0.18076615 -0.1128316 -0.052565083
0.12150599 0.13921532 -0.13547656 -0.06304068 -0.17506008 -0.19385926 -0.17520185 -0.14002928
-0.05089562 0.14300823 0.037563905 0.15753911 -0.050947275 0.07442305 0.05488374 0.049048483
-0.07068074 -0.055674683 0.09629457 0.047688 0.082689844 0.12660421 -0.16533267 -0.13939549
0.060093936 -0.17222947 -0.11033422 -0.12012162 0.104238585 -0.0339217 -0.029359156 0.059367876
-0.111788824 0.16912732 -0.1554028 -0.005355866 -0.05187352 -0.16124569 -0.15517317 -0.18352647
0.053845353 -0.11346351 0.0052745338 -0.02654407 0.12644108 0.04816123 0.14388376 -0.15153101
-0.0062649916 -0.059825324 0.0675305 0.15694726 0.11059441 0.12866564 0.025529731 -0.06455402
0.053142767 0.01463118 -0.08247544 -0.17361318 -0.004789409 -0.09197328 0.2048708 0.06321626
0.09838927 -0.13823684 -0.06027173 0.026135687 -0.079360545 -0.08899355 0.018433345 0.102394536
-0.10454018 -0.14679416 0.037251454 0.022740753 0.084689364 -0.018714178 0.032222345 0.15612745
0.164854 -0.029997567 0.02627102 0.13614555 -0.10424124 0.02115861 0.06269995 0.1352991
0.0062041166 0.029603455 -0.0038156419 -0.0954251 0.011176442 -0.040887423 0.1415854 0.049374785
-0.09188255 -0.12098686 0.11630134 0.04845711 0.04718568 -0.045862246 0.039090835 0.13603693
-0.05121505 0.04711062 0.0022683411 0.14281991 -0.04754361 0.05943744 -0.13425153 0.10583627
0.1498972 0.13427387 -0.11378755 0.1770457 0.00316733 0.17233 0.029243985 -0.06650019
-0.14101095 -0.009786205 0.011434347 0.018067244 0.00799329 0.009294801 -0.059584104 -0.018747788
0.1420028 -0.17397104 -0.08506843 -0.057537753 -0.09939815 0.00012202074 0.07112272 -0.09664206
-0.1464572 0.08344003 -0.11437089 -0.13610364 -0.1044153 -0.06536687 -0.0006284938 0.0922058
-0.123075515 0.15596393 -0.10347257 -0.03120167 -0.13905592 0.016136391 -0.012511799 -0.014530368
-0.15038465 -0.2507143 -0.07990176 0.12891766 0.08165759 0.050289057 0.051078945 -0.22531907
-0.152479 -0.09849845 0.15416402 -0.28473213 -0.10815336 0.1627676 -0.1943106 -0.1759269
-0.10226538 -0.08319934 -0.058333796 0.015022543 -0.0038617675 -0.13484982 0.06677997 0.16316696
0.10073352 -0.21433216 0.016406791 0.11363711 -0.11634561 -0.022414902 -0.09555203 0.08649715
-0.078165434 0.010317191 0.019740274 -0.150641 -0.13581486 -0.07968512 0.11797447 -0.11068993
-0.16032282 -0.01862996 -0.0042888634 -0.08073983 -0.22630835 0.050154034 -0.07390968 0.069784924
0.1662733 -0.068580285 -0.04303701 -0.12098889 -0.08881754 -0.008758256 -0.065954424 -0.13673458
0.1315824 0.09947441 -0.11315949 -0.03941093 0.09839244 0.15594088 0.05978835 0.083281696
-0.07363165 0.05311615 0.077523455 0.14048353 -0.012800827 0.13085668 0.082701884 0.01943834
0.043389056 -0.05976432 -0.09938009 -0.09078616 -0.1591592 0.00011894466 0.000813831 0.08008072
00000000: 68da f43c 4243 1dbe 844d 79bd fcf6 883d
00000010: 538d 063e e085 edbd dfc0 c0bc f90e 2a3d
00000020: 5fa2 a83d a648 a3bd ff87 4c3d 200d 74bd
00000030: 4e9a ac3c 6d92 9a3d 3f4b 923d 9358 dd3c
00000040: bf19 97bc 78ac c23b 9270 893b d08d 103d
00000050: d5f8 cdbd c31a 39be 4114 e7bd 7c4e 57bd
00000060: 22d8 f83d 768e 0e3e 5eba 0abe 791b 81bd
00000070: f342 33be 0b83 46be 1d68 33be d663 0fbe
00000080: ed77 50bd c070 123e 9cdc 193d ef51 213e
00000090: 17ae 50bd 1d6b 983d c6cd 603d 10e7 483d
000000a0: 10c1 90bd 230b 64bd 1636 c53d 7e54 433d
000000b0: 4b59 a93d 89a4 013e f84c 29be b1bd 0ebe
000000c0: 0f25 763d ec5c 30be e8f6 e1bd 5302 f6bd
000000d0: 0a7b d53d 7bf1 0abd 9d82 f0bc bb2b 733d
000000e0: 8af1 e4bd b62f 2d3e e921 1fbe 4380 afbb
000000f0: 5479 54bd 971d 25be b7e5 1ebe 5dee 3bbe
00000100: f28c 5c3d 8f5f e8bd ffd5 ac3b f372 d9bc
00000110: c579 013e b644 453d 4456 133e f22a 1bbe
00000120: 8f4a cdbb 660b 75bd 6e4d 8a3d c8b6 203e
00000130: 527f e23d edc0 033e ba23 d13c e634 84bd
00000140: 3bac 593d 9eb7 6f3c e2e8 a8bd a7c7 31be
00000150: 7af0 9cbb 7d5c bcbd a7c9 513e 8777 813d
00000160: 5080 c93d f58d 0dbe 7ddf 76bd 821a d63c
00000170: c887 a2bd 4042 b6bd 8701 973c 3ab4 d13d
00000180: 2919 d6bd 3551 16be fb94 183d d14a ba3c
00000190: 9e71 ad3d 7a4e 99bc 94fb 033d e0df 1f3e
000001a0: 7dcf 283e 75bd f5bc 5236 d73c bd69 0b3e
000001b0: 6e7c d5bd d254 ad3c d568 803d d98b 0a3e
000001c0: e74b cb3b f282 f23c d90f 7abb 3c6e c3bd
000001d0: 651d 373c 9279 27bd c3fb 103e 373d 4a3d
000001e0: eb2c bcbd f5c7 f7bd 662f ee3d f67a 463d
000001f0: c645 413d 0dda 3bbd b61d 203d 444d 0b3e
00000200: dfc6 51bd 11f7 403d 73a8 143b 623f 123e
00000210: 17bd 42bd ac74 733d 3c79 09be b0c0 d83d
00000220: a77e 193e 177f 093e 7209 e9bd 784b 353e
00000230: fb92 4f3b 4777 303e 1591 ef3c 4031 88bd
00000240: 2d65 10be 5256 20bc 2157 3b3c c201 943c
00000250: 4af6 023c 3949 183c 760e 74bd f694 99bc
00000260: 2f69 113e 7725 32be 5b38 aebd b5ac 6bbd
00000270: 4291 cbbd 63e5 ff38 caa8 913d 46ec c5bd
00000280: e0f8 15be 9be2 aa3d 493b eabd c15e 0bbe
00000290: b0d7 d5bd 11df 85bd 81c1 24ba 65d6 bc3d
000002a0: 040f fcbd 02b5 1f3e 6de9 d3bd a59a ffbc
000002b0: ad64 0ebe 7730 843c 4afe 4cbc c810 6ebc
000002c0: 6ffe 19be a05d 80be 89a3 a3bd fe02 043e
000002d0: 183c a73d e6fb 4d3d 2838 513d 0bba 66be
000002e0: 7423 1cbe 8eb9 c9bd 2cdd 1d3e 69c8 91be
000002f0: 827f ddbd 8dac 263e 5cf9 46be 2e26 34be
00000300: 8370 d1bd 6a64 aabd 6bef 6ebd 1d21 763c
00000310: b515 7dbb 1216 0abe f0c3 883d 3d15 273e
00000320: 604d ce3d e479 5bbe 8967 863c 93ba e83d
00000330: 9b46 eebd 759f b7bc c8b0 c3bd 6b25 b13d
00000340: 3315 a0bd 6f09 293c 5bb6 a13c a241 1abe
00000350: 0d13 0bbe f431 a3bd 999c f13d 67b1 e2bd
00000360: aa2b 24be dc9d 98bc 9889 8cbb ed5a a5bd
00000370: 60bd 67be 516e 4d3d f55d 97bd 66eb 8e3d
00000380: 8c43 2a3e d273 8cbd 9347 30bd 06c9 f7bd
00000390: f8e5 b5bd ca7e 0fbc 1d13 87bd 2604 0cbe
000003a0: 89bd 063e 3db9 cb3d 2ac0 e7bd 5b6d 21bd
000003b0: fa81 c93d f7ae 1f3e a1e4 743d 988f aa3d
000003c0: 31cc 96bd 5290 593d 9ec4 9e3d eada 0f3e
000003d0: 8fba 51bc 4bff 053e 9b5f a93d 273d 9f3c
000003e0: b9b8 313d 6ecb 74bd ca87 cbbd 18ee b9bd
000003f0: a1fa 22be ee71 f938 4657 553a 5c01 a43d

mlp.2.bias f4 [32]
-0.2198135 -0.21700077 0.2212362 0.060810845 -0.1264122 -0.14299539 -0.08869452 0.0445106
-0.014651139 0.038028914 0.2757795 -0.075189956 -0.059004724 -0.050713457 0.103167936 0.10617346
0.1259334 0.24592909 0.017768517 0.096253 0.1422205 -0.16688082 0.15426548 -0.07499905
-0.011794533 -0.06294776 -0.039001845 -0.25259352 -0.1481889 0.41676226 -0.2545555 0.032809194
00000000: ca16 61be 7335 5ebe be8b 623e cb14 793d
00000010: 3372 01be 626d 12be 79a5 b5bd bf50 363d
00000020: 550b 70bc 35c4 1b3d f832 8d3e 31fd 99bd
00000030: f0ae 71bd eab8 4fbd b649 d33d 7971 d93d
00000040: aff4 003e d6d4 7b3e 488f 913c 4b20 c53d
00000050: 40a2 113e cee2 2abe c5f7 1d3e 1a99 99bd
00000060: db3d 41bc c1ea 80bd 66c0 1fbd f053 81be
00000070: d5be 17be dd61 d53e 1955 82be ef62 063d

mlp.4.weight f4 [32, 32]
0.050701093 0.06463204 0.008120199 0.079925366 -0.0933993 0.22964995 0.21616183 0.06519495
0.113616206 -0.11171663 0.099326365 -0.15019548 0.08496893 -0.12065266 0.07751639 -0.052328467
-0.045128934 0.041997746 0.053600647 0.05121415 -0.028656162 -0.16357511 -0.0737067 0.049661376
-0.08373531 -0.11193632 -0.0199586 0.09153869 -0.096353784 -0.08428764 -0.10141922 0.013986887
-0.13417083 -0.12712015 -0.063964285 -0.053971823 -0.022808902 -0.18321683 7.312458e-07 0.011714924
0.093410835 -0.0016515619 0.236546 0.13273951 0.12204512 -0.1415575 -0.020415 0.078986265
0.066086195 0.058241114 -0.044107243 0.1601888 0.04737431 -0.11379024 0.07743381 -0.09755267
-0.060654577 -0.09254598 -0.15451449 0.069764964 0.044681985 0.06379933 0.035669778 -0.054262638
0.048223298 -0.06642671 -0.07387906 -0.10874156 -0.059508342 0.025846034 -0.09981223 0.10859678
-0.15449359 -0.054554217 -0.22272636 -0.069789484 0.021102287 0.045674976 0.033210646 -0.08676445
0.10381172 -0.009711916 0.07850047 0.0529124 -0.18025209 0.024203042 0.066190794 0.0050257724
0.09120881 -0.1310567 0.06628353 0.13456465 -0.079307914 -0.0042115194 -0.19681923 -0.06053046
0.055548422 -0.052284822 -0.0005896362 0.12058177 -0.07403402 -0.17465496 -0.04415231 -0.123036675
-0.09887975 0.019945405 -0.021431645 -0.014733339 0.0051372545 0.10807455 0.045824274 0.04992699
0.0068723275 -0.059728432 -0.10534435 -0.0689233 0.0138291 0.014394661 -0.123327635 -0.01860056
0.0053562913 0.10714679 0.015492088 0.02801627 -0.16646095 -0.038048774 -0.05264498 0.047362465
0.07450285 0.112764694 -0.01213691 -0.093793355 -0.13888122 -0.027467173 -0.12538387 0.060507163
0.05553995 -0.055136662 0.022733707 0.09018906 -0.058776814 -0.17678925 0.10838929 -0.04312627
-0.070018396 0.012399629 0.009406348 0.019382406 0.0124027245 0.02459292 0.10394213 0.011841483
0.013764766 0.08506348 -0.13252245 0.033740837 -0.15785192 -0.00019325812 0.06770285 -0.02850062
-0.17745359 0.0070507405 0.05131181 -0.0023284939 0.09530572 0.12083677 0.31467167 0.15672046
0.06817547 -0.11188265 -0.077009454 -0.045507215 0.00012309819 0.013369253 0.053656638 -0.058033727
0.0053259833 -0.07807015 -0.07669422 0.10543209 0.009334797 -0.009690024 0.067121714 -0.024448516
-0.06630859 0.10579964 0.15085098 -0.08215596 0.067757845 -0.05621581 0.072226994 0.036755808
-0.13366233 -0.18131256 -0.045312487 -0.11398493 0.032703094 0.089244865 -0.10597139 -0.0012098944
-0.15641688 0.034191314 -0.09481772 -0.03719153 0.063895166 0.07421112 -0.028156977 0.017424844
0.11637599 -0.04261303 -0.12062977 0.07674841 0.013455771 0.038119722 0.04283167 -0.034100518
0.16724093 -0.067550056 -0.120154455 0.12144281 -0.042546473 -0.0041280594 -0.09691243 0.023215285
0.033474963 0.004221239 -0.06314932 0.12050883 0.10468183 0.15120758 -0.0062464443 -0.03316357
0.010014002 0.051044863 0.10280841 -0.06178948 0.037227225 0.12668644 0.019119775 0.0007288231
0.056093678 -0.09688915 -0.05659647 -0.14141135 0.082256764 -0.07560702 0.018146632 0.02907052
-0.06426234 -0.06292262 -0.0017985022 0.05164828 -0.034186807 0.0041071125 -0.069082156 -0.00062082766
00000000: f3ab 4f3d ce5d 843d 950a 053c e9af a33d
00000010: 2248 bfbd 5b29 6b3e 8759 5d3e ee84 853d
00000020: 9daf e83d b0cb e4bd 9f6b cb3d d8cc 19be
00000030: 3104 ae3d be18 f7bd eac0 9e3d 6056 56bd
00000040: 1ed9 38bd d405 2c3d 5a8c 5b3d eec5 513d
00000050: 54c0 eabc 3c80 27be 8af3 96bd ba69 4b3d
00000060: 6b7d abbd df3e e5bd 3880 a3bc a378 bb3d
00000070: 2255 c5bd 009f acbd e1b4 cfbd 4229 653c
00000080: 1464 09be c92b 02be b5ff 82bd 8f11 5dbd
00000090: bcd9 babc 319d 3bbe d44a 4435 f4ef 3f3c
000000a0: 2e4e bf3d 3979 d8ba 1d39 723e deec 073e
000000b0: cbf2 f93d 73f4 10be 5c3d a7bc 8dc3 a13d
000000c0: 3358 873d 3c8e 6e3d cca9 34bd 8808 243e
000000d0: 910b 423d db0a e9bd 9e95 9e3d b2c9 c7bd
000000e0: ef70 78bd bf88 bdbd 0c39 1ebe efe0 8e3d
000000f0: 7504 373d 39a9 823d 791a 123d 8042 5ebd
00000100: cb85 453d ba0a 88bd e84d 97bd e5b3 debd
00000110: 05bf 73bd 10bb d33c 5b6a ccbd fd67 de3d
00000120: 9133 1ebe 3e74 5fbd 6112 64be caed 8ebd
00000130: b4de ac3c af15 3b3d e307 083d 8fb1 b1bd
00000140: 3d9b d43d ba1e 1fbc dbc4 a03d acba 583d
00000150: 0194 38be 7545 c63c 0a8f 873d 3caf a43b
00000160: afcb ba3d ba33 06be a9bf 873d 51cb 093e
00000170: 306c a2bd c900 8abb fb8a 49be caee 77bd
00000180: be86 633d 9c28 56bd d191 1aba 93f3 f63d
00000190: 269f 97bd c0d8 32be 0dd9 34bd a7fa fbbd
000001a0: 7781 cabd 8c64 a33c 6b91 afbc 1a64 71bc
000001b0: 6a56 a83b 3156 dd3d 3cb2 3b3d 3e80 4c3d
000001c0: 4331 e13b cda5 74bd c7be d7bd a927 8dbd
000001d0: 7393 623c 96d7 6b3c 3393 fcbd 3460 98bc
000001e0: d483 af3b c76f db3d 87d2 7d3c 6082 e53c
000001f0: bd74 2abe 08d9 1bbd 43a2 57bd 25ff 413d
00000200: f394 983d 2df1 e63d e4d9 46bc bb16 c0bd
00000210: e136 0ebe d602 e1bc a164 00be 5cd6 773d
00000220: dc7d 633d fbd6 61bd 0a3c ba3c 0bb5 b83d
00000230: f5bf 70bd 3e08 35be 34fb dd3d 2ca5 30bd
00000240: ce65 8fbd d027 4b3c 151d 1a3c dac7 9e3c
00000250: cc34 4b3c 1777 c93c 9ddf d43d c802 423c
00000260: 9d85 613c c335 ae3d f7b3 07be d533 0a3d
00000270: efa3 21be 55a5 4ab9 cba7 8a3d 227a e9bc
00000280: 65b6 35be e609 e73b 552c 523d a599 18bb
00000290: a52f c33d 4579 f73d a51c a13e 547b 203e
000002a0: 959f 8b3d bb22 e5bd 22b7 9dbd c665 3abd
000002b0: eb13 0139 b60a 5b3c 10c7 5b3d c6b4 6dbd
000002c0: 9685 ae3b 3ee3 9fbd dc11 9dbd c8ec d73d
000002d0: faf0 183c e8c2 1ebc 1c77 893d 4148 c8bc
000002e0: cccc 87bd 7bad d83d ae78 1a3e 6241 a8bd
000002f0: a0c4 8a3d 8d42 66bd bfeb 933d 428d 163d
00000300: c7de 08be 00aa 39be 9699 39bd ee70 e9bd
00000310: aef3 053d 03c6 b63d 8707 d9bd 5295 9eba
00000320: bf2b 20be 310c 0c3d cb2f c2bd 2556 18bd
00000330: 78db 823d 00fc 973d 76a9 e6bc 8cbe 8e3c
00000340: 8956 ee3d 008b 2ebd be0c f7bd 452e 9d3d
00000350: 9875 5c3c 6d23 1c3d 4370 2f3d fcac 0bbd
00000360: 3541 2b3e af57 8abd 8a13 f6bd 02b7 f83d
00000370: 3645 2ebd ac44 87bb 067a c6bd fb2d be3c
00000380: 0b1d 093d 5252 8a3b 6e54 81bd 55cd f63d
00000390: 6d63 d63d 29d6 1a3e f9ae ccbb 86d6 07bd
000003a0: c511 243c 6b14 513d 378d d23d f716 7dbd
000003b0: 937b 183d 17ba 013e 13a1 9c3c 7e0e 3f3a
000003c0: 7cc2 653d d26d c6bd b3d1 67bd 23ce 10be
000003d0: 3c76 a83d dad7 9abd 3fa8 943c 4d25 ee3c
000003e0: f99b 83bd 93dd 80bd b8bb ebba 268d 533d
000003f0: 7707 0cbd f594 863b f27a 8dbd 0abf 22ba

mlp.4.bias f4 [32]
0.020674953 -0.14878376 -0.07267017 -0.14867547 0.07703157 -0.09942821 -0.18278596 0.074326366
0.16139199 -0.085389234 0.012528068 -0.19105424 0.10019968 -0.03481323 -0.032672673 -0.055440426
0.15256071 0.04272706 -0.0034822745 0.05824246 -0.02387939 -0.027581546 -0.17661594 0.01222484
0.058319382 -0.02069603 -0.10030369 -0.16593628 -0.16684835 0.17747036 0.11783606 0.12652417
00000000: 855e a93c c55a 18be 19d4 94bd 623e 18be
00000010: bac2 9d3d 04a1 cbbd 3e2c 3bbe 6c38 983d
00000020: f143 253e 8de0 aebd 8742 4d3c b9a3 43be
00000030: 7d35 cd3d 5198 0ebd c8d3 05bd 8015 63bd
00000040: e038 1c3e 9202 2f3d df36 64bb a58f 6e3d
00000050: b69e c3bc b2f2 e1bc cfda 34be b24a 483c
00000060: 4ee0 6e3d b98a a9bc 056c cdbd 33eb 29be
00000070: 4bda 2abe caba 353e 0854 f13d 8d8f 013e
