trained_models/aamas22-main/final_model.pt (torch, 107951 bytes, 56 tensors)

encoder_input.0.weight f4 [32, 75]
00000000: a57e fd3c 8e6f 53be 27bf 6abc 4146 af3b
00000010: 6258 d13c be9a 713e cde1 a23d 25a1 183e
00000020: 9663 22be 6cc7 253e 4219 89bb e4d0 96bc
00000030: 15f8 75bd 10b8 bdbd 38e1 073d 4ee2 f3bb
00000040: 2d7e ecbd 8fcb 7d3c 2a5b f73d 01ab a13d
00000050: a755 3abc 0c88 953c 9f7d 76bd 5ed4 4cbd
00000060: c07a aabd e181 efbd fd8c 543e ee1d 9bbd
00000070: abad 04be 9e0d 94bd a8a2 e53b 8894 203c
00000080: 4da5 1c3e 3881 5ebd a680 45be a71e f43d
00000090: 9df9 6b3d cd65 b23d 7533 dcbd 4f39 5cbd
000000a0: b60d bb3d 0b37 bdbe ba2a 963e a071 e1be
000000b0: 02c4 70be 0bd7 023e 0304 16bd 2e32 363e
000000c0: dcf6 413e c5e7 b2be 4d03 d1be 88f1 1dbe
000000d0: e20b 423c b6f2 a0be cf43 f9bd fa41 68be
000000e0: 6b2b fc3d d32d cc3e e11c d63d fa2c 413f
000000f0: e2ba b4be e6cd 8e3e f072 993e 970f 71bd
00000100: c253 c53d ab1d 1ebe 1089 bcbe 17d1 95be
00000110: 0bb3 babe 6055 293e 5d51 c23c 0165 c63d
00000120: 9e8d 42be 368e 2ebd bd91 d03d 017d 57be
00000130: 831b 2b3c 2dd7 283a 69d6 753c e0b6 bcbc
00000140: cf71 febc d7fc 1fbe 0c1f 7f3e c7a3 6a3e
00000150: 2ad6 0dbc ceae 663c 709d cb3c e607 403e
00000160: fc44 b53d 487e 733d a88d a9bd 90ab 09be
00000170: cfff 863c c33a 573d 175f 8cbd 5591 3ebe
00000180: 30d0 db3d 3ffb 253e 61e8 853d 1646 583e
00000190: 2817 e6bc 91c8 5d3d 33ce c03d ba2d c73d
000001a0: 3c98 2c3e 61fa 41bd 94ef 4abe c52d 703b
000001b0: 12ad 893e fd99 04be e774 063e 110d 873c
000001c0: c10d a5bd 1714 7c3c 330e ea3c d4ca db3c
000001d0: 9803 683d 773c 5ebe c89a fb3e 0304 133f
000001e0: 7e24 123f dd43 313f 73d5 623e 90a3 b6be
000001f0: b938 01bf 760b da3e 835a 483d a43b b5bd
00000200: 13be 6abd 1b07 9ebe a2d7 a13e ecf8 9cbd
00000210: cf1b 9a3e 2e63 78be 4873 bfbe 147c 523e
00000220: 47e4 8fbe 8952 c6bd 823f 933e a2cf ee3e
00000230: 7c17 85bd c193 213f fe32 813e e01a a13e
00000240: 03e1 b6bd de98 183c 4b7d cc3d fce3 ed3d
00000250: d298 963b b12f 12be 3045 5ebe 8f88 893d
00000260: 7b75 623b aefb 653c fb82 06bc 9dcd 2f3e
00000270: 068f 36be e6f5 163e 2983 af3d 4efa 863d
00000280: 7508 ed3c 8cad 0cbd 00a7 1c3d 6686 39bd
00000290: 3943 cc3d 0efd f43d 3c45 b03c ac06 6f3d
000002a0: 3835 943d 5554 a9bc 24b6 c63d aaa9 cabc
000002b0: 545a 5e3d c446 c7bc 862c 5a3d b496 833a
000002c0: c82b 89bc f4cc c7bd 7cb4 b7bd 47e8 8b3d
000002d0: 67a1 5f3d a83b 4abd 1764 a83d 2bfb 763e
000002e0: 63f6 9abd 9c1a b2bc c069 d03d 56d1 82bc
000002f0: f74f 513d 791a 9fbd 55cc 73bd 66b4 47be
00000300: ba3d dd3d 724f 743d f4ca a43d fa4a b13e
00000310: 9891 c73e a559 dc3e a4b0 09bd 21f9 ebbe
00000320: c377 53bd 5751 51be 5d6e 17be 20f3 b9bd
00000330: d450 a1be a819 7e3d d943 723e f39f 023f
00000340: b238 e4bd 801c ba3e 3d65 ee3b bb5b 153e
00000350: 68d2 d03d 8ea7 e23d 471e c93e 10c1 93be
00000360: 764f 8e3e 0ca8 aebd 0a0e b2bd 0efc 363d
00000370: 2459 0cbc 19ff 8b3e 89ae abbd ea1d 263e
00000380: 3546 d8bd a4f1 2d3e db88 2f3e 08d2 82bb
00000390: ade8 ed39 41a8 613c c971 c0bc 3de5 633d
000003a0: 2a16 613e ed48 20bd 804a 1f3d 470b 713d
000003b0: 7554 0b3d ac20 53be 321d 413d 01a8 943d
000003c0: 3f35 a4bd d214 b63d 9785 8abb 6f24 5abc
000003d0: 9541 533d 3560 b0bd 89a3 8ebd 9809 4c3d
000003e0: 862b 423d 6cc7 a8bd 9b93 fbbd 4036 d2bd
000003f0: f17c 81bd d6d8 2c3e 497e 9abd de94 793d
0.030944178 -0.20648023 -0.014327801 0.005348951 0.02555484 0.23594186 0.07953224 0.14905222
-0.15858302 0.16189355 -0.004183919 -0.018410154 -0.060051043 -0.09263623 0.03317377 -0.007442749
-0.115475036 0.015490427 0.12077935 0.078939445 -0.01137296 0.018253349 -0.060178395 -0.050007217
-0.08324194 -0.11694694 0.20756908 -0.07574068 -0.12956874 -0.0722916 0.0070079155 0.009801038
0.15297432 -0.05432245 -0.19287357 0.11919909 0.057611097 0.08710823 -0.10752002 -0.05376559
0.091334745 -0.36956057 0.29329473 -0.44032001 -0.23512271 0.12777345 -0.03662492 0.1779258
0.18941826 -0.3494245 -0.4082283 -0.15424168 0.011843653 -0.31435174 -0.121711366 -0.22681418
0.12312969 0.3987871 0.10454727 0.75459254 -0.3529883 0.27891463 0.29970503 -0.05885276
0.09635116 -0.15441005 -0.3682332 -0.29261085 -0.36464724 0.16536474 0.023720438 0.09687234
-0.18999335 -0.04261609 0.10184047 -0.21043779 0.010443571 0.0006440755 0.015004733 -0.02303642
-0.031060128 -0.15623794 0.24914187 0.22914039 -0.008657018 0.014079763 0.024855345 0.18753013
0.08851048 0.059446603 -0.08278972 -0.13444352 0.0164794 0.052546274 -0.068540744 -0.18610127
0.10733068 0.16209124 0.065384634 0.21120486 -0.028087214 0.054146353 0.094143294 0.097255185
0.16854948 -0.04735792 -0.19817954 0.0036648375 0.26889855 -0.12949367 0.13130532 0.016485723
-0.08059264 0.015385649 0.028571224 0.026830114 0.056644052 -0.21702753 0.49141526 0.57427996
0.5708693 0.69244176 0.22151737 -0.35671663 -0.50477177 0.4258687 0.048914444 -0.08849266
-0.057310175 -0.30864796 0.31609827 -0.076646656 0.3009934 -0.24256584 -0.3739264 0.20555145
-0.2810385 -0.09683711 0.2875939 0.46642786 -0.0649862 0.6311608 0.25234216 0.31465816
-0.08929636 0.00931379 0.09984835 0.1161575 0.0045958543 -0.14276005 -0.2170608 0.067154996
0.0034554887 0.014037056 -0.008209939 0.17168279 -0.17827997 0.1474224 0.08569939 0.065907106
0.028934697 -0.034345195 0.0382452 -0.045294188 0.09973759 0.11962329 0.021517389 0.058355972
0.07236713 -0.020670095 0.09702709 -0.024739105 0.054285362 -0.024325736 0.053265117 0.001003942
-0.01674451 -0.097558886 -0.089699715 0.06831413 0.054597285 -0.0493733 0.082222156 0.2411925
-0.07566526 -0.021741204 0.1017642 -0.01596896 0.05110165 -0.07768721 -0.059521038 -0.1950241
0.10802789 0.059646077 0.08046523 0.34627515 0.38978267 0.43037143 -0.033615723 -0.46088508
-0.051627886 -0.20441185 -0.14788194 -0.090795755 -0.3150698 0.062036186 0.23658694 0.51025313
-0.11143626 0.3634987 0.007275252 0.14585774 0.10196382 0.11067115 0.39280912 -0.28858232
0.27795 -0.08528146 -0.08694084 0.04467397 -0.008566175 0.27343062 -0.08382899 0.16222349
-0.10560266 0.1698671 0.1714205 -0.003992323 0.0004537752 0.013773025 -0.023491757 0.05563854
0.21981111 -0.039132047 0.038889408 0.058848646 0.03401609 -0.20617932 0.047146983 0.07258607
-0.080179684 0.0889069 -0.004227351 -0.0133143505 0.051576216 -0.086121 -0.069647856 0.049813837
0.04740479 -0.08241162 -0.12284013 -0.102642536 -0.06322659 0.16879591 -0.07543618 0.060932986

encoder_input.0.bias f4 [32]
00000000: 9990 d73d 7b5e 69bd 8bfc 99bc 5f56 debc
00000010: 8ac2 acbd c6b8 bbbd 760e 46bd 6322 47bc
00000020: c0f2 a2bd 94dd 693d ddc4 b93c e39c 65bc
00000030: 8663 0c3d 0a6e 3fbd d39a ec3d c1c1 d93d
00000040: e151 9b3d 07dd ccbd 20cd 4abc 2f98 b1bc
00000050: 0213 1d3d 0e84 593c 16ae 9b3d 9092 ee3d
00000060: 7557 cf3d f878 dc3c 5204 9dbd bbc4 8fbd
00000070: d888 b2bd 2c6e 65bd ebb0 e1bd 6266 0b3d
0.10525627 -0.05697487 -0.01879718 -0.027140794 -0.08435543 -0.09166102 -0.048353635 -0.0121541945
-0.07956457 0.05709608 0.02267688 -0.0140144555 0.0342746 -0.0467358 0.11552968 0.10632659
0.075839765 -0.10003095 -0.012378007 -0.021679012 0.038348205 0.013276113 0.07601564 0.11649048
0.10124103 0.026913151 -0.0766684 -0.07019945 -0.08717507 -0.05601327 -0.110200725 0.034033187

encoder_input.1.weight f4 [32]
00000000: 6423 6f3f 0463 6a3f 445d 8f3f bb3e 873f
00000010: 1cfc 823f 2412 5e3f 44fa 843f 6685 9e3f
00000020: 15c8 b13f b1e0 6f3f 936d 653f 5713 333f
00000030: e0bb 463f a563 483f 42e8 8d3f 1e2c 913f
00000040: 6e21 843f bd9c 643f 3aa9 783f 938b a13f
00000050: a520 6e3f 429b 733f a2d0 743f 56c8 883f
00000060: 1400 6a3f 793d 803f 5721 563f b431 7b3f
00000070: 0ca7 673f 4c87 963f 3d96 453f 0832 793f
0.93413377 0.91557336 1.1200337 1.0566019 1.0233188 0.8674643 1.0388875 1.238446
1.3889185 0.93702227 0.8962032 0.69951385 0.77630424 0.78277045 1.1086504 1.1341588
1.0322702 0.89301664 0.9713322 1.262072 0.9301856 0.9515878 0.9563085 1.0686138
0.9140637 1.001876 0.8364462 0.98122716 0.9048927 1.1760039 0.7718237 0.97341967

encoder_input.1.bias f4 [32]
00000000: 396d 353c 9ca7 eabd 217f 243e 9731 e7bd
00000010: 8e4b c2bd 27e6 b5bc a51b c03d 236c 013e
00000020: 7d8f 533e 0829 a13d 4fa2 623d 86af 353d
00000030: 69b7 cd3d 654c 9ebd dd76 853d 974a d4bc
00000040: 72d6 12bc 7e13 d63d 1331 12be fb83 8c3d
00000050: add8 033e 6eb1 573b b1a9 133d 4218 f6bc
00000060: 617f 323e 8f1c a53c 141d 15bd ea9e afbd
00000070: 4131 003e ff46 2a3e ae0a 4abc 038f a63d
0.011073404 -0.1145775 0.16064121 -0.112887554 -0.09487067 -0.022204472 0.09380273 0.12638907
0.20660205 0.07869154 0.05533057 0.044356845 0.10044748 -0.07729415 0.06516812 -0.025914473
-0.008962261 0.104529366 -0.14276533 0.06861111 0.12875624 0.0032912153 0.036050502 -0.030040864
0.17431404 0.02015522 -0.036404684 -0.08575232 0.12518789 0.16628645 -0.012331648 0.08132746

encoder_input.1.running_mean f4 [32]
00000000: d642 2a3e 79ac 09bd 73df 943e 4c94 99be
00000010: 2333 71be 4dbc 9bbd 2867 9a3e 0aeb 2d3e
00000020: 6841 b03d 21ca 9dbe c0ac 42be 92d2 343e
00000030: fe83 833d 80b7 b2bd 955d 953e 8590 2e3e
00000040: d459 263e e58e 92be a1bd 913e 9d78 363e
00000050: 0fd3 79be 6873 c6bd aa4b adbd ca6d a63e
00000060: f89a 0abe fcad 8f3e d723 cbbe 6081 ab3d
00000070: 0ef3 9a3e 20bb 5ebd e8c4 8ebe 0c1c 4ebb
0.16627058 -0.03361175 0.29076728 -0.29995954 -0.23554663 -0.07604275 0.30156827 0.16984192
0.08606225 -0.30818275 -0.19011211 0.17658451 0.0642166 -0.08726406 0.2917296 0.17047317
0.16245204 -0.28624645 0.28464988 0.17819448 -0.24396919 -0.09689981 -0.084616974 0.32505637
-0.13535678 0.28062427 -0.3967578 0.08374286 0.3026356 -0.054377675 -0.27884603 -0.0031449823

encoder_input.1.running_var f4 [32]
00000000: fe52 913c 289f 863c 233b c23c 358f 8f3c
00000010: da32 b53c fc44 c73c 34fc ad3c 705c 193b
00000020: 9bb0 343b 6049 ae3b 9c9d 9e3c a2cc 3a3b
00000030: 2e6b 483c 4957 bc3b 274e 913b 08eb 823b
00000040: 366f a33c 2405 e03c 7a33 4e3c 1dd3 523b
00000050: 0f68 803c 0a91 b43c 7be2 9a3c fd4b ef3c
00000060: 5854 0d3c 722e 2b3c df97 7b3c f2b9 983c
00000070: f53b cc3c 54ca bc3c adc3 ee3b a751 8e3c
0.01773977 0.016433313 0.02370984 0.017524341 0.022118974 0.024324887 0.021238424 0.0023401044
0.0027571085 0.0053188056 0.019362263 0.0028503318 0.012232585 0.00574771 0.0044343653 0.003995303
0.01995049 0.027346201 0.012585515 0.003216929 0.015674619 0.022041816 0.018906822 0.029211039
0.008626066 0.010448085 0.015356033 0.018643353 0.024930933 0.023045696 0.00728651 0.01737292

encoder_input.3.weight f4 [32, 32]
00000000: 25e3 373d 5f30 4ebe b0d1 c3bd 2fe3 363e
00000010: 2336 113e 41ac 84bc 3f44 9abd 8135 b3be
00000020: 8750 c4be c301 55bd 160b 063d afc1 be3d
00000030: 8353 c2bd 3376 96bd 4d49 77be fba5 243e
00000040: cd0d 23bd 2ab6 203d f9e2 38be 6f9e 80be
00000050: 4a13 c5bd 8174 843d 680e 05be 7c70 e83d
00000060: b8a6 24be 4313 1fbd 4323 b93d 0611 d1bd
00000070: c93e 3abe 0db7 073c f3cd 323d 11a6 913e
00000080: d5e7 dfbb 3dce 51be 9e9d 2abe c43b 82bd
00000090: bed9 f33d 4027 bf3d b9a3 34bc bebc a1bc
000000a0: 5469 e43c bfc8 1abe 94b8 123b 97a1 d13d
000000b0: 1427 7bbd 4eca e7bc afbf 3fbe d0af 3a3e
000000c0: c979 6dbe 6ba5 25be 525d 32be 04b5 1dbe
000000d0: 3e70 b03d d5da 8ebd 2d4f 86be b54d 1abe
000000e0: f133 22bc 449b 673e a55c 27bd 5dd7 8e3b
000000f0: 9aaf b8bd 24f5 8fbe 4451 c9bd 7ac9 4e3e
00000100: 54db 433c 507c 0f3e 4417 283e 061e 6d3e
00000110: d6a2 8ebe a0ff 35be 1b6d cdbe 0e9f 3cbd
00000120: d31e eabd 6112 993d 1a7e 9fbe 34c4 503d
00000130: 6797 4a3d cf9a 65bd fba7 65bd eea0 10bc
00000140: f585 dc3c 7c55 723e 20fe 123c dab6 14be
00000150: 4eb8 b53d 1482 e23d 353b 913e 1e68 93be
00000160: 2b9b 12be 71d9 80be 8dc1 733d cc62 043d
00000170: 8313 3bbd ac79 19bd 9bdd a43d 9491 77bd
00000180: a416 84bc 1347 0e3e edb8 403e 4520 a0be
00000190: 3323 8dbe 3031 3dbe 21b7 e7bd ab48 43be
000001a0: 04c2 3cbe c1eb c8bc 39ee 433d aa85 8d3c
000001b0: 8eee 66bb f086 9fbb b3ff 41be 9ada c63c
000001c0: 55d1 d13d 7308 9e3c f28d 183e 5c60 99be
000001d0: c8d2 003e 9232 343c a7c2 a43d fb07 d83c
000001e0: 1c33 f6bc 7565 59be e589 d13d 0826 8b3d
000001f0: ed7b 113e 91f6 a6bd 124e b9bd 80bf 0b3d
00000200: 907c 403e 85dd 58bd a74a d2be d1c5 173e
00000210: 85ce 333e f1f2 a5bc e6bd 073d fa98 6cbd
00000220: f656 30be 3051 9fbd cbd2 423e aaeb eabc
00000230: 170a e13d d579 0ebe 988c 2b3d 5a97 ff3d
00000240: 3f2c 07be 9e87 11be 54ac c33a c71e 42be
00000250: 3b2d f43d ad5f 9bbe bc5f 9abd 6153 293e
00000260: b093 76bd 8194 9b3d 72a4 fe3b f0db 18be
00000270: cff2 d3bd 9f69 34bd c2b6 023b d25e 18be
00000280: 29e6 8b3d 693b 0abe d53b e73d 94e8 bd3d
00000290: ea4f 673d 5163 03be 440a 2d3e ce68 d8bd
000002a0: 76c2 b23c 1421 b63e bb08 a43b c7d7 15bd
000002b0: 030c 703d 061c 583e 4e4b dd3d 01ff adbc
000002c0: 015f 003d 7030 523d 71d9 8abd 3f91 0cbc
000002d0: b7e0 07be 6ffa a03a 0aab 993d 11a5 063e
000002e0: 118a c63d 344a 98be a572 ce3d 8341 373e
000002f0: 2215 133e 5d62 a4bd 5271 353e 1f38 3f3e
00000300: 1e5c 97bd 5794 4c3e 6092 163e 4225 b4bd
00000310: 3f0c a7bd 83a1 0abe 1a7c f1bd 0d1d 43bd
00000320: eb4c 88bd 7aff cebd d756 b0bd 9db5 523d
00000330: eb36 d9bd 7900 103b 3f47 e03d ed12 fcbc
00000340: 49e2 8dbd 3707 163e a820 30be 9d4d 223e
00000350: c650 6a3c 887f 073e 6e8d 6c3a 0d68 e8be
00000360: 356f 9ebd dbc3 2cbb df69 7dbe aaf1 08be
00000370: fa08 86be 3f36 f63d d281 88bb da86 163d
00000380: cff7 f63d 4bc5 42bd ecd1 da3d 7312 92be
00000390: 59c0 bd3c 8a17 a3bd 9126 01be 9600 7dbe
000003a0: df14 c8be 300a 863d f955 8bbc bd9d 35bc
000003b0: 0911 e9bc a917 cebd 6c81 edbd 24d4 3a3c
000003c0: 6b78 4d3e 7a05 1b3e 95d1 db3d 87da acbe
000003d0: d621 1e3e 854c af3d ebdc 2b3e 3b98 1abb
000003e0: 1a65 55bd 6c93 fbbd 72e1 43bd 9389 803d
000003f0: 8d94 153d 418b 77be b354 993d 64c8 76bd
0.044894356 -0.2013564 -0.09561479 0.17860101 0.14180808 -0.016195418 -0.07532548 -0.35001758
-0.38342687 -0.052003633 0.032725416 0.09314286 -0.09488585 -0.073467635 -0.24149056 0.16078942
-0.039808083 0.039236225 -0.18055333 -0.25120875 -0.0962282 0.06467534 -0.12993777 0.1134958
-0.16079223 -0.03883673 0.09039929 -0.10208325 -0.18188013 0.008283389 0.04365344 0.2844701
-0.0068330565 -0.2048883 -0.16661689 -0.06359056 0.119067654 0.09333658 -0.011025363 -0.01974332
0.027882256 -0.15115641 0.002238785 0.10235899 -0.061316565 -0.028294709 -0.18725465 0.1823113
-0.23190989 -0.16176383 -0.17418411 -0.15401083 0.086151585 -0.06975333 -0.2623228 -0.15068705
-0.009900079 0.22617823 -0.040859837 0.0043591694 -0.09017868 -0.28116715 -0.09829953 0.20194045
0.011954147 0.14012265 0.16415125 0.23155984 -0.2785861 -0.17773294 -0.40122303 -0.046050124
-0.114316605 0.074742086 -0.31150895 0.050968364 0.049460795 -0.05605584 -0.0560684 -0.008827431
0.026919344 0.23665422 0.008971721 -0.14522877 0.08873044 0.11059967 0.28365484 -0.28790373
-0.14317004 -0.25165895 0.059510756 0.032320783 -0.045672905 -0.03746955 0.080500804 -0.06044157
-0.016124077 0.138943 0.18820544 -0.3127462 -0.27565917 -0.18475795 -0.11314226 -0.1907069
-0.18433386 -0.024526479 0.04783461 0.01727565 -0.0035237405 -0.0048683807 -0.18945198 0.02427416
0.10245005 0.019291138 0.14897898 -0.2995633 0.12580407 0.010998385 0.080449395 0.026370993
-0.030053668 -0.21230109 0.102313794 0.06794363 0.1420743 -0.081524976 -0.09048094 0.034118176
0.18797517 -0.052945632 -0.4107258 0.14821555 0.1755925 -0.020257445 0.033140086 -0.057763077
-0.17220673 -0.07779157 0.19025724 -0.028676827 0.109882526 -0.13913663 0.041882128 0.1248004
-0.13200472 -0.1421189 0.0014928677 -0.18957053 0.119226895 -0.30346432 -0.07537791 0.16535713
-0.06019944 0.07596684 0.0077710683 -0.1492765 -0.103490464 -0.04404604 0.0019945358 -0.14879921
0.06831009 -0.13499226 0.11290709 0.092728764 0.056472696 -0.12830855 0.16898447 -0.10566865
0.021821242 0.35572112 0.0050059236 -0.036582734 0.058605205 0.2110444 0.10805379 -0.02123976
0.031340603 0.051315725 -0.06779755 -0.008579551 -0.13269316 0.0012281666 0.07503326 0.13148905
0.09694303 -0.29744112 0.100804605 0.17896084 0.1436353 -0.08026574 0.1771901 0.18673752
-0.07390617 0.19978462 0.14704275 -0.08796169 -0.08156633 -0.13538174 -0.117912486 -0.047635127
-0.06655296 -0.10107322 -0.086103134 0.05144273 -0.10606178 0.0021972938 0.10951089 -0.030770743
-0.06927926 0.1465119 -0.17199957 0.1584992 0.014301484 0.13232243 0.000902376 -0.45391884
-0.07736055 -0.0026361856 -0.24747418 -0.13373438 -0.26178724 0.12022065 -0.0041658664 0.0367497
0.120589845 -0.047551434 0.10684571 -0.285297 0.023163008 -0.07963474 -0.12612368 -0.24707255
-0.39078423 0.06544912 -0.017008768 -0.011084971 -0.028450506 -0.100631066 -0.11596951 0.011403117
0.20065467 0.15138808 0.10733334 -0.33760473 0.15442595 0.08559517 0.16783492 -0.0023589272
-0.05209837 -0.12283978 -0.047822423 0.0627624 0.036518622 -0.24174215 0.07486858 -0.0602497

encoder_input.3.bias f4 [32]
00000000: 8870 fbbd 9784 1dbe aaf1 8a3d 36b4 363d
00000010: ddf7 b4bd 1b7d 263e 8e08 853d a581 a23d
00000020: 8f9d 83bc bba8 003e 4409 b4bd cad6 19be
00000030: d82d fcbd a231 22be 8ec8 033e 1932 133d
00000040: c503 2b3e a907 7fbd 78e2 ffbd 22c7 293e
00000050: 491e 7abd 0e58 e0bd 4729 1bbe 2b1d 31bc
00000060: ab4b d3bd f31f 88bd 1840 ddbd 3959 0fbb
00000070: a7b5 0e3e 9a63 4a3c 5837 f23d b71e 23bd
-0.12277323 -0.1538261 0.06784375 0.044605456 -0.08836339 0.16258661 0.06495772 0.07934884
-0.01606634 0.12564366 -0.0879083 -0.15023342 -0.123134315 -0.15839246 0.12869474 0.03593645
0.16700657 -0.062263165 -0.12494367 0.1657987 -0.06106404 -0.10954295 -0.15152465 -0.010810177
-0.10317167 -0.06646719 -0.108032405 -0.002187325 0.13936482 0.012352848 0.11826962 -0.039824214

encoder_input.4.weight f4 [32]
00000000: 2583 903f 78cb 6d3f b747 793f 4b70 953f
00000010: 54a0 753f ab49 c63f 25a0 813f edac 963f
00000020: 6b8e 553f d20d 8e3f 05e2 883f 1932 923f
00000030: a036 a63f 5ce7 933f c96a 7d3f e12b aa3f
00000040: b9b7 bc3f c524 cc3f 04a1 993f d522 893f
00000050: 3499 b03f 98d2 e33f 1712 7e3f 6f7b 703f
00000060: 3d94 b23f 499f 813f 4b7d 873f a0b9 8d3f
00000070: e928 813f 5296 7a3f fef4 7d3f c009 5f3f
1.1290022 0.92888594 0.97375053 1.1674894 0.95947766 1.5491232 1.0126997 1.1771523
0.8342044 1.1097968 1.0693976 1.1421539 1.298542 1.155498 0.98991066 1.3294641
1.4743568 1.5948721 1.2002263 1.0713755 1.3796754 1.7798643 0.9924635 0.93938345
1.3951489 1.0126735 1.0585111 1.1072273 1.009061 0.9788562 0.99201953 0.8712425

encoder_input.4.bias f4 [32]
00000000: 686b db3e 3712 a73d 996e 373e bd4a e23e
00000010: 333b c83d 3b84 383f b7f1 093d 425c 163f
00000020: d1da 163e a1a3 b83e 972a 9e3d 07a4 f43e
00000030: 3c5f 303f 4736 cb3e 193b 923e 0324 ec3e
00000040: 2693 333f 94a4 353f e1ef eb3e c8a5 583e
00000050: 3743 1a3f ba82 643f 2fa9 363e ef72 fa3d
00000060: 6677 f53e 9d9a 2e3e 24c3 ca3e 2864 2d3e
00000070: c47c 713e f28f a7bd 26f5 2f3e a516 daba
0.42855382 0.08157771 0.17913283 0.44197646 0.09776916 0.7207677 0.033677783 0.58734524
0.1473191 0.3606234 0.07722967 0.47781393 0.68895316 0.39689848 0.28560713 0.46121225
0.70146406 0.7095425 0.4608145 0.2115699 0.6025881 0.8926197 0.17837976 0.12228953
0.47942656 0.17051168 0.39602005 0.16932738 0.2358275 -0.08181752 0.1718336 -0.0016638829

encoder_input.4.running_mean f4 [32]
00000000: 8170 8bbf 8441 48bf 990a d6be 3bd8 08bf
00000010: c7e3 19bf 47bb 263f bfb0 a2be c5da 21bf
00000020: 16e5 62bf 8dfb 0abf 6a5d 953e 8f3b 08bf
00000030: a79f 13bf 3af6 5cbe 1997 febd 3030 97be
00000040: fcc7 29bb 1998 44bf 7879 9dbf cc8e ecbe
00000050: ddce 3dbf b2cd 37bf 444b 53bf 7482 a0be
00000060: a92b 013e d89a 87bf 887e 80bf e017 d3bc
00000070: 18d7 46bf 0b52 c3bd 9710 92bf 950e 00be
-1.0893708 -0.7822497 -0.4180496 -0.5345494 -0.60113186 0.6512951 -0.31775472 -0.6322444
-0.8863081 -0.54290086 0.29172832 -0.5321588 -0.57665485 -0.21578303 -0.12431163 -0.29528952
-0.0025906553 -0.7679458 -1.2302694 -0.46202695 -0.74143773 -0.7179824 -0.8253672 -0.31349528
0.12614311 -1.059413 -1.0038614 -0.02576822 -0.77671957 -0.09537133 -1.1411313 -0.12505563

encoder_input.4.running_var f4 [32]
00000000: 12f0 4c3f 8e19 fb3e 1c58 813f b976 403f
00000010: 1346 153f ab0e 8f3d fb55 2a3f a32e 763f
00000020: 24fa 0b3f 8422 4d3f 8414 a63e baaf 4c3f
00000030: 354b a03f 72b1 043f abae 953e 2589 0c3f
00000040: 4dd9 a33e c150 2b3e a037 e83e 729a 3b3f
00000050: f17d 063f 96b0 3e3f 489e 213f 6c73 6a3e
00000060: d1a5 ba3d d00d 813e fde8 c83f cc22 403e
00000070: a096 803f 4c7a 1f3f dff9 103f b001 733f
0.8005382 0.49042934 1.0105014 0.75181156 0.5831005 0.069852196 0.66537446 0.9616491
0.5467856 0.8013079 0.32437527 0.7995564 1.2522951 0.5183326 0.29234824 0.54896766
0.32001725 0.16730024 0.45354939 0.7328254 0.5253592 0.744882 0.63132143 0.22895592
0.09113658 0.2520585 1.5696102 0.18763274 1.0045967 0.62295985 0.56631273 0.9492445

encoder_input.6.weight f4 [64, 32]
00000000: 34a2 143e ce30 3e3e 5cb4 2c3d ca6d b7be
00000010: a655 353e d7dd 20bf bca9 78be 71b1 13be
00000020: e8e9 f4be 774a 98be cd02 de3d 70d0 81be
00000030: f950 87bc f5ae 35be 4259 febd 701b 9c3e
00000040: 5b95 b3be e227 363e 206b 3dbe 512c 76be
00000050: a70b 043e e662 d9bf 6d82 14bd 7534 75be
00000060: d768 12bf 1e31 6abe ffc5 07be 7ea1 05bf
00000070: 182f 58bc 08a4 ce3d 5fdd 08be 9fdb 3bbd
00000080: 7865 69bd 6de0 f93d c2ce fbbe a8d2 12bf
00000090: a053 80bd 15b6 1fbf eff8 cdbe 7996 60be
000000a0: c0a7 8ebd fae8 9ebe 3c47 de3e 6b18 a1be
000000b0: 018b 6fbd 12db f6be 2cfe 46be 2ede fe3e
000000c0: 61a4 4bbf 2a7d 1f3f 40b4 083e 0e97 8cbb
000000d0: ad5a 14bd 6d99 48bf 3f57 8abe c075 8dbe
000000e0: f2f1 9dbf 08dd b5be 674e e1be 507c 0abf
000000f0: 70fd 06be 1fae 7bbd bd70 373c 2c85 9f3d
00000100: c113 c8be 8d7b 06bd b00a 443d 39d0 d93d
00000110: 71fe 0cbe ed74 d9bd d614 b6be 37d5 cf3d
00000120: 2e06 b9bd c566 ba3e 152c 04bf 855c cd3d
00000130: f75f d9be 8108 a6bd a1bd 163d e296 33bf
00000140: d68d 0fbd 15fc aabf 12fe 57bd 9e64 c9be
00000150: 6248 52be ca00 bebe cc2a 8cbe 892e ad3d
00000160: b795 e4be 1f33 643e 2ce9 bd3c 7133 99bd
00000170: aff4 32be 8d0b dbbc 1fbc d6bd 9cd5 1a3e
00000180: 3ba0 34be fd68 39be c3fa 6abe b172 e83d
00000190: 524a 293e 7354 04be 2550 62be 8412 033e
000001a0: 25e5 63be 8dbc 4ebd 9113 25bf 7e9e 293e
000001b0: daf6 06be 5251 af3e 9665 38be 0a97 fabd
000001c0: 8b20 363e 7e33 e1bf 9f1d 22be 36f9 e4be
000001d0: 955a eb3d e42a a1bf 73eb 97be 5d6b cdbe
000001e0: ef5e fbbe 17cf 493e bc3a 23be 0ab6 06bf
000001f0: 6bfa 54be 5c1a 7d3c e790 90be aabe b53d
00000200: 0797 2fbe d7c3 6bbd 6ed1 97be 4e59 123e
00000210: bb6d 5dbd 7037 69bd f224 40be 9feb e03d
00000220: e92a d63c a2d3 9ebe 6962 09bf 2b5e 8c3e
00000230: 8920 f53d dcca 163e 39f8 713c 6ad8 b93d
00000240: 6276 e83d 9ab7 a8bf d2b5 59be 2f39 59be
00000250: b631 933e b1e9 b4bf dd0c c8be 71d2 8dbe
00000260: 1aa4 4cbf e4d4 95be 9cfd 5cbd af54 4dbf
00000270: 842c afbd f52a 90bd 5582 86be c52e 62bd
00000280: 8769 873e 4587 b53d 415e 5d3e 6e17 413e
00000290: a16e 8e3d 4f37 9d3e 0280 ef3d 07ee 833e
000002a0: f34b 063e c949 463e f65a 353e d492 823e
000002b0: c405 883e 604c 8b3e a588 343e 448a a03e
000002c0: f85f aa3e 532a ad3e 9f59 b93e 64e6 d33d
000002d0: 944d 813e f75c bb3e adf7 333e 14dd 883e
000002e0: 3e6e a23e 0820 4f3e 2d00 323e 66a5 fd3d
000002f0: aacb 063e e098 f13b efdf 283e b5f8 1c3d
00000300: 3cab 4bbe 81d6 e33d 125e d0bd 6c1d e4be
00000310: 6bfb aabe e2bf 41bf c667 8c3d 0e5d 68be
00000320: 05bc 4abe da48 1fbf 8d24 b83d 032d 01bf
00000330: cba7 4bbe 2e4a b6be d9fd 8ebe a825 e5bd
00000340: bff9 7bbf 41e1 063f da90 2c3c af33 773e
00000350: 2889 19bf e1e7 8bbe c51e 653d bf45 72be
00000360: bc14 0fbf 0f9b 253e 6bee 00bf 3f2a 12bf
00000370: 1386 343d fed9 fdbd f0a4 923d 10ac b93c
00000380: df22 94bd 4588 36be dff2 b6be 4aac 0dbf
00000390: 50c9 b2be 1660 7abf 6859 c53e e410 b8be
000003a0: e983 5bbe 25b9 83be cf67 babb 8c60 16be
000003b0: ad42 80be 3706 03bf 64f6 82be 2ea1 e6bd
000003c0: 93d3 67bf 32e4 2c3f 1f31 af3d 1059 9d3e
000003d0: 1327 33bf a3e2 1ebe 20d7 92bc 30d9 acbe
000003e0: 09ad 40bf 22a7 f43d b34e 32bf afcc 38bf
000003f0: f11f a5bd 1698 1a3e f9e9 863d 62d0 903c
0.14515 0.18573305 0.04216419 -0.3582595 0.17708454 -0.628385 -0.24283499 -0.14423157
-0.47834706 -0.29744312 0.10840378 -0.25354338 -0.016518103 -0.17742522 -0.12419368 0.30489683
-0.35074887 0.17788652 -0.18497896 -0.24040343 0.1289507 -1.6983306 -0.036257196 -0.23945792
-0.5719122 -0.22870299 -0.13259123 -0.5219954 -0.013194822 0.1008988 -0.13365696 -0.045863744
-0.056981534 0.12201009 -0.4918118 -0.57352686 -0.0626595 -0.6238721 -0.40228984 -0.21932401
-0.069655895 -0.31037122 0.43413723 -0.31463942 -0.058482174 -0.48214012 -0.19432896 0.49778885
-0.795477 0.6230036 0.1335001 -0.004290468 -0.036219288 -0.7835911 -0.27019688 -0.276289
-1.2339461 -0.35520196 -0.4400513 -0.54095936 -0.13182616 -0.06144535 0.0111963125 0.077890724
-0.3907757 -0.03283267 0.047861755 0.106354184 -0.13768937 -0.10618005 -0.35562772 0.101480894
-0.09034382 0.36406532 -0.51629764 0.10027412 -0.42456028 -0.08107091 0.036801938 -0.70152104
-0.035047375 -1.3358179 -0.052732535 -0.39334577 -0.20535424 -0.37109977 -0.273764 0.084561415
-0.44645473 0.22285126 0.023182474 -0.07480515 -0.17476152 -0.026738906 -0.104851 0.15120548
-0.17639248 -0.18106456 -0.2294722 0.11350001 0.16532257 -0.1292284 -0.22100885 0.12800032
-0.2225538 -0.050472785 -0.6448298 0.16564366 -0.13180104 0.3424173 -0.18007502 -0.1223584
0.17785852 -1.7593839 -0.15831612 -0.44721383 0.114918865 -1.2591214 -0.2967182 -0.40120974
-0.49095866 0.19707905 -0.15940374 -0.5262152 -0.20798652 0.015448179 -0.28235552 0.08874257
-0.17147456 -0.057559814 -0.2965197 0.1429188 -0.054059725 -0.056937635 -0.18764094 0.10982441
0.026143508 -0.31020838 -0.53665787 0.27415594 0.11969096 0.14725822 0.014768654 0.09074481
0.11350705 -1.3181031 -0.21260765 -0.2121322 0.28748864 -1.4133817 -0.39072314 -0.27699617
-0.799379 -0.29263985 -0.0539528 -0.8020734 -0.085534126 -0.070394434 -0.2627131 -0.055220384
0.26447698 0.08863691 0.21617986 0.18856594 0.069546945 0.3070626 0.116943374 0.25767538
0.1311491 0.19364084 0.1771048 0.25502646 0.265669 0.27206707 0.17630251 0.31355488
0.33276343 0.33821353 0.36201188 0.10346678 0.252545 0.36594364 0.1757495 0.2673117
0.31724733 0.20227063 0.1738288 0.12385063 0.13163629 0.0073729604 0.16491674 0.038323123
-0.1988954 0.11124898 -0.101741925 -0.44553697 -0.33394942 -0.75683415 0.06855731 -0.22691748
-0.19798286 -0.6222054 0.089913465 -0.5045931 -0.19888227 -0.3560347 -0.27928045 -0.11188823
-0.9842796 0.5268746 0.010532582 0.2414081 -0.5997491 -0.27325347 0.055937547 -0.23659419
-0.55891013 0.16172431 -0.50363797 -0.5709571 0.044073176 -0.12395094 0.071603656 0.022665054
-0.07233214 -0.1782542 -0.3573217 -0.5534102 -0.34919214 -0.97802866 0.38544774 -0.35950387
-0.21437038 -0.25727192 -0.0056886445 -0.14685267 -0.2505087 -0.5118136 -0.25578606 -0.11261211
-0.9055721 0.675357 0.08554291 0.30732012 -0.699815 -0.15516143 -0.017924845 -0.3375945
-0.7526403 0.119459406 -0.69651335 -0.7218732 -0.08062733 0.15097079 0.065875955 0.01767749

encoder_input.6.bias f4 [64]
00000000: 67fc 39be 37af 7abd 29e6 91bd 5b90 913c
00000010: 35da 2bbe b6d0 11bc ccf1 3dbe 149d fdbd
00000020: 0dff abbd 218b 87be 5153 26bd e9d3 81be
00000030: f121 7dbe e2d1 9ebe 1bdd 0abe 5994 9abe
00000040: b765 9bbe 15a7 17bd 0a32 483f c902 e3bc
00000050: 4395 8e3d 086d a8be 7721 a4bd 1d06 80bc
00000060: 74de 4cbe f8ab ba3c e56b a2bd bfec 81bd
00000070: 7e44 ecbb 8272 91be b452 153c 9f42 8abe
00000080: b882 33be 9541 26be e142 033d 35fe d6bd
00000090: bf30 1e3d 1647 f5bd cb66 49be 4f76 30be
000000a0: db5f 06be f969 58bd 5a98 8ebd 506d 28be
000000b0: 44fc 66be 288b debd c2e1 53be ceaa 97bd
000000c0: 409a 29be a3d7 3cbe 1862 073d 010e 05bd
000000d0: 625d 16be 773d 91be ab0c 7bbe ae58 18bd
000000e0: 96ce 9ebe 4450 b73d a50f 33be 66cd 61bd
000000f0: a984 543d 713b a53d 0016 883c a836 873a
-0.1816269 -0.061202254 -0.07123978 0.01776903 -0.16782458 -0.008899858 -0.1854927 -0.12383476
-0.083982565 -0.26473334 -0.0406068 -0.25356987 -0.24719979 -0.31019503 -0.13560908 -0.30191305
-0.3035104 -0.037024576 0.78201354 -0.027711289 0.06962063 -0.32895684 -0.080141954 -0.015627915
-0.20006734 0.02278708 -0.079307355 -0.06343984 -0.0072103133 -0.28407675 0.009113956 -0.27003953
-0.17530334 -0.16235955 0.032046203 -0.10497705 0.038620707 -0.11976449 -0.19668119 -0.17232631
-0.13122503 -0.05283544 -0.069626525 -0.1644795 -0.22557169 -0.10866386 -0.20691589 -0.07405625
-0.16562748 -0.18441634 0.033052534 -0.03248406 -0.1468406 -0.28367206 -0.24516551 -0.037193947
-0.31016988 0.08950856 -0.17486437 -0.055127524 0.051884327 0.08067978 0.016612053 0.0010315971

encoder_output.0.weight f4 [32, 78]
00000000: 10b5 743e 9439 ecbc 7e7d 1c3b c871 69bc
00000010: 759e c6bb 4df4 f7bd 7f80 adbc 8315 06bd
00000020: 5e33 a0bc 405f a53d c052 e0bc 638d 193d
00000030: 1941 2ebd 15cc 053e 262a 323e 2bf0 ae3d
00000040: c6de ba3c 848f aa3d 21d0 e83c 4229 f63c
00000050: ad84 a13d c875 813d 89bf 1bbd 3662 133e
00000060: 8449 1a3d 7bdf 8c3d 2d58 b3bd 228c 0d3d
00000070: aaa9 1d3c 2266 f03c f099 be3d 0346 6fbd
00000080: 61af 12bd cff5 a6bd d301 d3bd 15fc 4c3e
00000090: baca 97bc 8db6 85bd afa6 57bd aee4 b8bd
000000a0: da7e 3b3e 881a f83e ef68 cbbc 4aae 483a
000000b0: 831a 3f3e 126c 58be e0c2 9fbd bb62 2e3e
000000c0: a942 a4bd 8fc1 793e 0f4b 47be e9b8 bf3e
000000d0: c962 91bd 6ac1 8fbd 1cfa c23d 079e 74bc
000000e0: 2455 e43c 4776 003e 138d 01be 1e3d 63be
000000f0: b957 6abd 40db c3be 6297 99bd bfc6 3abe
00000100: 514d bdbe b720 063e 6351 08be 5daa 63bc
00000110: 26c0 f13d e5c3 3b3d 4957 243e 45f6 63bd
00000120: eaa6 33bd 1f1c abbd 5417 ac3c 4ba3 5fbe
00000130: 4a9a 323d faf9 c43d 38e1 91bc fb8f 04be
00000140: 1be6 1db9 9caa 283b e285 963a cef7 443d
00000150: d462 90bd b8c9 1c3e 7f4a 14bb 5e8a 3cbd
00000160: 53ce cb3b 5edd 483d 382a 973d bc0a 36bd
00000170: 9a16 cbbc 7088 13bd 0286 36bc fa67 aa3c
00000180: ce23 9abd bc17 6bbd 8a21 983d 3c5a 113e
00000190: 860b c33c 6a13 5dbd 636c c3bd 34f6 373d
000001a0: b12a 1f3e a33b 923d 168a 8f3d 032d 2a3d
000001b0: e624 3bbd 1416 0cbc 0576 10bd 60ba a83d
000001c0: 4a37 6f3d 1445 a6bc 4135 0d3e 99ec 0d3d
000001d0: 39a6 d03c c4a7 e23d 227c 363d 8cef 23bd
000001e0: 2df5 efbc 1b86 87bc ea08 d6bb a872 193e
000001f0: 7ee7 dc3d 9b65 323e 4009 21bc bf47 f7bd
00000200: 8fb0 b3bd 7fc0 02bd a95e 5f3d 0631 c8bd
00000210: f635 79bd 849a 3f3d c433 6e3d 43f1 083e
00000220: 8544 c5bc 5ab6 cb3d 78ff 00be 2054 833b
00000230: 72af e53d 8f47 04bc f3fc 163e b915 f6bb
00000240: e078 613c 89b8 53bd e91f babc 4114 003e
00000250: 1f11 893d e115 343e 97ff 403e ea81 c93d
00000260: ecab 55bd 8847 1a3e 8a9d 993c 44ef 01be
00000270: cccd c1bd e4fc 0e3e 2669 d2ba c380 4c3b
00000280: e0c5 5f3b 47ae d9bd 8f71 0b3e 6626 76be
00000290: c05c 5a3d 364d ddbc 469a 2e3d 5c5a f23d
000002a0: de26 79bc 0919 77bd 18b2 f5bc 391a d0bd
000002b0: 5bc0 b93d 98d8 afbc e956 1ebd 8d5e 34bd
000002c0: 39bf a8bb 9085 b93d 3ea9 93bc e5f3 e6bb
000002d0: d90e 41be 08a4 803b bffb 41bd 35e5 9bbd
000002e0: e8eb 51bd 1227 c6bc 6943 10bd f41b 063e
000002f0: c8b1 a93c 953a 88bd fad1 013d f258 c53c
00000300: c208 13be 1800 d93c ba75 843d 75c9 b5bd
00000310: 2203 05be 0c0a 123e aaaa 48bc 528c 693d
00000320: 0ff6 16be 7e97 f8bd f890 5abe 86fc d2bd
00000330: 2259 0f3d cc0b 133d ff07 8d3e 9740 c6bd
00000340: 0aad ae3d b1e6 033e 7841 2b3e acd3 1a3e
00000350: ae88 cd3d 33b1 5abe f8e6 ccbd ac42 6ebd
00000360: 07a1 c53d bc6c 253e ad72 163e 6965 4b3c
00000370: cabd d83c 8c84 c0bd 527f 153d 5461 653e
00000380: 6f7e 5d3e 14f6 00be c041 d3bd c6bc 08be
00000390: 2172 c8bb 63a2 6f3e ad22 6cbd f84b 05be
000003a0: bde1 d2bc 39f6 283e c61a 9b3d 3e77 153e
000003b0: 5846 613a 9a47 21ba 0728 b8bb b52e 153b
000003c0: d3b7 04bc a11e dcbd a8cf 023d 3c80 75ba
000003d0: 26ce 0abe a2ea 5abe ca16 b6bd 5080 583d
000003e0: 9b6e 9a3d 63dc 9c3d e9d0 7a3d 4b3b b9bc
000003f0: bdc7 27bc fa09 3ebe a3bc 6e3c 8e54 533d
0.23897195 -0.02883605 0.002387851 -0.014248319 -0.00606137 -0.121071436 -0.021179436 -0.03273536
-0.019555744 0.08074808 -0.027383208 0.037488353 -0.04254255 0.13066132 0.17398891 0.08541902
0.022811305 0.08328155 0.028419556 0.03004897 0.07886634 0.06321293 -0.03802446 0.14392933
0.037667766 0.06878563 -0.087570526 0.03455747 0.009622971 0.029345576 0.09306705 -0.058416378
-0.035811786 -0.08152353 -0.10303082 0.20018037 -0.018529285 -0.065289594 -0.052649196 -0.09027992
0.18310109 0.48457742 -0.02483031 0.00076553656 0.18662457 -0.21134976 -0.07800841 0.1702985
-0.08020527 0.24390243 -0.19462226 0.37445763 -0.0709892 -0.07019313 0.09520361 -0.014930255
0.02787263 0.12545119 -0.12651472 -0.22191283 -0.057212565 -0.38253212 -0.07499577 -0.18239878
-0.3697305 0.13098417 -0.13312297 -0.013895598 0.118042275 0.045841116 0.16048922 -0.055654783
-0.043860354 -0.08354973 0.021007217 -0.21839635 0.043604173 0.09617992 -0.017807588 -0.12945549
-0.00015058408 0.0025736457 0.0011483992 0.048087887 -0.070501 0.15311325 -0.002262741 -0.046030395
0.006219664 0.049039237 0.073810995 -0.04444383 -0.02479105 -0.03601879 -0.011140348 0.020801533
-0.075263605 -0.05739568 0.07428272 0.14194578 0.023809206 -0.053973593 -0.095421575 0.044912532
0.15543629 0.07140281 0.0700876 0.041546833 -0.045689486 -0.008550186 -0.035268802 0.08238673
0.058402337 -0.02029661 0.13789846 0.034649465 0.025469886 0.11067155 0.044551976 -0.04002337
-0.029291714 -0.016543439 -0.0065318244 0.14985144 0.10786341 0.17421572 -0.0098288655 -0.12074231
-0.0877391 -0.03192186 0.054533634 -0.097749755 -0.060842477 0.046778217 0.058154836 0.13373284
-0.024080524 0.0994689 -0.12597454 0.004007831 0.11215104 -0.0080737015 0.1474493 -0.0075099138
0.013761729 -0.05168966 -0.022720294 0.12507726 0.06692719 0.17586471 0.188475 0.09839232
-0.05216591 0.1506635 0.018751878 -0.12688929 -0.09463081 0.13963658 -0.0016053065 0.0031204678
0.0034145042 -0.10628944 0.13617538 -0.24038085 0.05331111 -0.027014356 0.042627595 0.11833641
-0.015207021 -0.06032661 -0.029992148 -0.101612516 0.09069892 -0.021465585 -0.038657103 -0.044035483
-0.0051497486 0.09058678 -0.018025037 -0.0070481175 -0.1885332 0.003925804 -0.047359224 -0.07612077
-0.05125037 -0.024188552 -0.035220537 0.13096601 0.020714656 -0.06651799 0.03169439 0.024090264
-0.1435881 0.026489303 0.06467767 -0.088763155 -0.12989476 0.14261645 -0.012247721 0.057018586
-0.14742301 -0.1213827 -0.21344364 -0.10302071 0.034997113 0.035899922 0.27545163 -0.09680288
0.08529098 0.1288097 0.16724193 0.15119809 0.10035835 -0.21356659 -0.10004991 -0.058169052
0.09649854 0.1615476 0.14692183 0.012414315 0.026457686 -0.09400281 0.036498375 0.22400409
0.21630262 -0.12593871 -0.10315275 -0.13353261 -0.006117121 0.2340179 -0.057650257 -0.13017261
-0.025742406 0.16500176 0.07573466 0.14596269 0.0008593551 -0.0006152332 -0.005620006 0.0022763435
-0.008100468 -0.107480295 0.031936318 -0.0009365117 -0.13555202 -0.21378568 -0.088910654 0.052856743
0.075406276 0.07659223 0.06123439 -0.02261128 -0.010240492 -0.18558493 0.014571342 0.05159431

encoder_output.0.bias f4 [32]
00000000: 9c0d 46be 5697 f6bd d5ea 283d 9732 abbc
00000010: 3517 cb3d 0a4a 683d b0f8 c13d eddd 4e3d
00000020: 78f0 47bd 6046 523c 5355 b1bd 3960 dbbc
00000030: ff1f 5d3d c88f c13c d590 f9bd 94f5 5bbc
00000040: b2f4 26bb a5ce 713d fb02 9a3b bbcd 5fbd
00000050: 8f76 823d 5ccd dbbd d7fc 74bd 9b34 593d
00000060: 06e0 e4bd 7af4 2a3d 7e35 413d f935 6a3c
00000070: d9b4 debc b600 b93d abb9 4d3d e97c 983d
-0.19341129 -0.12040584 0.04123958 -0.020898147 0.09916536 0.056711234 0.094712615 0.050504614
-0.048813313 0.0128341615 -0.086588524 -0.026779281 0.053985592 0.02362813 -0.12185828 -0.01342525
-0.002547544 0.059034962 0.0047000623 -0.05463956 0.063702695 -0.107325286 -0.05981144 0.053028684
-0.111755416 0.041737057 0.047170155 0.014295095 -0.027185844 0.09033339 0.050225895 0.074457

encoder_output.1.weight f4 [32]
00000000: a652 613f 83f7 853f b457 773f 93a4 843f
00000010: 9745 873f 703a 623f 5eb2 7a3f 4ba9 893f
00000020: 3092 823f 2cdd 823f ee37 673f 8308 763f
00000030: ecc4 813f c109 7f3f 2486 7f3f 83e7 803f
00000040: da1a 563f c637 623f 81a8 663f 49e3 823f
00000050: 1d06 803f 6555 873f a81e 963f bb03 843f
00000060: 6b7c 893f 1dae 3a3f f6f0 693f b50e 6a3f
00000070: 7d37 8c3f ba62 653f 48fb 8c3f 4236 7f3f
0.88016737 1.046616 0.966182 1.0362724 1.0568112 0.8837042 0.97928417 1.0754789
1.0200863 1.0223746 0.90319717 0.9610674 1.0138221 0.9962426 0.9981406 1.0070652
0.8363472 0.88366354 0.90100867 1.0225612 1.0001866 1.0572935 1.1728106 1.0313638
1.0741094 0.72921926 0.913833 0.9142869 1.0954434 0.8960377 1.1014185 0.99692166

encoder_output.1.bias f4 [32]
00000000: 9b24 01be 1479 9ebd 5af5 663e dcd1 adbc
00000010: dc97 f7bc eec3 e2bb b910 503d 6033 aebd
00000020: 8dc1 653d 841a 693d 4d04 1dbe cff8 babd
00000030: 582e 593d fc67 f8bd d05c 97bd b6ec 22be
00000040: c874 203e 3365 713d 7955 113e 9a4a 8ebd
00000050: c836 ce3d e103 9fbd edee c93d f6e7 753d
00000060: c276 d33c b9c1 2ebc 7763 35bd a064 2cbc
00000070: 63dd a1ba be2a 6e3e 602c 563d deaf 6abd
-0.1261162 -0.077379376 0.22554532 -0.021218233 -0.03022378 -0.0069203293 0.050797198 -0.08505893
0.056092788 0.056910053 -0.15333672 -0.09129488 0.053022712 -0.121292084 -0.073907495 -0.1591061
0.15669549 0.0589344 0.14192761 -0.06947823 0.100690424 -0.07764412 0.098600246 0.06003567
0.025813464 -0.010666304 -0.04428431 -0.010522038 -0.0012349304 0.23258492 0.052288413 -0.057296626

encoder_output.1.running_mean f4 [32]
00000000: cdfb d3be 1d70 253d e951 08bd b89d a7bd
00000010: 4045 163d e43d 9fbd cbe8 713e 6e9c 623d
00000020: 1687 1bbe 164c 45bd db96 a03d e45f d33d
00000030: 722b 4a3e 7589 bb3d f40d a4be e2ab 133d
00000040: a087 7fbd 95a0 3b3d 956d 30be 72a4 bfbd
00000050: 34d3 b7bb 7f58 823b c5e2 ee3d 037b 483d
00000060: 580a 8dbd c71c 95be f000 193e 01a9 14be
00000070: 85eb 0bbe 994e ef3d feed c3bd e25e 793d
-0.41403046 0.040390123 -0.03328124 -0.08184379 0.036687136 -0.077754766 0.2362396 0.055324964
-0.1518825 -0.048168264 0.078412734 0.10321024 0.19743136 0.09157077 -0.32041895 0.036052592
-0.0623852 0.04580744 -0.17229302 -0.09357537 -0.005609894 0.0039778347 0.116643466 0.048945438
-0.068867385 -0.29123518 0.14941764 -0.14517595 -0.13664062 0.11684913 -0.09566878 0.060881503

encoder_output.1.running_var f4 [32]
00000000: 8bfc a23c 25b5 4a3c 729e 1a3d 14d9 5e3c
00000010: f6c0 853c d156 493d 555d 8c3c 366d a83c
00000020: 3d46 763c b273 693c b3d2 983c 1c36 4a3c
00000030: a832 b23c bb91 893c 4b51 6d3c 954a e13c
00000040: a4fe 1f3c e4d2 d03c bb40 603c c838 4d3c
00000050: c7b9 033c 11bd 7a3c 4161 2a3c f16c 333c
00000060: ec14 733c 92fc 863c 8548 d63c 7783 143c
00000070: caf1 983c 130f bb3c 1c69 5a3c 34c7 dc3b
0.019895812 0.01237229 0.03774876 0.01360156 0.016327363 0.04915506 0.017134348 0.020559888
0.015031395 0.014248775 0.018655157 0.012342002 0.02175267 0.016793123 0.014484714 0.027501384
0.009765301 0.025491185 0.013687308 0.012525745 0.008039898 0.015303866 0.010399164 0.010951267
0.014836531 0.016477857 0.026157627 0.009064547 0.018669982 0.022834336 0.013330724 0.006737614

encoder_output.3.weight f4 [32, 32]
00000000: b9ff 2dbd cedc 1c3e 5c90 4f3e 9e14 86bd
00000010: 8445 053e 01cc cbbd 3867 64be db13 243c
00000020: 9faf 433e c7e6 0dbe 7028 2ebe bf94 38bd
00000030: 307b 593e 7588 1abd 37c4 e4bd 5538 e43d
00000040: 614e 3a3d 1e31 8ebd 6c93 983d 8583 793e
00000050: 564c 4a3c 8933 50be bf78 28be 0140 aa3d
00000060: 080e 593e 068d 0cbe 7d8b 1dbd 944d 0bbd
00000070: 0413 abbc 1dab b73c e25f 3ebe f0bf 42be
00000080: 7e6e 9bbd 6a65 4a3e d975 b53d 4ce7 60bc
00000090: 5f33 743e f7d7 033e c885 2cbe 8d53 31be
000000a0: 58c3 27be e7b0 77be f3ff cdbd 5d11 08be
000000b0: 2ed4 1f3d 3d0e 973d 603e 00be 640a 56bc
000000c0: 67cf 743d d29e 1db9 7c7e e0bc b607 883c
000000d0: 7c65 273e b8f5 f73d e46b 95be 8ae8 903d
000000e0: a371 3dbe 5b02 2c3c 678b 1cbd 518d 42bd
000000f0: cec3 4cbe c134 c23d 02a8 f63c 3d48 2bbd
00000100: ed29 06bd 8cd6 453e fbeb 73bd 2734 103d
00000110: 3f13 52bd 993a 8c3d f555 f0bc a6d8 02be
00000120: d610 4abc a76d 33be 486d a6bd 08e9 083e
00000130: a8e9 713e 1fd8 0c3e 2343 c43b 066a 853d
00000140: 3f07 333e 8f4c 24be a30e 933e 6c22 973e
00000150: b8a6 8d3d aed2 42be 2aa2 28be 285c f83d
00000160: 1a8a d03c 8b72 893c 0375 1c3b 2e33 01bd
00000170: 2559 2b3d f622 9e3d 4141 60be 42df d5bd
00000180: 60d8 19be 6ec9 68bd 23c1 76bd f10d 483e
00000190: 4a24 413e 2b39 3c3c bfba a43d f145 5cbc
000001a0: 93f4 c33d 1cae 9bbd f134 57be 2fc1 893c
000001b0: 0af7 91bc 077c ecbc 431c fb3c e90b d9bc
000001c0: ff94 4fbc 0bc4 4c3d 2c54 85bd f0b3 a4bd
000001d0: 5ddc 89bd 15e3 06be 0fc5 493e 0934 94be
000001e0: 5336 3abe 96a4 e2bc eba0 ea3c 7140 8dbe
000001f0: 3678 29be 0fad eabc 6d6b 4d3b f916 44be
00000200: 9e77 53be a944 46bd a030 0cbe d287 f5bc
00000210: 1ff2 243d a00a cabd 1c71 c7bd 73c4 6f3d
00000220: 1d3b 553e 6aa3 dabd 77aa c13d e38c 5c3e
00000230: 4689 673d a009 98bd 9564 76be a767 26be
00000240: a8f2 1abe c836 093e 4240 34be 33c8 9dbe
00000250: 8a85 453c 4d23 4ebc d7d9 263e e078 30be
00000260: 9d40 44be 37ea d6bd 3893 2a3d cf77 86be
00000270: ac29 93bd 12c6 25bd 5799 d8bd 1af0 37be
00000280: a71c f7bc f764 6f3c 3b3e 00be 321b 7c3e
00000290: f586 763e 7139 0d3e ea11 32bc ac95 22bc
000002a0: 9297 99bd 7742 e5bb 4e85 33bd 9e35 adbd
000002b0: ebcc 83be 4e04 7b3d 3f3f b23d ed31 5bbe
000002c0: c563 98bd ac64 bbbc 7540 17be e848 34be
000002d0: ffe4 213e 38f7 9b3e 23ab 5abe 3845 0cbd
000002e0: e538 87bd 1322 b639 4765 2ebe 66c3 d7bd
000002f0: ccf5 60be 6db6 093d fab7 013e 15b9 a13d
00000300: 2e42 a0be 99b7 02bd 05e8 403e 086b 3a3c
00000310: a59b 2dbd 1413 2d3e 2022 47bc e6c9 923e
00000320: 0f20 b73c eebf 093e ba70 96bd be79 da3d
00000330: df2f db3c ce62 883b 2ea0 623e 19d7 c23d
00000340: 76fe 67bd 5450 2bbe a9c9 cabd 9de4 983c
00000350: 2777 423e 3e6c f7bd ac32 17be 4198 b53d
00000360: 4876 c9bd 585c b43d 40b4 403e d04e 2abe
00000370: 0f1f 17be 37c8 9e3d 70e2 26be 83e9 8e3e
00000380: 8659 aa3d 82ce f9bc 539f 0dbe da68 293e
00000390: 0a8d 7bbc c81e 08be a3af 06bd d0f9 943d
000003a0: e2d3 9b3d 74c3 123e 8e8f 0b3e 54c7 af3c
000003b0: afce 41bb b03e 8339 4bdd 6b3e 4c59 38be
000003c0: f925 4cbd 7f15 0f3e 3a30 5bbd dcb2 8abe
000003d0: 3b07 a53d dda9 e03d c7bd 85be af3b 98bd
000003e0: d1b0 15be 1dc6 d83d 512b f5bd eeb6 953b
000003f0: cb7d ccbd b321 5c3d 5c3a f53d 6b13 993d
-0.042480204 0.15318605 0.20269912 -0.06546901 0.130148 -0.0995102 -0.22305 0.0100145
0.19109963 -0.13857566 -0.17007613 -0.04506373 0.21238399 -0.03772779 -0.111702375 0.11143557
0.045484904 -0.06942962 0.074499935 0.24366577 0.0123473015 -0.20332159 -0.16452311 0.08312989
0.21196759 -0.13725671 -0.038463105 -0.03400953 -0.02088309 0.02242046 -0.18591264 -0.19018531
-0.07589434 0.19765249 0.08860368 -0.0137270205 0.23847722 0.12875353 -0.16847908 -0.17317028
-0.16383111 -0.24188577 -0.10058584 -0.13287874 0.03902071 0.073757626 -0.12523794 -0.013064001
0.059768107 -0.00015031852 -0.027404062 0.01660524 0.16347307 0.12107414 -0.29183877 0.07075603
-0.1850038 0.010498608 -0.038218882 -0.04749805 -0.19996569 0.09482718 0.03010941 -0.04181694
-0.032754827 0.19320124 -0.05955122 0.035205986 -0.051287886 0.06847114 -0.029337863 -0.12777957
-0.012333116 -0.17522298 -0.081263125 0.13370144 0.23624289 0.13754319 0.0059894486 0.06514363
0.17483233 -0.1604483 0.28722104 0.2951845 0.06916565 -0.1902568 -0.1646811 0.121269524
0.025456477 0.016778251 0.0023873455 -0.03154295 0.04183306 0.07721512 -0.21899892 -0.10442974
-0.15023947 -0.056832723 -0.060242783 0.19536568 0.188615 0.011488239 0.080434315 -0.01344441
0.09568133 -0.07601568 -0.2101629 0.01681575 -0.017817993 -0.028867735 0.030653125 -0.026494937
-0.012669801 0.04999165 -0.06510195 -0.08042133 -0.06731484 -0.13172562 0.19704078 -0.2894595
-0.18184786 -0.027666371 0.028641185 -0.27588227 -0.16549763 -0.028646974 0.0031344548 -0.19149388
-0.20651099 -0.048405323 -0.13690424 -0.02997199 0.040269967 -0.09865308 -0.09738371 0.058536958
0.20823331 -0.106757 0.09456342 0.21538119 0.0565274 -0.07423711 -0.24061806 -0.16250478
-0.15131629 0.13399804 -0.17602637 -0.30816802 0.012055764 -0.012581659 0.16294037 -0.1723361
-0.19165273 -0.10493892 0.041644305 -0.26263282 -0.07185683 -0.040472098 -0.10576122 -0.17962685
-0.03016503 0.014611474 -0.12523739 0.24619749 0.2407492 0.13791443 -0.010868529 -0.00992338
-0.07499613 -0.0069964486 -0.0438283 -0.08457492 -0.25742278 0.061283402 0.087034695 -0.21405764
-0.074409045 -0.022875153 -0.14770682 -0.17605937 0.15810011 0.3046205 -0.21354346 -0.0342457
-0.06602649 0.00034739132 -0.17030822 -0.10535316 -0.21968764 0.03362124 0.12667838 0.0789663
-0.3130049 -0.031913374 0.18838508 0.011378057 -0.042384762 0.16901809 -0.012154132 0.2866966
0.022354154 0.13452122 -0.0734572 0.10667752 0.026756225 0.004162169 0.22131416 0.09513683
-0.056639157 -0.16729861 -0.09901745 0.018663699 0.18990766 -0.120811924 -0.14765424 0.08866931
-0.098370135 0.08806676 0.1881876 -0.16631627 -0.14757942 0.07753032 -0.16297317 0.2791253
0.083178565 -0.030493978 -0.13830309 0.16543904 -0.015353451 -0.13292992 -0.032882344 0.072742105
0.07608773 0.14332372 0.1362898 0.021457352 -0.0029572656 0.00025032973 0.23033635 -0.18002814
-0.0498409 0.13973044 -0.05351279 -0.27089584 0.0805802 0.10969899 -0.2612135 -0.07433259
-0.14618231 0.10584662 -0.119711526 0.004568926 -0.099849306 0.053743076 0.11974022 0.07474407

encoder_output.3.bias f4 [32]
00000000: 1390 1b3d 29f5 303c 1ce1 02be a9cf d9bc
00000010: a7ce cdbd 0f4d 0b3e 4366 bdb9 e8a0 293e
00000020: 4693 d83d 3765 6c3d da8b 19be d3c8 78bd
00000030: 3220 1e3d b9a0 e83d 53ac b6bd c960 573d
00000040: 9ce4 3a3a 0323 23be cf12 f5bc b816 64bd
00000050: cf27 98bb f5a7 9e3d 5fbc 27be 894e 95bd
00000060: 7d4e 323d 1981 04be b5f2 863d e5ee b5bd
00000070: 739c 263c 6b5b c03d 1491 23bd f90c 1fbe
0.037979197 0.010800638 -0.12781185 -0.026588278 -0.100491814 0.13603614 -0.0003612508 0.16565287
0.10574965 0.057713713 -0.14994755 -0.060738396 0.038604923 0.113587804 -0.08919587 0.052582536
0.00071294024 -0.15931325 -0.029916195 -0.05568573 -0.0046434174 0.07746879 -0.16380452 -0.0729037
0.043531884 -0.12939872 0.065892614 -0.08883456 0.010169136 0.093924366 -0.03993328 -0.15532292

encoder_output.4.weight f4 [32]
00000000: bd72 e33f 331c f13f fac5 c93f b660 a03f
00000010: 6315 da3f e1eb 1c40 5afc 983f ae3b f43f
00000020: bbeb 0940 09d5 ea3f 7601 de3f d4e5 e03f
00000030: 21f6 b13f a6f8 cd3f 0804 8f3f 3992 0d40
00000040: 8f6d c33f 025c d93f d76e f33f 205c cd3f
00000050: 437c ba3f 0c3b 0940 f686 f93f fa97 0d40
00000060: 53e2 c63f dbcc 9f3f 1cc3 963f 7107 d43f
00000070: a8e7 9f3f f7cd 0140 45e6 0240 0a69 ec3f
1.776939 1.8836731 1.5763543 1.2529514 1.7037777 2.451897 1.1952012 1.9080713
2.1550128 1.8346263 1.7344196 1.7570138 1.3903238 1.6091506 1.1173105 2.2120497
1.526781 1.6981204 1.9018201 1.6043739 1.4569172 2.144229 1.9494312 2.212401
1.5537819 1.2484392 1.1778293 1.6564771 1.2492571 2.028196 2.0453045 1.8469555

encoder_output.4.bias f4 [32]
00000000: eec7 413f ba2c 4c3f f715 393f b7d4 943e
00000010: 5b8f 403f 9c28 333f 43eb de3e 04e0 3b3f
00000020: b2f3 003f 10f1 8f3e 5a71 c23e d612 183f
00000030: 0bb8 b03e 893b 303f 8c92 1b3e b20d 0e3f
00000040: 3f79 103f 5df4 3b3f f0fa 0d3f 5604 143f
00000050: a5ab 313f faf4 1c3f e8e0 c03e 06a8 333f
00000060: e778 2c3f 2066 8e3e 5c1f 233e 2e53 3d3f
00000070: 00e3 1a3f 30b9 fe3e ec8f 483f 0465 b93d
0.75695693 0.7975575 0.7229914 0.2906854 0.75218743 0.6998384 0.43538865 0.73388696
0.5037185 0.28113604 0.37977105 0.5940374 0.34515414 0.68840843 0.15192622 0.5548965
0.56435007 0.73419744 0.55461025 0.57819116 0.69402534 0.61311305 0.3767159 0.7017826
0.6737198 0.2781229 0.15929931 0.7395505 0.60502625 0.49750662 0.7834461 0.0905247

encoder_output.4.running_mean f4 [32]
00000000: ce0a 20bd 5968 8ebe 1715 703c 3128 c6be
00000010: ceb7 34bf 1b9f 1bbe c1de 203e 1f6d aa3d
00000020: 8e13 5e3e 2071 45be f3e5 ccbd 62a3 e5be
00000030: 6bd7 27bf 7b88 603e e75c 08bc 20a7 cabe
00000040: 382b 8fbe 6b60 8e3d 2af7 3fbe f263 c1bd
00000050: 7cb9 d53d fe00 3e3e 3a55 d23d f48c 0cbe
00000060: 999c 143e 8fb2 49bf 0e37 2dbf 73ec bdbe
00000070: 46fa dcbe 6918 913e 37a3 773d 3d1a 31be
-0.039072804 -0.27813986 0.014653466 -0.3870254 -0.70592964 -0.15197413 0.15709974 0.083215944
0.21687147 -0.19281435 -0.10004797 -0.44851214 -0.65563077 0.21927063 -0.008322931 -0.3958063
-0.2796266 0.06951984 -0.1874663 -0.09442891 0.10435769 0.18555066 0.10270162 -0.13725644
0.14512862 -0.78788084 -0.6766213 -0.3709446 -0.43159693 0.28338936 0.06045839 -0.17295165

encoder_output.4.running_var f4 [32]
00000000: 5474 973e 0e74 013e a09f 763e f447 bf3e
00000010: fc54 7e3f 6fb8 073e 3ad4 e13e a537 ee3d
00000020: 0cc3 a23d 47e2 883d 5f68 ef3d cbdd a33d
00000030: 1ef5 583e 53ae a03e c8a7 093e c501 c73d
00000040: 8266 fd3e f17c 383e f04d ba3d d2f0 203e
00000050: ee91 043e 706b d73d 8455 f43d b3bc dc3d
00000060: 9dce a03e 6f06 0e3f 87e5 163f 791e 0d3e
00000070: 4ef5 e53e 628b dc3d 07c5 223e fac1 813d
0.2958094 0.12641928 0.2408433 0.37359583 0.99348426 0.1325395 0.4410723 0.11631707
0.079473585 0.06683784 0.11689829 0.08001288 0.21187255 0.31383 0.1344291 0.097171344
0.4949227 0.18016411 0.09096897 0.15716866 0.12946293 0.10518539 0.11930373 0.10778179
0.31407633 0.55478567 0.5894398 0.13781156 0.44913715 0.10768773 0.15895472 0.06335826
