trained_models/aamas22-main/final_fov_encoder_vain.pt (torch, 103461 bytes, 6 tensors)

mlp.0.weight f4 [32, 722]
00000000: 2cbe ce3d 55eb dd3d b602 503e ce30 4f3e
00000010: 340b 023e 14a5 d73d 2df1 213e 7fbd 203e
00000020: 8105 3e3d 2ef5 993d 6abd 613d 7680 f63d
00000030: ad19 aa3d 9a7b dc3d 9359 ff3d 286c bc3d
00000040: 162d 3c3e e328 783e 65b8 113e 5ad5 193e
00000050: 42e0 df3d d4c5 9d3d 91fe 143e 5b86 f23c
00000060: 53f3 bb3d c0d0 813d 22b3 c43d 1ed7 9b3d
00000070: 84a1 683d 5514 413d d721 c13d 21b9 1c3e
00000080: 1f2b ce3d 2cef 1f3d d555 643d 7332 0e3e
00000090: 2532 083e bd0f 973d 9dbf 323d ffca d03b
000000a0: ff57 8c3d d21b c63d 5ef1 4b3d 1b1d 3b3c
000000b0: 9f4e 9bbc 6011 963d 3d94 183d 1c93 b73c
000000c0: 90a1 9b3d f07b b13d a08f de3d e982 b83d
000000d0: 5830 4f3d 1381 b73c 86ab 723d b19e b03c
000000e0: 27c7 033c fbef b03b 2fa5 dd3c 9d42 3f3d
000000f0: e866 913d 2820 f8bb b568 5cbd ff88 98bb
00000100: ef9d c43c 3bd7 7b3c 3c68 623d 1928 b73d
00000110: a323 863d cdba c13d c343 083d bb90 2c3c
00000120: 2272 0e3c eaca a93d 20f2 3dbd 822a 17bd
00000130: e74d 553d d994 833d 0962 f83d 7091 ad3d
00000140: e101 163c 1026 803b b8cd 8abc b44e c8bc
00000150: 2603 143c 0496 483c d360 2b3d 6184 d83a
00000160: f521 1e3d f913 1a3d a055 48bd 0110 b9bd
00000170: 922b b9bc 4862 a7bc d5c7 7dbd deba 72bc
00000180: 6b03 133d cf9e 403d 560c d33d c574 73bd
00000190: cc48 55bd 007b 10bd beba d53b d3c6 d4bc
000001a0: 9a73 b3bc 6f78 073d 88b0 de3c d48a 983c
000001b0: 0ea4 d43c f9a7 9ebd d5d8 11be b32a 00be
000001c0: 7636 30bd 90d8 bbbd 7233 833c 6b2e 8ebc
000001d0: 2f10 943d 4b05 023d c716 a3bb 3129 ccbc
000001e0: 886f 41bd bc57 343c 4480 1bbc bacf dcbc
000001f0: 8c6c dcbc 64fa 63bd d95b 7bbc f608 d13a
00000200: b545 58bd 7ecb 27be cd5c 19be 64f3 d4bd
00000210: 30a3 2abe e1a0 853c 2cee ab3b b935 643c
00000220: 69c8 7c3d 047a f0bc 1bc4 92bc bff2 96bc
00000230: 14b7 0dbd 53d1 52bd 95a2 87bc 1311 0cbd
00000240: e738 c1bc d68a c03a d7bd 6ebc 78bd 70bd
00000250: 4007 8dbd ce1a 94bd 6c05 88bd 3007 9dbd
00000260: f903 d03c aa49 56bc 16df 9a3c 2224 943c
00000270: 171b db3c 6638 2abd 85df 693c 68a8 2cbd
00000280: 4017 863b f4ea 15bd c36f 333c b38a df3b
00000290: 9090 b83c fe31 3fbd b540 d8bc f223 b6bc
000002a0: 8942 a73a a57e 82bc 0907 eb3c 4136 1b3d
000002b0: 2dc7 953c 9e7a 403d 4e25 b53d 1145 5abd
000002c0: 1f76 0b3c 0d51 39bd d5e6 8d3c 0f93 83bc
000002d0: 23d4 a83c 47b6 153c 2fc4 dcbc 85aa b0bc
000002e0: 90c7 06bc 1007 aabd 7ebc cdbc f469 403d
000002f0: 03cf fb3d c9fd 223d ec24 30bc cf02 b4bc
00000300: 1b4e 03bc c79e d2bc 737c 5ebd c3d5 c9bc
00000310: 1b00 20bd ab81 05bb 47c8 1dbd b4cb 09bc
00000320: 443a 12bd c8c8 3ebd 866b 8bbc 547e a03c
00000330: 53c0 b8bd 1c62 edbc 4c0f 0f3d 66ad 0c3e
00000340: e359 a73c fcb5 3cbd ddf4 93bd d79e 3ebd
00000350: a231 36bd 03fb 44bd 6dd2 80bd c086 7fbc
00000360: 6a45 b9bc c8bd 4bbd a5d8 55bd 5bec f1bc
00000370: 05b5 793c 1132 a9bc 62f0 0dbd 7bdd a0bd
00000380: 2b95 90bd 316a 753d e30d 303d 8e0b 213d
00000390: 3392 21bd 3224 94bd b61e 1fbd d0b3 dabc
000003a0: 5304 b4bd 2964 3abd 3e7d 07bd 82d6 5fbc
000003b0: 3c94 4cbd 11cc 8e3b 62d4 bb3c 59c3 603b
000003c0: a32e 94bc 9fc2 d9bc 3d8f 42bd 1080 36bd
000003d0: 2118 533d 3aab 133d c8c9 a53d 9a4e c0bd
000003e0: da0a 94bd fef3 4abb 871f 43bc 17b5 f9bc
000003f0: bbe6 7fbd bd34 44bd d2b6 57bd f959 d5bc
0.10094866 0.10835902 0.20313534 0.20233461 0.12699586 0.10529533 0.15814658 0.15697287
0.046391968 0.075174674 0.05511228 0.12036221 0.083056785 0.107657626 0.12468257 0.09200317
0.18376574 0.24234347 0.14230497 0.15022793 0.10931446 0.07703748 0.14550234 0.029605081
0.0917727 0.06338644 0.09604479 0.0760939 0.05679466 0.04713853 0.094302826 0.15304996
0.100668184 0.03904645 0.05574592 0.13886432 0.13300379 0.07376049 0.043639768 0.0063718553
0.068527214 0.09673275 0.049790733 0.0114205135 -0.018958388 0.07327533 0.037250746 0.022409014
0.07599175 0.08666217 0.10867238 0.09009344 0.050583214 0.022400415 0.05924561 0.021560045
0.008043087 0.0053997017 0.027056305 0.046694387 0.07099706 -0.0075721927 -0.053810794 -0.004655003
0.02400109 0.015371139 0.055275187 0.08943195 0.06549766 0.094594575 0.033267748 0.010532553
0.008694204 0.08290656 -0.046373487 -0.036905773 0.052076247 0.06424875 0.12128074 0.084750056
0.009155721 0.0039107874 -0.016943797 -0.024451591 0.009033954 0.012242798 0.041840386 0.0016518944
0.038606603 0.037616704 -0.048909783 -0.09036256 -0.022603784 -0.020432606 -0.061958153 -0.01481506
0.03589193 0.04702645 0.10305087 -0.059437532 -0.052071378 -0.035273552 0.0065225055 -0.025973713
-0.021905709 0.03307384 0.027183786 0.018620886 0.025957134 -0.07746882 -0.14242871 -0.12516288
-0.043020688 -0.091721654 0.016015742 -0.017356118 0.07229649 0.03174333 -0.0049770805 -0.024921985
-0.047225505 0.011007246 -0.00949103 -0.02695452 -0.026907228 -0.055658713 -0.015341722 0.0015948105
-0.052800853 -0.1638622 -0.14976807 -0.103979856 -0.16663814 0.016312065 0.005246898 0.013928824
0.061714564 -0.029355057 -0.017915776 -0.018426297 -0.034598425 -0.05146916 -0.016557017 -0.03419597
-0.023586703 0.0014689814 -0.0145716285 -0.05877444 -0.068861485 -0.07231675 -0.06641659 -0.076673865
0.02539252 -0.013079086 0.018905204 0.018083636 0.026746316 -0.041557692 0.014274483 -0.042152792
0.004092127 -0.036601022 0.010951939 0.006821954 0.02252987 -0.046678536 -0.026398042 -0.022233937
0.0012760918 -0.01592953 0.028689878 0.037893537 0.018283451 0.046991937 0.08845006 -0.053288523
0.008512049 -0.04524331 0.017321983 -0.016061334 0.020608967 0.009137697 -0.026949016 -0.021565685
-0.00822629 -0.08302128 -0.025114294 0.046976045 0.12295344 0.03979281 -0.01075099 -0.021973995
-0.008014227 -0.025710477 -0.054317903 -0.024638062 -0.0390626 -0.0020371478 -0.038521077 -0.008410383
-0.035700098 -0.0465782 -0.017019045 0.019591488 -0.09021058 -0.028977446 0.034926698 0.13738021
0.020428604 -0.04607199 -0.07224438 -0.0465382 -0.044480927 -0.048090946 -0.062901355 -0.015596092
-0.022616107 -0.049741536 -0.05220856 -0.029531648 0.015240912 -0.020653756 -0.034653075 -0.07854744
-0.070597015 0.059915725 0.042981993 0.03931766 -0.039446067 -0.07233466 -0.038847648 -0.02669707
-0.08789887 -0.045505676 -0.033078425 -0.0136619825 -0.049946055 0.0043578227 0.02292842 0.0034296124
-0.018088644 -0.02658206 -0.047499884 -0.044555724 0.051536683 0.036051966 0.08095127 -0.09389992
-0.07228632 -0.0030968185 -0.011909372 -0.030481858 -0.0624759 -0.047901858 -0.052664585 -0.026043879

mlp.0.bias f4 [32]
00000000: 1a74 e2bc b92c c23c 7505 d6bc 026a 89bc
00000010: ace1 933c d07b d83c c02b af3c e872 16bd
00000020: cf4c fa3c 9cb2 093d 787d 373c 79b1 15bd
00000030: a5c7 31bb 8b4e f73b 3d5d b1bc 1b90 db3c
00000040: de26 08bc 6740 bebb 958d 813c a086 c13c
00000050: 275c fc39 b523 78bb cf7f 2abc d820 babc
00000060: 65a5 0fbd de94 c63b 9014 00bd 3b8e ebbc
00000070: 17c7 013c 42e7 7a3c 060c 00bc 7bcc 33bd
-0.027643252 0.023702966 -0.026125649 -0.016774181 0.018051945 0.026426226 0.021383166 -0.036730677
0.030554203 0.0336176 0.011199348 -0.036546204 -0.0027127054 0.007547205 -0.021650905 0.026802113
-0.008310048 -0.005806017 0.015814582 0.023623765 0.00048133844 -0.003786308 -0.0104064485 -0.02272074
-0.035069842 0.006060227 -0.03126961 -0.028754344 0.007921002 0.015313925 -0.007815367 -0.04389618

mlp.2.weight f4 [32, 32]
00000000: 24c1 20be d94a 203c a988 17be 702b 143e
00000010: c7bb 8ebc 7342 1f3c 6135 213d 2387 743d
00000020: c4ba 34be e3c1 aebd d9cb 24be 3c6c 30bd
00000030: 1a18 a1bc a8ad 363d 2e74 a5bc 7d88 8abd
00000040: 141b 9c3d fe99 2ebe c63e 75bd c59e cbbc
00000050: ff1f 233e 869a 053e 8625 1bbe ca19 823d
00000060: eb9e 4b3d 5319 cebd c936 18be 9712 fd3d
00000070: 5371 ab3c 5eed 74bc 7dc1 20be 60e2 a0bc
00000080: feaf ea3b 28e8 98be 46c4 07be 342d a0bd
00000090: aa6a 1dbe 325d f4bd f87c f33d 2faf fabd
000000a0: 101a a93d 41c1 9b3c d447 953d 3756 c73c
000000b0: 865c 12be 33d0 253c 3d7b 1ebc 4ecc 2e3e
000000c0: d245 19be 0604 98bd a2b8 f73d 024f a63c
000000d0: 8f9a 39be 533e 1ebe 825b c53d 29ed 2d3e
000000e0: c653 0fbe 56e2 eebd 6f32 a4bd cbd7 113d
000000f0: ef9d be3d 1949 72bc 998f 32be fed8 febb
00000100: 6f60 553b 4383 c43b 1765 cfbd 7b31 7b3d
00000110: b9d5 1cb9 7fe6 fd3c 8031 a23d 4c0b 20be
00000120: 8bc4 a23d 066a 62be d72a c03d fb88 cbbd
00000130: b04f ed3d e5c7 ab3d 270d 113e 72aa 803d
00000140: 1b80 823d befc e23c 0864 013e f513 1a3d
00000150: e10e d1bc cd9e b3bd e7c1 e13d 25f9 2d3d
00000160: b475 f7bd 2b6f 9ebb a693 c5bd 8e3a b6bd
00000170: 106f e63d 441c 613d fdba 3bbd f7c8 e2bc
00000180: e35b 13be 08c4 0a3e 3b07 2dbe 2e2d 1abe
00000190: 1573 2cbd 27ff c43d b04b 8e3d 4f2e 80bc
000001a0: 7aed 02bd 2e23 d1bc 21f1 54bd 3b79 0f3e
000001b0: 4d81 e93d 86a8 89bd 8d5b 103e 9b69 45bc
000001c0: 6cbd 933c 29e7 133e fdf9 23bd 2cf9 003d
000001d0: 33a9 4abd ddb3 22bd 7e78 ecbd 2874 1ebe
000001e0: bef2 5abd e8a4 8fbd 829a c6bd c35e eebd
000001f0: b8b4 6c3d acb9 50bd a3c9 6b3d e12f 06bf
00000200: c74b 2dbe e525 1b3e 48fe 03be ea1d 19be
00000210: 47c2 7abe a33a 89bd ecac fdbc ad92 0dbe
00000220: 26eb 5cba f8ac dabc d8de bebc f74b 17be
00000230: 713f 173e 43de 4c3d 2572 fa3d c610 0bbe
00000240: f974 223e df4d 5c3d e238 38be 0d8d 7dbd
00000250: d0da 03be c037 633d dec1 b23d 2892 713d
00000260: b72f f43d caee 07be 8a85 0e3e 8b6d d4bd
00000270: d007 13be 3e35 cc3c 7dec c83d 130d 8cbc
00000280: 193e eabe d78d f23d 1100 a0bb f13c 3fbd
00000290: 41c2 203e 455b 1cbe 09a0 703d 4bd7 173e
000002a0: bd41 d3bd 8058 31bd ccc9 26be 6885 d2bd
000002b0: b8a9 c4bc 639d 473d 9e41 fa3d adc3 223e
000002c0: 1767 9abd eac7 2abd bef0 bf3b fa44 1dbd
000002d0: b3b6 1d3e cd5a 60ba d2bc 393c 58c2 ae3c
000002e0: 0c5e 78bd 28d9 86bd 2118 f43d e143 223e
000002f0: 77d5 173c 6591 0e3e 0c61 2bbe c837 40be
00000300: 1765 49bd e4fa 593c 122c f8bd c0c8 09be
00000310: 07de 85be 61d7 d4bb 2dcf 29be 0aab 8e3d
00000320: 94ed 3cbe 2f7e 34bd c08b a23d e765 15be
00000330: 2760 0c3e a2a1 2d3e abe4 1e3e a912 923d
00000340: 2a0a 5d3d 883b 673d abc7 353e 5824 53be
00000350: 8d84 cabd f329 86bd 97d4 293e d088 abbd
00000360: 4c50 e73d 3f8b 0e3e 9a36 9a3c 678d 30bd
00000370: 3d3f 9a3d 303a bfbd d50f 883d b67a 283c
00000380: a675 993d 8818 13be 06eb 22be 61cd 33be
00000390: 630b 3abe 0da4 e73d 156c 1bbe 60ed 18be
000003a0: e93f e2bd d8ca 89be 7208 31be cd77 94bc
000003b0: 26a7 a43b bbeb b53c 7950 00be 9422 a83d
000003c0: 1f5f e9bd 691e cf3c fab0 ec3d c111 3bbe
000003d0: 2f37 20be d949 453b 69c1 0bbe 4a3e 2a3e
000003e0: e006 96bd 9f54 34be fda6 21be 0d0b 043d
000003f0: d433 0fbe 14eb 00be b746 0a3e c10d 4ebe
-0.15698677 0.00978347 -0.14798225 0.14469695 -0.017423524 0.009720433 0.039357547 0.05969919
-0.1764937 -0.08533075 -0.16093387 -0.04307197 -0.019664813 0.044599205 -0.020197 -0.06764314
0.07622352 -0.17050931 -0.05987432 -0.02485598 0.15930174 0.13047227 -0.15151033 0.06352575
0.049712103 -0.10063424 -0.14864649 0.12357061 0.02092806 -0.014949171 -0.1569881 -0.019639194
0.007162093 -0.2986462 -0.13258466 -0.07821122 -0.1537272 -0.11931838 0.1188907 -0.12240445
0.08256924 0.01901305 0.07289091 0.024333103 -0.14293107 0.010120439 -0.009672937 0.17070124
-0.1496804 -0.074226424 0.12095763 0.020301346 -0.18125366 -0.15453462 0.09636594 0.16985
-0.13996801 -0.11664264 -0.08017432 0.035606187 0.09307467 -0.014787936 -0.1743759 -0.0077773323
0.00325587 0.005997093 -0.10126703 0.061326485 -0.00014956937 0.030993698 0.079195976 -0.1562931
0.07947644 -0.22110757 0.09383171 -0.09938236 0.11587465 0.08387736 0.14165173 0.0628251
0.063720904 0.027708407 0.12635815 0.03761669 -0.02551979 -0.08770523 0.11023312 0.04247393
-0.12082997 -0.0048350296 -0.09647302 -0.08897887 0.11251652 0.054958597 -0.045832623 -0.027683718
-0.14390521 0.13551342 -0.1689729 -0.15056297 -0.04210194 0.09618979 0.0694803 -0.015647082
-0.031964757 -0.02552947 -0.05198777 0.1401109 0.11401615 -0.067215964 0.14097424 -0.012049104
0.01803466 0.1444365 -0.04003333 0.03148763 -0.049477767 -0.039722312 -0.115464196 -0.15473998
-0.053454153 -0.07013875 -0.09697439 -0.11639168 0.057789534 -0.05095832 0.057565343 -0.5241681
-0.16923438 0.15151174 -0.1288997 -0.14952818 -0.24488173 -0.06700637 -0.030966245 -0.13825484
-0.0008427374 -0.026693806 -0.02329962 -0.14775072 0.14770295 0.050016653 0.122288026 -0.13580617
0.15864934 0.0537852 -0.17990449 -0.061902095 -0.12876439 0.05547309 0.087283835 0.058977276
0.119231634 -0.13274685 0.13918129 -0.10372456 -0.14358449 0.024927732 0.098107316 -0.017096078
-0.45750502 0.1184346 -0.0048828204 -0.046688978 0.15699102 -0.15269192 0.05874637 0.14828221
-0.10315273 -0.04329729 -0.16287917 -0.102793515 -0.02400671 0.04873408 0.12219547 0.15894957
-0.07539194 -0.04169456 0.005857556 -0.03839586 0.15401725 -0.0008558452 0.011336522 0.021332905
-0.060636565 -0.06584388 0.11918665 0.15846206 0.009267203 0.13922651 -0.16736239 -0.18771279
-0.049168672 0.013304446 -0.12117781 -0.13455486 -0.26145956 -0.0064954017 -0.16582938 0.06966217
-0.18450004 -0.04406565 0.079368114 -0.14589654 0.13708554 0.1695619 0.15516917 0.071324654
0.05396477 0.056453258 0.17751949 -0.20619333 -0.09888563 -0.0655097 0.16585003 -0.08375704
0.11294612 0.13920306 0.018824864 -0.0431036 0.07531593 -0.0933727 0.06643645 0.010283163
0.07493143 -0.14364827 -0.15909967 -0.17558815 -0.18168406 0.11310587 -0.15177949 -0.14934301
-0.11047346 -0.2691257 -0.17288378 -0.018123532 0.0050248085 0.022207132 -0.12530698 0.0820972
-0.11395096 0.025283055 0.11557193 -0.18268491 -0.15646051 0.003010383 -0.13647999 0.16625324
-0.0732553 -0.17610405 -0.15786357 0.0322371 -0.13984615 -0.12589675 0.13503538 -0.20122434

mlp.2.bias f4 [32]
00000000: 1993 38be 4752 293e 6ff1 16bd b053 74be
00000010: b230 b6bd 9f95 103e 4f96 2b3e 111d adbc
00000020: 0cb2 ec3c 6e0e 51bd 82d4 14be ba5e 8bbd
00000030: 3868 23be 87ae 52bc 9fd7 15bb 3679 6dbe
00000040: f08c 223c 2201 053e aa48 5dbc c6a1 13be
00000050: bca8 51be 3984 f9bc 6511 85be da49 3dbe
00000060: 3667 40be 9aa9 c5bd ebbf 3b3e 2c84 1cbe
00000070: d445 2b3e 0d56 6ebe 928c 67bd d4ba 74bd
-0.18024863 0.16535293 -0.036851343 -0.23860049 -0.08896007 0.14119576 0.16756557 -0.021132024
0.028893493 -0.05103915 -0.1453419 -0.06805177 -0.15957725 -0.012858993 -0.0022864116 -0.2319077
0.009921297 0.12988713 -0.013506094 -0.1441718 -0.20474523 -0.030458556 -0.25989833 -0.18485203
-0.18789372 -0.096514896 0.1833493 -0.15284795 0.16725856 -0.23275013 -0.056530543 -0.059748486

mlp.4.weight f4 [32, 32]
00000000: 35a2 11bd a760 4cbd 29ed 0a3e 6977 61bd
00000010: a091 853d 707d 713c 99e8 ebbd 8e01 bdbe
00000020: 0063 523d f3ed 073d 5043 43be 65cc b7bc
00000030: 3760 733c b16c 91bd eb43 b6bb e2db ef3d
00000040: 808a 22be c3be f6bd 46ad babd fd90 e43d
00000050: 1aa8 cc3d 198a 4b3e 63ab 613e ad73 a3bd
00000060: 77fe 6abc 94ac 0fbe 7439 073d 0b0e 7dbd
00000070: 99f7 9bbd a34d 993d e6a2 a33c 8370 2d3c
00000080: 5082 b83c e41b 1cbe 5f1f 913d b54f 613c
00000090: 37f9 1a3e 02d6 06be effa 10be fe3c b43d
000000a0: 7660 cbbd aab0 d63d b624 42be 30d6 26be
000000b0: bb5f 8c3d 5edf 9c3d 37ff 833c 1e67 553d
000000c0: e7a2 5c3d 3367 a9bc 18fb ef3d ca26 743e
000000d0: 33b2 783e 5f79 89bd 6fae 3e3e f3b6 ef3c
000000e0: 6837 b13c 1d5e 8d3d bc64 10bc 2770 3bbd
000000f0: fafa 9a3d 2c0c 373d 64f9 3b3d da2a cf3d
00000100: 342b 893d 9360 a3bd f695 673d 57ae ddbc
00000110: 0cea 3c3e f5bd b13b 6684 053e 794e 013d
00000120: c8ed 043e 9163 a13c 21d4 5cbe 732a eb3d
00000130: b13c 1a3e 3a7b 643d 3f13 5c3e 8473 d4bd
00000140: f715 28bd 78ee c73d 9bf8 383d 92e9 7bbe
00000150: 86d7 9abd 4fbf 453c 1dcc d43d b7f0 013e
00000160: f579 9cbd cee9 893d 317e 923e af2a 6ebd
00000170: d0e5 89bd 91fb 8c3e 0de2 a33c 4b69 e9bd
00000180: 2a08 88bd dd82 2fbd 4ef7 053e 6d00 0d3e
00000190: 0e8a 0f3e 56b7 4b3b dba1 debd 0824 5d3e
000001a0: b2f8 c93d d446 03be 1491 c4ba 52d5 f03d
000001b0: a01f 79bd d0f9 d5bc ea88 ddbd c18c 3cbd
000001c0: 6171 0a3d 33f6 22be a6fb cfbb 1762 1a3e
000001d0: 8cda 30be 0bbe 243d f490 06be 7780 903d
000001e0: acdf f13c 455b 0ebd 4856 103d 7998 15bd
000001f0: e80b b4bd 5d44 b13d 4233 c3bd 6349 243c
00000200: 47bd 2b3e 4f1d 3a3e 5104 1bbe 63a1 a4ba
00000210: 1062 22bd a7b4 013e 7c12 e73d 4973 a03d
00000220: f17e 5dbe e16b 15be 664b 18be 5d8a ba3d
00000230: 8045 03be 7507 3bbd e50e 50bd 4c81 fbbd
00000240: 643a 46bd ba10 473d abd7 22bc 9a65 cabd
00000250: c146 b5bd d949 093e 8757 1e3d 7b8e 83bd
00000260: 0f25 7e3c ecbf 7d3d bcd4 25be 03eb 8abd
00000270: 58d0 ef3d 62b3 28bd 0911 303e 56ea 033e
00000280: 4294 e2bd 8d5b b23c 361d 893d e1e6 9cbb
00000290: c990 953d a681 ffbc 1eb4 8f3d 7301 e23d
000002a0: c15a 45be fd24 383e 2ad7 a53e 5c65 62bc
000002b0: ca6f 423d 5dc1 c0bd 6539 96bd a159 05be
000002c0: 8798 8c3d eaad 0c3e f2ad 15be 8e9a 103d
000002d0: 4ef0 433e 2b11 0fbe 81be f8bd 50ec 4bbc
000002e0: 48b7 ab3c 78a2 713d 79da 383e 064e 56be
000002f0: c5e4 223e ab90 cebd b4fb 2c3e ebab 8bbd
00000300: 97c8 6bbd f709 95bd e16f 983d 8052 30bd
00000310: f938 d3bd 41cb 933d fb91 22bc ddb3 63bd
00000320: bfe4 e0bc 7739 02be 5e1d 53bd 5fbf eebd
00000330: a2c2 bc3c 3d74 d3bd 3998 f43d 24ba 2f3e
00000340: 9cef d9bd 4d69 23be 4393 b73d acba aebe
00000350: b66f f23c 84a6 c63d db35 1fbe f605 6fbc
00000360: 73a9 09bd 72ce 40be b69f 903e 5974 8a3d
00000370: 92a1 babd 9559 0ebe 2ecf 02be 23e2 55bd
00000380: 91b5 013d 5228 c7bd f7d9 b3bd 9016 06be
00000390: 3103 6c3d e266 493e 3b07 8c3e 18c2 78bd
000003a0: 1e8a d13d 9da0 173e 6d6c b73d 7371 b93b
000003b0: 2bba 3e3d d127 bb3d 78b2 d2bd de15 263d
000003c0: b938 823d a969 a6bd a6c8 bd3e b7fe 603e
000003d0: ab03 2abe f68a 103e fcec c6bc 77e4 19be
000003e0: ca1a 233e fd5d d63d c2c0 20be de37 473e
000003f0: 8a94 43bd 0354 8bbd 67c4 203e e472 1e3d
-0.035555083 -0.049896862 0.13567032 -0.05504552 0.065219164 0.014739379 -0.11518974 -0.3691525
0.051363945 0.03318591 -0.19068646 -0.02243633 0.014854482 -0.07100809 -0.0055622957 0.11711861
-0.15873146 -0.12048104 -0.091150805 0.11160467 0.09993 0.19876899 0.22038035 -0.07981048
-0.014342896 -0.14030677 0.033013776 -0.06178097 -0.07615585 0.07485511 0.019975137 0.010585907
0.022523075 -0.15245014 0.07086062 0.013751914 0.1513413 -0.13167575 -0.14158224 0.08800696
-0.09930508 0.10482915 -0.18959317 -0.16292644 0.06854197 0.076597914 0.016112907 0.052100293
0.053866293 -0.020679092 0.11717814 0.23842922 0.24286728 -0.06712603 0.18621229 0.029262042
0.021632865 0.06902716 -0.008813079 -0.045761254 0.07567401 0.044689342 0.045892134 0.10115595
0.066976935 -0.079774044 0.0565395 -0.02706067 0.18448657 0.005424256 0.13038787 0.031568978
0.12981331 0.019700797 -0.21565296 0.11482706 0.15062214 0.05578158 0.21491717 -0.10373595
-0.041036572 0.09762281 0.045158964 -0.24600819 -0.07560639 0.012069537 0.10390494 0.12689482
-0.07640449 0.06734048 0.286119 -0.058146175 -0.067332864 0.2753568 0.02000525 -0.11397036
-0.06642182 -0.04284941 0.1308262 0.13769694 0.14017507 0.0031084619 -0.10870715 0.21595776
0.09861888 -0.12819988 -0.001499685 0.117594376 -0.060821176 -0.026120096 -0.1081713 -0.04603267
0.033799533 -0.1591423 -0.0063471375 0.15076481 -0.17270869 0.0402203 -0.13141233 0.07055753
0.0295256 -0.03475501 0.035238534 -0.036522362 -0.087913334 0.086556174 -0.09531261 0.010027262
0.16771422 0.18175243 -0.15138365 -0.0012560304 -0.0396443 0.1266657 0.112828225 0.07834489
-0.21630456 -0.14591934 -0.14872512 0.09108422 -0.12819481 -0.04566141 -0.050795455 -0.12280521
-0.04839553 0.048599936 -0.009939115 -0.0988266 -0.08851386 0.13407077 0.03865769 -0.0642366
0.015511765 0.06195061 -0.16194433 -0.06783106 0.1170966 -0.041186698 0.17193998 0.12882361
-0.11063434 0.02177217 0.06695025 -0.004788265 0.07303006 -0.03118975 0.070167765 0.11035433
-0.19272901 0.1798286 0.3239072 -0.013818111 0.04746989 -0.09411881 -0.07335166 -0.13022472
0.0686503 0.13738218 -0.14617136 0.035303645 0.19134638 -0.13971393 -0.12145711 -0.012446478
0.020961419 0.058992833 0.1805209 -0.20928201 0.15907581 -0.10086187 0.16892892 -0.068199
-0.057564344 -0.07277291 0.07443214 -0.043047428 -0.10313601 0.07216502 -0.0099225 -0.055591453
-0.027452825 -0.12717234 -0.05154168 -0.11657595 0.023042027 -0.10324905 0.11943097 0.17160851
-0.10641405 -0.15958138 0.08963635 -0.34126794 0.029594284 0.09699729 -0.15547888 -0.014588824
-0.033608865 -0.18828753 0.2824685 0.06760473 -0.09112848 -0.1390136 -0.12774345 -0.052217614
0.031667296 -0.09724487 -0.08781808 -0.13094544 0.05762023 0.19668153 0.27349266 -0.060731977
0.10231422 0.14807363 0.089562275 0.005659276 0.046564262 0.09138454 -0.102879465 0.040548198
0.06358475 -0.08125622 0.37067145 0.21972166 -0.16602962 0.1411551 -0.024282925 -0.15028559
0.15928188 0.104671456 -0.15698531 0.19454905 -0.04774908 -0.06803133 0.15699922 0.038683787

mlp.4.bias f4 [32]
00000000: baa6 393d ae27 173d 126b 84bc d60c bbbb
00000010: 5a5a 00bd 76d4 80bc 0f59 a43d 0b9e 03bc
00000020: 88d4 7c3d d0d3 28bd 5948 263c 49d0 9bbd
00000030: 7dcf 86bd cbef f53c a761 f03c c523 37bd
00000040: 65a4 6b3c ab28 113d 1fc7 94bc a3ee ea3d
00000050: 4023 8638 3332 db3c a74a bebd 76cc ddbc
00000060: 175d 44bd 588a 8dbb ae92 203d f797 e73c
00000070: 9d37 083d c199 c73c 2f1d 43be 78bd c7bd
0.04532502 0.036903076 -0.016164336 -0.0057083173 -0.031336166 -0.01572631 0.08024799 -0.008033286
0.061726123 -0.041217625 0.010149085 -0.076080866 -0.06582544 0.030021569 0.02934344 -0.044711847
0.014382456 0.035439175 -0.018161355 0.114712976 6.396184e-05 0.026757335 -0.092915826 -0.027075034
-0.04794034 -0.0043194704 0.039202385 0.028270705 0.033256162 0.024365308 -0.19054101 -0.09752935
